Snake Genetic/plot/best_snakes_each_generation/snake4/b1.npy (npy, 640 bytes, 1 tensors)

array f8 [64, 1]
0	0xbfd1ec885ee0f9a4	-0.2800618101645347
1	0xbfc783aa1bab7380	-0.18370558119832125
2	0xbfcd7c9bf9a9f088	-0.2303652733861592
3	0x3fc780b1a9b30af5	0.183614929066685
4	0xbfe745cdda730324	-0.7272710100733986
5	0xbfd50ff07aa1e8c0	-0.32909786201311064
6	0x3fe08f7c1e5bea7e	0.5175152390432485
7	0xbfea4392fa140aca	-0.8207487949697108
8	0x3fe69cc422a4721e	0.7066364933594433
9	0xbf7564b75cb88e00	-0.005223003634032164
10	0x3fe0dfff28487dd4	0.527343348196093
11	0x3fe6a30295283996	0.7073986924386186
12	0xbfc9c6b8977e581b	-0.20137698552270042
13	0x3fc9199a7e9c82c0	0.1960938566417294
14	0x3fdd6572acdeb040	0.45931689149688637
15	0x3fd1f3b2519ff9cc	0.2804990574949471
16	0xbfef86c10df7f766	-0.9851994774651132
17	0xbfe8d3afa374fbee	-0.7758405869025162
18	0xbfed6496d8a54720	-0.9185289603576372
19	0xbf822b238b12f180	-0.008871343309117874
20	0xbfc0056d9e5c3fe8	-0.12516565544547054
21	0x3fd55a2860dc0868	0.333627791013106
22	0xbfb1706d03ed2570	-0.0681217321954557
23	0xbfd956c995d85540	-0.39592208512597793
24	0xbfefa6c4ff44ae1e	-0.9891076074322347
25	0xbfe0826789576738	-0.5159185106706223
26	0x3fb8909f2bac0c90	0.09595675293171468
27	0x3fcac870172021d0	0.2092418778340872
28	0x3f795f121b568e00	0.006194182138105742
29	0xbfee45e167e63f00	-0.9460303334508069
30	0xbfe7fe626b68fbe6	-0.7498027894833939
31	0x3fee354c9083474c	0.9440062353626018
32	0xbfe33261c5a1bff6	-0.5999001369473251
33	0x3fec6e2d09a3cb34	0.888449210002682
34	0x3fdd426a0e86a168	0.4571786062101837
35	0x3fe303c99876e726	0.5942123391934941
36	0x3fe3c0da4c1b1282	0.6172915922584965
37	0xbfebcd7963792698	-0.8688322966420001
38	0xbfcf52bf1144b236	-0.24471271842175363
39	0x3fdff2f2486d9d43	0.49920327256264246
40	0x3fd11e1e77c5a205	0.2674633187912437
41	0x3fe154683f721524	0.5415536154911575
42	0x3fd560dbbb4f6fe1	0.3340367631151349
43	0xbfca1fffb0d1d5ab	-0.204101525628784
44	0x3fec443c76b0cff5	0.8833296125580988
45	0x3fd0ded6169f30c8	0.26360084733165623
46	0x3fd22ad0a42f2021	0.28386322053529695
47	0xbfb5b83d8195a648	-0.08484253324208979
48	0xbfe20303c68b0c87	-0.5628680112644283
49	0x3fe0d25146d4fedd	0.5256735213697216
50	0x3fe73180564f1760	0.7247926412316978
51	0x3f7c63ddfe614f86	0.006931178248198116
52	0x3fb5a01986b26766	0.08447417772768304
53	0x3fef6cd3ede6e98c	0.9820346495173893
54	0xbfc08c9881a094d1	-0.1292906411119135
55	0x3f918b672bb35a23	0.017133342783234206
56	0x3fedb30a4597aec7	0.9281054839352344
57	0x3fd8387baca13ca7	0.37844745500928884
58	0xbfe6dbdbb30ccf52	-0.7143381592818321
59	0xbfe75ac0bb9e21a2	-0.7298282303245751
60	0x3fd5614eeee19e82	0.33406422928099044
61	0xbfdb3945849b4c8e	-0.4253705782877625
62	0xbfdf40da793f59c0	-0.48833333817074376
63	0x3fe4e74e4329ff67	0.6532355605886381
