Snake Genetic/plot/best_snakes_each_generation/snake18/W3.npy (npy, 4224 bytes, 1 tensors)

array f8 [16, 32]
0	0x3fee7c8fb478008b	0.9527052426128803
1	0xbfe9f9b6982fcb95	-0.8117325756451118
2	0xbfd4766913ac510b	-0.3197272007103186
3	0x3fc1fb9f837d77cb	0.14049142761626707
4	0x3fed1f5e857d3faf	0.9100792510234806
5	0x3fe22ba652d12e2c	0.5678283326646514
6	0x3fe13706a0eb2a86	0.5379670279447317
7	0x3fae24e2fb5e0ff4	0.05887517279100499
8	0x3fd11b7c4550d63c	0.267302577677899
9	0x3fea9ee767aab759	0.8318974518531191
10	0x3fdb382183580512	0.4253009588865818
11	0xbfb35c4005629c1a	-0.07562637454485391
12	0xbff0000000000000	-1.0
13	0xbfb1120b38f6a514	-0.06668157711705575
14	0x3fc8da260ef3e80c	0.19415736894717417
15	0x3ff0000000000000	1.0
16	0x3fc34813bc3619f5	0.15063711824423334
17	0x3fef0f2e6b81adfc	0.9706031894433518
18	0x3fdd8f5764f0455e	0.46187386376649
19	0xbfed307b30f3f4c3	-0.9121681171524404
20	0x3fe7fb6fe66825ff	0.7494430065282244
21	0x3fbfc0d8222a4636	0.12403632005796159
22	0x3fe2511fd2e14049	0.5724028700588032
23	0x3fcd719297b7ae1e	0.23002846153336604
24	0xbfdaa82fd4a1ab02	-0.41651530995174835
25	0xbfe3c06b10d7d3b1	-0.6172385529485976
26	0xbfe0ceac1ce4da06	-0.52522855418539
27	0x3fe3d3567c725fa2	0.6195480757332812
28	0xbfec28889f0f8962	-0.8799479586271384
29	0xbfd1d7084a229a56	-0.27874953498613786
30	0xbfb31f3a1a74a45a	-0.07469523569001649
31	0x3fe8918a89005727	0.7677662540251945
32	0xbfd4a6b71fb6a592	-0.32267549607294044
33	0x3fc25eb7a02a6a52	0.14351554222669677
34	0xbfd79e8fa79b6708	-0.36905280464053236
35	0xbfd33909e8bf3851	-0.3003563664359535
36	0xbf92357b63fb04ea	-0.017782142617538556
37	0x3fe46703a3c18402	0.6375749777181456
38	0x3fe6443d880f75b7	0.6958301217488757
39	0x3feb1292803ba62d	0.8460171227026813
40	0x3fc666ef12f2184f	0.17501629281122397
41	0xbfe38e1b171afa1c	-0.6110969020153934
42	0xbfe667d21831e182	-0.7001734230571375
43	0xbfe5e60edea81fe9	-0.6843332623257058
44	0x3fe41ea7795f0564	0.6287419672518522
45	0xbfea1e72e5e46824	-0.8162168970186525
46	0xbfe14a846dbd9449	-0.5403463500375746
47	0xbfde8e4266f955fa	-0.47743282371570184
48	0x3fed034ddb4bdcb9	0.9066533358699395
49	0x3fd15abad7fe3d33	0.27116271107748274
50	0xbfc50c7dd0084cf6	-0.16444370897134036
51	0xbfcbe20e1c64d465	-0.21783615480822785
52	0x3fcdc8df3118a66f	0.23269262215881123
53	0xbfd2a33c1ae79359	-0.2912130606403501
54	0xbfe9c4bc3305fc79	-0.8052655216742003
55	0xbfe8678275fbc78a	-0.7626354507794855
56	0x3fea7a1377588b24	0.8274018603300175
57	0x3fea5930a88797a8	0.8233874599070434
58	0xbfdda8496f072438	-0.46339641420906075
59	0x3fefae5bb4a6bb25	0.9900339630456513
60	0x3feb156be7f24060	0.8463649301720686
61	0x3fd4028b585c29bd	0.31265529278666887
62	0x3fcb29641b795971	0.21220065442566807
63	0x3fca5fe4fe5c12f9	0.2060514680853414
64	0x3fefffea9e3cb346	0.9999898043221058
65	0xbfe56796cf3c7f85	-0.6688951537689581
66	0xbfefffc5247a2db3	-0.9999719345518571
67	0xbfe0b85eada3edb9	-0.5225060836232195
68	0x3fc49f3acf2a11c7	0.1611093055290793
69	0xbfb8d19fead7e4d0	-0.09694861873130667
70	0x3feb2f9f3fb9810f	0.8495632404920189
71	0xbfbe07bff90f5b62	-0.11730575399938695
72	0xbfefc9a166c5ccc3	-0.9933630950239593
73	0x3fe088d54c8db6d2	0.5167032714068347
74	0x3fee85dbac3b8d52	0.9538400997084102
75	0x3fd9fa410c73d1df	0.4058992978673625
76	0xbfcd8324cf63d36f	-0.23056469084226758
77	0x3fd696c65783dc58	0.3529525618209326
78	0xbfdfabe9e260aa06	-0.49486777407824467
79	0x3fd85e19f08b65e5	0.3807434891765225
80	0xbfef87ca92230828	-0.9853260854945392
81	0x3fb2ef92f86df12a	0.07396811070606604
82	0x3f88cd7f3927f8ce	0.012110704356924986
83	0xbfe906209045e458	-0.781997949393495
84	0xbfeb2e4ffea40070	-0.8494033788156354
85	0x3fdc4ddca0dd6f6c	0.442252308935841
86	0xbfe15465d2230e16	-0.5415524582135187
87	0xbfe120b6e9aea383	-0.5352434696297766
88	0x3fdd9ca05249ef16	0.46268470798507744
89	0x3feffb6faba9b2af	0.9994428971090964
90	0x3fe321fe60e33cda	0.5978996174179898
91	0x3fe9e3441b176125	0.8089924363257849
92	0xbfe8da43f87d4826	-0.7766437390621419
93	0xbfbbf8792e4953c7	-0.10926015262641818
94	0x3fd5e345641d0721	0.34199652458856816
95	0x3fbb4ea170faf09f	0.10666855819994446
96	0x3fe991d469ea292e	0.7990514820715242
97	0x3fe96a6521fb0db2	0.794237676971923
98	0x3fb4c8fc917d6b83	0.08119181205749552
99	0x3fe74510e8ca84f6	0.7271809145642283
100	0xbfe38ffa0bb75366	-0.611325285800018
101	0x3fe7d71979cfe353	0.7450072650091023
102	0xbfc4315d040b7672	-0.15775644967554886
103	0x3fd9c758d29430d9	0.40279217304556664
104	0x3fe367340a29a59b	0.6063480566491991
105	0xbfe42ca3c300f26a	-0.630449181429481
106	0xbfe257e37b51064f	-0.5732285889172973
107	0x3fd4362fe161049e	0.3158073140112466
108	0x3fb1713dfd290348	0.06813418799084758
109	0x3fe3bd90596307cd	0.616890120109241
110	0x3fde61786ac13a11	0.4746991198088902
111	0xbfadf8fb2c226ac1	-0.058540200364594515
112	0xbfc9dcf098db8842	-0.2020550485968347
113	0x3f9cff6f1194ca44	0.02831815285498808
114	0x3fdf300dc8c723b2	0.4873079739305083
115	0x3feb138bcee2cc6c	0.8461360016575674
116	0xbfa6437d0ae9165a	-0.04348364599404127
117	0xbfde3f4a070d9dc5	-0.4726128643873973
118	0xbfe57c14a65cb6eb	-0.6713965653668458
119	0x3fd4d55ddd6a9847	0.3255228674191852
120	0xbfdaca01abd685c0	-0.4185795000176675
121	0x3fde5f5a5e57e145	0.4745698853798966
122	0xbf93a7d371140967	-0.019194892670392785
123	0xbfeffe676d5331b9	-0.9998051772359339
124	0x3ff0000000000000	1.0
125	0x3fc663cd71d001a2	0.17492073113681977
126	0xbfe9d51580708610	-0.8072612293801189
127	0xbfe882be24d95c24	-0.7659598083217856
128	0xbfbb8a6b66563b66	-0.10758086441476919
129	0xbfd3d345e685e5b6	-0.30977008354201574
130	0xbfe4c9aedf744975	-0.6496195186939945
131	0x3fe46f6519cdbdd2	0.6385980133035736
132	0x3feae9a3054bae4b	0.8410201171331634
133	0x3fe342f54791325a	0.6019235990330103
134	0xbfd98958548320f3	-0.39900787594935067
135	0xbfe9124cc37db3a3	-0.7834838693794278
136	0xbfd47ebc52451120	-0.3202353290000861
137	0xbfe5048a9be33470	-0.6568043751409629
138	0xbfdfec52e538465a	-0.4987990606760825
139	0x3fe5daa4f2238fa7	0.6829399804378128
140	0x3fc95396ffdb0699	0.19786345951984144
141	0xbfef131114ca6166	-0.9710774808946041
142	0xbfdb03bac15ebbdf	-0.4221026314143596
143	0x3ff0000000000000	1.0
144	0x3feab88122706611	0.8350225136411514
145	0x3fd43143414cdf2e	0.3155067575166751
146	0x3ff0000000000000	1.0
147	0x3fc5ccb26f78c2d0	0.17030935709910588
148	0xbfd3a68bf3b68de8	-0.3070402030955095
149	0x3fda31f91814e9af	0.4093001113102685
150	0xbf746df5383a4af1	-0.004987676514832216
151	0x3fe8fcf0b3b352ea	0.7808764943862034
152	0xbfef71176d375624	-0.9825551159980859
153	0xbfe93b3080177ca8	-0.7884752752105628
154	0xbfe154fef7775f10	-0.5416254838300762
155	0xbfbc5b7917fd37c8	-0.11077076755211046
156	0xbff0000000000000	-1.0
157	0xbfdc03757ce2917c	-0.4377111167507548
158	0x3feaf953f7dcc220	0.8429355469762108
159	0x3fcde2f11dc57d56	0.23348821595844055
160	0xbfe0acabb8278042	-0.5210779759181678
161	0xbfeff49c88822f6e	-0.9986097971136425
162	0x3fd4c5bd40d5891d	0.32456904727418295
163	0xbfe3b2519a73ad62	-0.6155174271238304
164	0xbfe1287706189207	-0.5361895674764704
165	0x3fe137d0a76cfced	0.5380633611711382
166	0xbfe6396d5544f7be	-0.6945101418893882
167	0x3fb7c17d4c924f4d	0.0927961646978563
168	0xbfccc9315b5dbcd4	-0.22488991700399785
169	0x3fe8d93f9d3a2907	0.7765195914119268
170	0xbfe01683d9dbcc6e	-0.502748418335967
171	0xbf9abbed6ac5c948	-0.02610751117885826
172	0xbfdb4e08ebd88896	-0.4266378691846823
173	0xbf9000b7e324d2d4	-0.015627740134010207
174	0x3fe784ff8a8b6845	0.734985132784694
175	0xbfe71aee2118353e	-0.7220373770120785
176	0xbfcc8bad9337adf6	-0.223012635119957
177	0x3fc33ab9225133b2	0.15022958923000612
178	0x3fe0cce00083e3b8	0.5250091562330601
179	0xbfb03d87fc8e29d4	-0.06343889156247623
180	0xbfd5ac5638bcdd3a	-0.33864360371395075
181	0xbfc71978b952ccee	-0.1804648308658225
182	0xbfeb56f0904199a3	-0.8543627564911741
183	0xbfecdd33ec0d348d	-0.9020022974379046
184	0x3fc9c3146b715985	0.20126586195210563
185	0x3fec3afa02074862	0.88219929119283
186	0x3fb05011e503105c	0.06372176972496518
187	0x3fd4ee957344f9ae	0.32706199890881293
188	0x3fefdc19ab2879c5	0.9956177084857748
189	0xbfd716d91dcc9c93	-0.36076953802189243
190	0xbfd4b2dadc0ffefd	-0.32341643801190384
191	0xbfe1c341e182462f	-0.555085125395811
192	0x3fed7a159bae116e	0.9211528816818324
193	0x3fe92d7a57aa626e	0.7868015014856391
194	0xbfe3a97e0334caac	-0.6144399702664791
195	0x3fe9e7f745d217e7	0.8095661510167219
196	0x3febeca7b26e4be9	0.8726385579087693
197	0xbfde1e204f1bb062	-0.4705887577572466
198	0x3ff0000000000000	1.0
199	0x3fdc7059561aacdc	0.4443572369443254
200	0x3fc2eb6f82ab35c6	0.14780992393791176
201	0x3fb52a0944568547	0.08267267149360179
202	0xbfdeda59cd6f1751	-0.48207707464131483
203	0xbfec162bed32ce9f	-0.8777064926893735
204	0x3fd8d47ed392989f	0.3879696909083438
205	0xbfe0c93d7db1ce65	-0.5245654540035046
206	0x3fce5670475a43ec	0.23701289638532275
207	0x3fcd66738067c345	0.2296890618304365
208	0x3fd4c27b96f520f6	0.3243702863878889
209	0x3fecd2817b936b88	0.9006965077963835
210	0xbfe6a39e308b4b6e	-0.7074728916289652
211	0xbf7ef5efcf6096ec	-0.0075587623196377955
212	0x3fcb31253b2ff9d8	0.21243729963312208
213	0xbfd8dbfce8d9350a	-0.38842699755771604
214	0x3fbf7e6feed3d131	0.12302302914378484
215	0x3feb6bf69af44720	0.8569291140031261
216	0xbfed8a729de988ad	-0.9231503566955063
217	0xbfef26ebd2cff345	-0.9735011212756964
218	0x3fb7bbb9d5ad103f	0.09270822016429835
219	0xbfdbbb6a5dd37659	-0.43331393397042955
220	0xbfde82891b9228d8	-0.47671725933527176
221	0x3fd69fedc07d80df	0.3535112743175101
222	0xbfdb958f05c5cb8b	-0.43100333751424874
223	0xbfe19c712d08c8e0	-0.5503469352318255
224	0x3fea5f5e24efc6a7	0.8241415711801964
225	0x3fd4a47159657f7b	0.3225367901813951
226	0x3fe057923d7f0088	0.5106898499580135
227	0xbfc81f11ee5aa4ca	-0.18844818247206369
228	0xbfe53210047de45d	-0.662361153386097
229	0xbfe1c45e20e37da6	-0.5552206652027294
230	0xbfd95359f7a81d8d	-0.39571236787056635
231	0xbfe3615c0e387184	-0.6056347158187667
232	0xbfd685eacf823920	-0.35192365898628175
233	0x3f97805516cc2f07	0.022950486675696016
234	0xbfecd1d3e8d24a70	-0.9006137416166222
235	0xbfe323367d4049c0	-0.598048443442444
236	0xbfbe843db06ec080	-0.1192053371185029
237	0x3fe9359b458211e4	0.7877937657909198
238	0x3fce88caed45030b	0.23854958138874624
239	0xbfd89927990908f6	-0.38434781975605803
240	0xbfee76b0ef6e5fdb	-0.9519886661901141
241	0x3fe66ff68a75b8f9	0.7011673645299928
242	0x3fe2c3de686a2ad7	0.5864097632741857
243	0xbfe014026e5ea56e	-0.5024425655039246
244	0x3fd7f2512d77697f	0.37416486206134175
245	0xbfeff7b41f17a698	-0.9989872557900581
246	0xbfefff1d66e4f9eb	-0.9998919496209145
247	0xbfd6635e5c926c6a	-0.349814978029548
248	0x3fe4c4cf498c0128	0.6490246235335109
249	0x3fa316596d88d607	0.03727988683787591
250	0x3fcb1fc5aa90b408	0.21190710857754902
251	0x3febe5e041659a0d	0.8718110348971223
252	0x3fe564c6e9a410a8	0.6685518801973744
253	0xbfe5db1357e299c3	-0.6829926220423704
254	0x3fc3346bbbf4c93d	0.15003725698040596
255	0xbfde83c6fd8bb117	-0.47679304848021914
