Snake Genetic/plot/best_snakes_each_generation/snake80/W2.npy (npy, 16512 bytes, 1 tensors)

array f8 [32, 64]
0	0xbfc1aa77ab1b5fde	-0.13801475386458056
1	0x3fe174f059ac06c9	0.5455247641950446
2	0x3fe03653df2836ee	0.5066317900215986
3	0xbfcd0679ca4ebb80	-0.22676012399957912
4	0x3fb83b40ba1e089e	0.0946541265857683
5	0xbfe8c8b9a8dccdb7	-0.7745025919052101
6	0xbfe24b7d33245164	-0.5717149733414257
7	0x3fd05c6db1d8dfd4	0.255641387633202
8	0x3fe81a8aa9e20453	0.7532399480843516
9	0xbfe62e7fcf5cff2e	-0.6931761789382784
10	0x3fefffffffffffff	0.9999999999999999
11	0xbfe3c4b66716edbb	-0.6177627576320711
12	0x3fba921139f28bcf	0.10379130997402729
13	0xbfdf050cceeb894f	-0.4846832295135259
14	0xbfea44d8c3681c72	-0.820904142049484
15	0x3feff95f2de06778	0.9991908927943163
16	0x3fe1c8996bd3b020	0.5557372194284689
17	0x3fe90f292d38cfe6	0.7831006892433805
18	0xbfdd6dba8b02b865	-0.4598223073506971
19	0x3fe2ce1505bad905	0.5876565086280442
20	0xbfe51d53b27c1feb	-0.6598299490005933
21	0x3fc8c52335f4c73d	0.1935161603410566
22	0xbfe56767bb3c581a	-0.6688727051684993
23	0x3feae2b116574d72	0.8401723324154047
24	0xbfe232e986b4dbd3	-0.5687148695932315
25	0xbfd6f5c1835f1c8b	-0.3587497504162875
26	0xbfe57dc181f6d336	-0.671601060711146
27	0x3fdfbf1b4b6adb62	0.4960392223833222
28	0xbfe5c49dea89ffc8	-0.6802510815468787
29	0xbfe7a4b0738aca9a	-0.7388536698038763
30	0x3fe564a886900894	0.6685373905350098
31	0xbfd8cba5db498a0c	-0.3874296800114798
32	0x3feccf093bea707a	0.9002729578237585
33	0x3feffffffffffffd	0.9999999999999997
34	0x3fef395dec0cfb88	0.9757527933469285
35	0xbfe2f3bb05006bde	-0.5922522638023755
36	0xbfa90cafe5cbb2ef	-0.04892491989253311
37	0xbfd241ec9323a3cf	-0.28527368897499356
38	0xbfb664c229132dad	-0.08747495177083549
39	0xbfdbbd358578b033	-0.4334234050209062
40	0xbfd30d8efa5528d9	-0.29770254560993475
41	0xbfef4b024ead0a2c	-0.9779063736571678
42	0x3fda81b0b3763fae	0.4141656639630992
43	0x3f00baefce968000	3.191036541783099e-05
44	0x3fd92b62f81db2bf	0.393273107815542
45	0x3fe44c4aa589c78c	0.6343129380386343
46	0x3fe6e00d0dfdbbcb	0.7148499749435983
47	0xbfdc1f2ce4a626a0	-0.43940279320723086
48	0xbfd1b29f6e5be51a	-0.27652726914637216
49	0xbfb6aabc95e0f9b3	-0.0885427347102226
50	0xbfd24a44bd15b7c7	-0.2857829901248547
51	0x3fde365f33681a1a	0.4720685960786867
52	0x3fb7f1fca3eb7c7c	0.09353617670011433
53	0x3fefde36d3fef4b0	0.9958757534547171
54	0xbfe14e74db75e1a3	-0.5408272062623393
55	0xbfaae258a77cb480	-0.052508135266500666
56	0xbfe12a29e23807c8	-0.5363969248139648
57	0x3fd656812edd738e	0.349029823080678
58	0x3fd3e8293135b3a4	0.31104497724191504
59	0xbfe196dd90e52330	-0.5496661977750588
60	0xbfd86d2b7f81aa80	-0.38166320277984056
61	0xbfc016a152cffb84	-0.12569061797691117
62	0xbfc03641b51ba01e	-0.12665578215751422
63	0xbfa06fd41f33aa08	-0.03210318451768407
64	0xbff0000000000000	-1.0
65	0xbfe80f06dc645313	-0.7518343262223389
66	0xbfe6cdd872b1b1d0	-0.7126276245231171
67	0x3f99bece04816b3f	0.025141924881931784
68	0xbfefffa7b0ada6f3	-0.9999578905819518
69	0xbfd811ad5b921690	-0.3760789293522544
70	0xbfad83590b70af5b	-0.05764272942209799
71	0x3fde3ff0bc7e607d	0.4726526108511349
72	0x3fb9ad43c76d79d1	0.10030006045187824
73	0x3feca0e1925943b8	0.8946388109562724
74	0x3fc06b60b1c4b80b	0.12827690773104936
75	0xbfa1b46eaf22065f	-0.03457971465924169
76	0xbfef035abbb3a2ae	-0.9691594759034012
77	0xbfc4f2e43e097c04	-0.16366246251251948
78	0x3fde1f3d966eb081	0.47065677347814733
79	0x3fb6e9706ee59686	0.0894994993919572
80	0x3fd31cf60c6adf59	0.2986426469101296
81	0xbfd925482cdb4706	-0.39290050869486526
82	0x3fe71fa70ac27ce1	0.7226138315344565
83	0xbfea8cc4ceb18bf9	-0.8296836888297313
84	0xbfd3f28146805637	-0.3116763294686708
85	0x3fafaa938a4b9cdf	0.061848269111402614
86	0xbfde58258ed3bc4b	-0.4741300482555217
87	0x3fe96cd7772b59f9	0.7945363357092098
88	0x3fc8cab7e19ad960	0.19368647113669635
89	0x3fedf915d5e1190f	0.9366559197740417
90	0xbfdb8b4765ed9bd4	-0.4303759093658617
91	0x3fe9005921028149	0.7812924999925964
92	0x3fa1f90a3f8e43ab	0.03510314966036473
93	0xbfe701bbf7c6a21a	-0.7189617003796827
94	0x3fd1a892630609f0	0.2759138075854528
95	0x3fb6cd841253b437	0.08907342383800275
96	0x3fe1efa4282146e7	0.560503080729373
97	0xbfc3f353a35c890b	-0.15586324192651832
98	0xbfed2c85fd304285	-0.9116849846924003
99	0xbfb9a828fcabcbb6	-0.10022216957786054
100	0xbfe714605dd1c9db	-0.7212373573695986
101	0x3ff0000000000000	1.0
102	0xbfd3d211f4400c82	-0.3096966634040613
103	0x3fb94bf8d25530c1	0.09881549010350722
104	0x3fb27d110da342b0	0.07222086508705661
105	0x3fe517cdcd435b32	0.6591557511372683
106	0xbfd199e50f99a133	-0.2750179912896044
107	0xbfc49e49212a3736	-0.16108049506549954
108	0x3fc674aa9a9d51c6	0.17543537663972425
109	0xbfeaf78b09c268f6	-0.8427176657308155
110	0x3fa4b0994aa065a8	0.040409841880499286
111	0x3feffffffffffffa	0.9999999999999993
112	0x3fcf3452efd1594e	0.24378430089809416
113	0xbfcfc9fe5d6ec206	-0.24835185587063807
114	0x3fee18bd62e1957e	0.9405199939034643
115	0xbfd95c7832e7c431	-0.39626889201378207
116	0xbfb2033bb57f9d75	-0.07036183529964098
117	0xbfe1ac8f6f1d30c2	-0.5523144884296232
118	0x3fe3538d8fae9c3a	0.6039493376055198
119	0xbfcd480cb569e4b6	-0.2287612806137866
120	0x3fdb69b9a56ac9e7	0.42832795290010356
121	0x3ff0000000000000	1.0
122	0xbfd0d3a83ea38eb8	-0.2629185306270574
123	0x3fd9f89dc3f5e215	0.4057993329693386
124	0xbfcaa636594a3433	-0.20819739684921643
125	0xbfcc8fdd4794259e	-0.22314039225629484
126	0xbfdff3e42fbbc5c2	-0.4992609468600585
127	0xbff0000000000000	-1.0
128	0x3fe9ce3a72387218	0.8064243536824192
129	0x3fb3a9fe8f2e3989	0.07681265826815865
130	0x3fd669ad3c427e14	0.3501999939416873
131	0xbfe905c39965eb86	-0.7819536205346231
132	0x3fc728784c1809df	0.1809225436737298
133	0x3f978ff664a7df00	0.02301011075357362
134	0xbfe39089ec2902e1	-0.6113938915733251
135	0x3fec9bfd7e982b3d	0.8940417740389887
136	0x3f9630a5fc51d727	0.021669953847285896
137	0xbfe4acb0d3ee56d1	-0.6460804118421156
138	0x3fe75a4e82585922	0.7297737642100268
139	0xbfee4fc823ad1914	-0.9472389885711743
140	0xbfa97ccc885755c3	-0.04978026546784122
141	0xbfed85f3e8888016	-0.9226016561187886
142	0x3fd2aff72c860b9e	0.2919900831986356
143	0xbfe276f0e59428b8	-0.577019165416707
144	0xbfea3517da30b68b	-0.8189811002282154
145	0xbfc453b43c89641d	-0.15880444484608428
146	0xbfdf0704ee7dad22	-0.4848034218800469
147	0x3fe6b35060850f0e	0.7093889126922208
148	0xbff0000000000000	-1.0
149	0x3ff0000000000000	1.0
150	0x3fe9ab0b8e610c07	0.8021295338479612
151	0x3fe97066881ba01a	0.7949707659108782
152	0x3fddcf6710d6f4ed	0.4657838501405667
153	0xbfdc8dcdb31e07e3	-0.4461549996559581
154	0xbfcf88ff1a080885	-0.24636830111564137
155	0x3fe47c9b3e8d4fa3	0.6402107450216942
156	0x3fe4e77fefe0c006	0.6532592473140546
157	0x3fe25a5dccfdd236	0.5735310558071152
158	0x3fc8cbedce11f02c	0.19372341691985306
159	0xbfd397211509555b	-0.3060991959985892
160	0x3fec55d60e6fbaf5	0.8854780466043325
161	0x3fe17e8bd1ad3528	0.5466975302930779
162	0xbfadb19438b57ec8	-0.05799544517753713
163	0x3fd0251678e03039	0.2522636585642917
164	0xbfe58dce41761420	-0.6735602644481595
165	0x3fe386142e218dc9	0.6101170445439773
166	0x3ff0000000000000	1.0
167	0x3fe5dd376cb0f44d	0.6832539675593893
168	0xbfefffffffffffff	-0.9999999999999999
169	0x3fdd9386cf441a3d	0.462129309089878
170	0xbfe80b5e564ff974	-0.7513877568997445
171	0xbfee6b26fbf157dc	-0.9505801125294471
172	0xbfc94066abb717d1	-0.1972778643086586
173	0x3fed961bdddaf881	0.9245738347160711
174	0x3fe5b2d48aa7b7bf	0.678079863367877
175	0xbfefd26360c0f9d3	-0.9944321527216807
176	0x3faf95cdf382019b	0.06168979260928894
177	0xbfdb357de6aa3f5f	-0.4251398804271868
178	0xbfb9dc3eda8be52c	-0.10101692996604034
179	0x3fd887948ec17074	0.3832751649949906
180	0x3fed15bb2af414ae	0.9089027251181017
181	0xbfeed10d0b34bece	-0.9630189150684261
182	0xbfe985d8e56fb40f	-0.7975887757471599
183	0xbf9b7a65c3ff7948	-0.026834096992268713
184	0x3ff0000000000000	1.0
185	0xbfebc16347ec0408	-0.8673569111562083
186	0x3fd0723c68d44e8d	0.25697241055716163
187	0xbfe4cf2a676e13ba	-0.6502887745015109
188	0xbfd11859c45647bd	-0.2671112458566503
189	0xbfeffffffffffffd	-0.9999999999999997
190	0x3fe7bdff55c12e10	0.7419430422682485
191	0xbfec87f75388a841	-0.8915974265594359
192	0xbfd195377827504a	-0.2747324632048317
193	0x3fd38f2a3785a328	0.30561309263298364
194	0xbfeaf13d6cb789de	-0.8419482348802452
195	0x3fe6fc2efa4af3ff	0.7182841194659203
196	0xbfdac56b1e478a6c	-0.4182994647691547
197	0xbfe198aa1140ccc1	-0.5498857819533428
198	0x3fcbab3e1f2a4b27	0.2161634113477586
199	0x3faa449211152d75	0.05130440195588452
200	0x3f919605ef9b6743	0.017173855542615312
201	0xbfa0e97a0934a0b1	-0.03303128588078275
202	0x3fcd37a85d870dc9	0.22826103750968077
203	0xbfe98cf44e2e1fc4	-0.7984563376385201
204	0xbfb82e15db9b77cb	-0.09445320712572351
205	0xbfd0e20d6a1e318d	-0.26379714358406475
206	0xbfc2a915b9526969	-0.14578506039544983
207	0x3fef49ee59ce1654	0.9777747873310525
208	0x3fc32970ec86f6c8	0.14970218228511656
209	0xbfe5f11b69e53ae2	-0.68568201716138
210	0x3fd576989e44b56d	0.335363535460451
211	0x3fa18423fe588bce	0.03421127776916642
212	0xbfde34eccc1b27d2	-0.4719802849982645
213	0x3fbe5fcb16ffda6d	0.11864919005879822
214	0xbfe082905651eb3a	-0.5159379659593022
215	0xbfb485ef84e8987e	-0.08016869540060331
216	0xbfd6711b8e612204	-0.3506535425590587
217	0xbfe08af6abd5b209	-0.5169633251330775
218	0xbfed78a6a01a12e1	-0.9209778906811971
219	0x3fe5f5afe6afca4f	0.6862411027526124
220	0x3fe0bfd0d64ce614	0.5234150109819802
221	0x3fe413e2322eb306	0.6274271946072936
222	0xbfec111e9d0d3686	-0.8770897929586716
223	0x3fe800df34a7b539	0.7501064327640626
224	0x3fec7694c87268c6	0.8894752421358809
225	0x3fc9cc804d62181c	0.2015533807609139
226	0x3fe55efdadf36470	0.6678455731845485
227	0xbfd19ef28ed4cc6f	-0.27532638500560486
228	0xbfeb0c0bfa987ccc	-0.84522055572952
229	0xbfe8fb10bfb56a0e	-0.7806476349172173
230	0x3fef5724130680b2	0.9793873187627666
231	0x3feb01c7d13b3a7e	0.8439673506307626
232	0x3fe0103905c83e50	0.5019803154882059
233	0xbfcaf2874b5fb4aa	-0.2105263822590236
234	0xbfd432d4dd153f0e	-0.31560250845085214
235	0x3fe3722630357cff	0.6076842252331572
236	0xbfee4d0dc95ce070	-0.9469059880129986
237	0xbfa65c7e3aaef530	-0.043674416221146095
238	0x3fef763dccb5d10b	0.9831837652441505
239	0xbfd2bb242826ad51	-0.2926721946812068
240	0x3fbc28091ae570e6	0.1099858942665751
241	0xbfc0991eeb430e70	-0.12967287528418892
242	0xbfef830fb7d7e941	-0.9847487059298957
243	0x3fc59b1ef0cf0af5	0.16879641302337914
244	0xbfef0e2444148500	-0.9704762773218647
245	0xbfebdf023f38dcfe	-0.8709727511221954
246	0xbff0000000000000	-1.0
247	0x3fe2a876653e2c7e	0.583064267864202
248	0xbfe74f8ef1cdfdf8	-0.7284617159602353
249	0xbfea242d120a7c1a	-0.8169160225260186
250	0xbfeffd02a1830640	-0.9996350435760135
251	0x3fe9197a5f962dac	0.7843601099897817
252	0xbff0000000000000	-1.0
253	0x3fe8d53a1e61b9a8	0.7760286897080748
254	0x3fe0025938fa2b17	0.5002866852604225
255	0xbfdc4526f97550ae	-0.441720718013367
