Snake Genetic/plot/best_snakes_each_generation/snake40/W2.npy (npy, 16512 bytes, 1 tensors)

array f8 [32, 64]
000000 e5 8d ba a8 5e e8 ab 3f f5 31 34 83 a9 cc e6 3f
       0.05450721559216357 0.7124831736160205
000010 51 e7 19 dd d8 33 e0 3f 7f bb 4e ca 79 06 cd bf
       0.5063289945967232 -0.2267601239995791
000020 b5 c7 2d b4 9b 24 bd bf 9e c8 c1 ac 16 24 eb bf
       -0.1138398470773428 -0.8481553434524078
000030 64 51 24 33 7d 4b e2 bf 22 15 39 e8 5b c0 cc 3f
       -0.5717149733414257 0.22462033118260033
000040 44 7b 2a 5b d5 f6 ef 3f 2f cf 85 17 89 7f e1 bf
       0.9988810329994995 -0.5468183001926031
000050 3d f9 82 b3 f9 ff ef 3f f4 e8 47 ee 5d c3 e3 bf
       0.9999969965063326 -0.6175985006259723
000060 8b 84 86 d3 7b 1a cd 3f a8 70 04 a5 22 24 e2 bf
       0.22737071827308272 -0.5669110510821342
000070 a3 0e 28 98 da 44 ea bf 77 67 e0 2d 5f f9 ef 3f
       -0.8209050151640053 0.9991908927943162
000080 ce 05 56 f0 63 99 e7 3f 9e 59 5e 43 5a 98 dc 3f
       0.7374744123518953 0.4467988641639752
000090 23 77 fe 24 8b bd b3 bf e6 33 63 45 a5 54 e5 3f
       -0.07711095479177436 0.6665827136254137
0000a0 36 b8 74 3a 7b 6a dc bf 3c c7 f4 35 23 c5 c8 3f
       -0.44399910648906216 0.19351616034105656
0000b0 7f 92 e3 10 67 67 e5 bf 73 4d 57 16 b1 e2 ea 3f
       -0.6688723878729234 0.8401723324154048
0000c0 1e b6 9c 9f 05 35 e2 bf 3b 4c 7c b7 26 ab d6 bf
       -0.5689724080490952 -0.3541962425089797
0000d0 bb 31 e1 be e4 80 e5 bf 42 ab 5c 21 ac b5 df 3f
       -0.6719840744131526 0.4954634023476282
0000e0 fe f4 e1 5d c2 dd e5 bf 9a ca 8a 73 b0 a4 e7 bf
       -0.6833202203412438 -0.7388536698038763
0000f0 8e c3 f7 8c 71 5f e5 3f dd 9c e5 d4 89 98 d7 bf
       0.6679008248594174 -0.36868520537104904
000100 34 fc 3b 86 e6 3d ed 3f 9a 90 b9 3a 36 48 e5 3f
       0.9138062116397863 0.6650649210901236
000110 f4 7a e0 be 53 3f e2 3f 16 11 af eb 8d 1d e3 bf
       0.5702303627075183 -0.5973577120971949
000120 e7 29 31 b3 29 51 d2 3f fb 5f d3 9e cd 8a c8 bf
       0.28620378970359045 -0.19173593764458005
000130 6e 93 43 50 e7 c7 bd 3f 36 8f b0 53 c3 35 ef bf
       0.11633153638429203 -0.9753128656925358
000140 c6 a5 c4 d8 7e 0d d3 bf 00 00 00 00 00 00 f0 bf
       -0.29769869965329254 -1.0
000150 34 75 1c 92 21 ee ca 3f 63 8b 21 7e 47 cd d7 3f
       0.2103921855386176 0.3719042522190447
000160 17 d9 4b 67 af 88 d7 3f 8b c7 89 a5 4a 4c e4 3f
       0.3677176007035014 0.6343129380386342
000170 cc bb fd 0d 0d e0 e6 3f c2 aa 76 86 2f e1 ba bf
       0.7148499749435984 -0.10499856026460022
000180 db 81 0a a5 aa fe c0 bf 60 1f f0 72 94 91 9f bf
       -0.1327718072761986 -0.030828780665643207
000190 2d 75 ab 46 aa 86 bf bf 17 1a 68 33 5f 36 de 3f
       -0.12314857697807176 0.4720685960786865
0001a0 7b 7c eb a3 fc f1 b7 3f 98 24 a1 17 a0 ee eb 3f
       0.09353617670011431 0.8728790723336202
0001b0 26 31 12 3f ed 4d e1 bf db f5 5a 52 2c c5 d3 bf
       -0.5407625419480027 -0.3089094928980935
0001c0 3b 46 b9 53 f0 3b da bf e2 1a 4d f4 91 75 d5 3f
       -0.4099083726515322 0.33530091149843433
0001d0 a6 b3 35 31 29 e8 d3 3f 31 23 e5 90 dd 96 e1 bf
       0.31104497724191515 -0.5496661977750589
0001e0 62 3e 91 c4 be 0c e1 bf 23 01 fc 22 f1 1c bf bf
       -0.5328058089452947 -0.12153536895857946
0001f0 ee ed ed 7a 6b 7f c2 bf 94 e6 f3 1e f0 a4 b2 bf
       -0.14451354505932507 -0.0728292537277418
000200 92 65 c8 6c e9 fd ef bf e4 ba 31 9e 7e 0e e8 bf
       -0.9997450947441158 -0.7517693605167008
000210 cf b1 b1 72 d8 cd e6 bf 36 b9 04 f0 9d fb 97 3f
       -0.712627624523117 0.023420779966891923
000220 f3 a6 ad b0 a7 ff ef bf 90 16 92 5b ad 11 d8 bf
       -0.9999578905819518 -0.3760789293522544
000230 65 b1 d0 2b 72 fe 86 bf 48 eb 13 d3 c5 b4 d6 3f
       -0.011227504694112775 0.3547834931666114
000240 85 83 c2 c5 bd b7 be bf b8 43 59 92 e1 a0 ec 3f
       -0.11999116972084607 0.8946388109562724
000250 85 5c 43 c0 60 6b c0 3f 5c b2 eb bc 4f 1b cc bf
       0.12827691448066872 -0.21958348011630135
000260 b0 a2 b3 bb 5a 03 ef bf ca d7 11 1f ce f8 d3 bf
       -0.9691594759034015 -0.3120608619132069
000270 d8 d8 35 ba a7 52 e4 3f ef fb 7d 24 4b e9 b6 3f
       0.6350897442742065 0.08949727669640571
000280 6a aa 89 dc 8a 49 d6 3f 05 47 db 2c 48 25 d9 bf
       0.34823867356195726 -0.3929005086948652
000290 e3 7c c2 0a a7 1f e7 3f ce 0d e0 e4 d1 8c ea bf
       0.7226138315344567 -0.8296899290293653
0002a0 2a 49 81 14 2e 3b e1 bf ee 53 1c 6d 2c c7 c4 bf
       -0.5384741211403583 -0.1623282940642236
0002b0 24 2e fa 37 74 d2 db bf 0c a1 44 dd 1e b6 d6 3f
       -0.4347200915005678 0.3548657570668332
0002c0 5d 2c 68 5a f2 21 cc 3f 74 90 7d 2d 67 48 e5 3f
       0.21978597082520226 0.6650882614599269
0002d0 d6 b6 02 2b 9f c7 c8 bf 59 54 7e 0e d2 60 ea 3f
       -0.19359197235228603 0.8243189127994227
0002e0 03 6e 1b 43 c9 67 b1 bf 5c 65 d1 44 2c 01 e7 bf
       -0.06798990143163768 -0.718893179330887
0002f0 7b 81 c7 3c 16 88 d1 3f 07 83 24 3a b1 c4 aa bf
       0.2739310830638925 -0.052281893107879944
000300 60 4a 69 4e b2 a3 de 3f 50 e6 8c 44 cd b6 d5 bf
       0.4787412420020356 -0.33928233808874086
000310 80 3a 8d 8f 71 d1 d6 bf 50 42 ea 5b 34 a8 b9 bf
       -0.356533422648603 -0.10022284740467424
000320 60 07 b8 24 46 53 d6 bf 00 00 00 00 00 00 f0 3f
       -0.3488326414663927 1.0
000330 a2 c1 7a a3 85 d2 d3 bf 4b 23 14 fd f2 d8 c1 bf
       -0.3097242447356853 -0.13943326337200754
000340 ae 42 a3 0d 11 7d b2 3f 77 0f 0e 73 77 11 e5 3f
       0.07222086508705658 0.6583821532408213
000350 32 a1 99 0f e5 99 d1 bf d9 16 8e 94 7d d2 bf 3f
       -0.27501799128960436 0.1243055808718866
000360 00 aa 52 9b 10 5b a2 3f d7 8c da 5d 7c f7 ea bf
       0.0358510198214681 -0.8427106698112777
000370 6b e0 fb fe 6a 39 d6 bf fb ff ff ff ff ff ef 3f
       -0.34725451374789057 0.9999999999999994
000380 12 ab 24 35 87 bb df 3f 7d 42 cc 68 c8 50 d4 bf
       0.49582081022042346 -0.3174305938164606
000390 97 c9 4b 2b 84 f0 e6 3f cb 74 85 37 72 be b0 bf
       0.7168598981500506 -0.06540597777844252
0003a0 76 9d 7f b5 3b 03 b2 bf 98 9a 7c 96 c7 43 e4 bf
       -0.07036183529964099 -0.6332738818353674
0003b0 53 f0 28 f3 fa 43 d3 3f 55 df d0 75 69 47 cd bf
       0.3010241865738454 -0.2287418198845851
0003c0 75 10 59 a7 48 28 d9 3f 8f 66 23 4a 14 99 ea 3f
       0.39308372824257926 0.8311864326489785
0003d0 53 81 89 7d df 8b d9 bf 91 a9 9e 39 6e bc b6 3f
       -0.3991621709774524 0.08881272227032457
0003e0 32 34 4a 59 36 a6 ca bf 22 2c 48 96 31 a2 cc bf
       -0.2081973968492164 -0.2236997588919119
0003f0 a7 9b e1 28 e4 f3 df bf 59 b8 24 55 c9 9f e0 bf
       -0.4992609404784453 -0.5195051825483105
000400 ca 30 22 69 90 b0 e0 3f 45 89 3a fe 1f 99 b2 3f
       0.5215532353772911 0.0726490016627724
000410 e9 cb ea 76 51 67 d6 3f ea 08 83 b9 3b 98 ea bf
       0.3500560437489058 -0.8310831664350904
000420 df 09 18 4c 78 28 c7 3f 8a 99 a2 98 dd 2a 97 3f
       0.1809225436737298 0.022624456826315455
000430 84 e5 78 e0 e8 36 c2 bf 75 37 20 ad f6 ff ef 3f
       -0.14230071030196367 0.9999955541004356
000440 2e c2 79 70 cd 96 77 bf 1f 18 5c 6c dd d0 e1 bf
       -0.005759050843707798 -0.5567462078477127
000450 46 26 f7 93 b1 4d eb 3f b6 18 7b 92 9b 72 df bf
       0.8532340898465882 -0.4913700991131792
000460 58 0b 25 78 d5 34 bd 3f 29 73 2d b0 d8 e7 e4 bf
       0.114087430793956 -0.6533015671699093
000470 f3 98 03 b9 3f f9 d8 3f 38 98 92 d7 0a 2b dd bf
       0.3902129465844972 -0.4557520966722026
000480 fa f0 7a 0b dc ce df bf cb bb b8 32 1e 9a b0 bf
       -0.49700070496670856 -0.06485165346451464
000490 7c 91 66 10 b0 a2 de bf ff ff ff ff ff ff ef 3f
       -0.47867967225672436 0.9999999999999999
0004a0 a3 2f ad 81 2d d5 e9 bf 00 00 00 00 00 00 f0 3f
       -0.807272675775938 1.0
0004b0 2a 76 14 dd ba 42 d2 3f e6 94 f8 2d 9f 71 e9 3f
       0.28532287206494067 0.7951198480483554
0004c0 7f a2 87 4c bb d2 de 3f d8 94 f2 34 07 ea e7 bf
       0.481612038360744 -0.7473178896076673
0004d0 88 08 08 1a ff 88 cf bf 9d 59 cb 3c 77 c6 e4 3f
       -0.24636830111564145 0.6492267787351015
0004e0 07 c0 e0 ef 7f e7 e4 3f a9 20 91 f6 c3 5e e2 3f
       0.6532592473140547 0.5740680518874984
0004f0 d3 e7 8a 39 a5 0f e2 3f a0 04 43 ce 7f 2e db bf
       0.564409840000048 -0.4247130884433066
000500 81 10 98 f8 08 1a e3 3f bc eb c1 4f b1 5c d9 3f
       0.5969281058646773 0.39628250874346427
000510 c6 7e b5 38 94 b1 ad bf 36 30 e0 78 16 25 d0 3f
       -0.05799544517753712 0.25226365856429156
000520 29 54 e3 3a 39 76 e8 bf 8a 07 c1 f4 ad 74 e6 3f
       -0.7644315862804706 0.7017431049682596
000530 f3 78 1b 30 b1 96 e8 3f 12 7c ec 63 80 fa e1 3f
       0.7683950366588576 0.5618287994037721
000540 e5 31 6a d9 3a 3d ed bf 3d 1a 44 cf 86 93 dd 3f
       -0.9137243505843428 0.462129309089878
000550 fe 11 72 32 bd 98 e6 bf e3 1f 8d e5 f4 7d ea bf
       -0.7061449036851284 -0.827875564901657
000560 06 10 6b 9c 19 5c d2 bf 5e 0b c0 d7 5f 7d d9 3f
       -0.2868713405152906 0.39827724522927166
000570 d3 ea c0 65 41 59 e2 3f 23 17 1d 77 cb d0 ef bf
       0.5733954417586012 -0.9942376448095483
000580 27 15 03 31 c0 0b e4 3f 61 37 32 ce 28 b5 d6 bf
       0.6264344174639164 -0.35480709205955036
000590 2c e5 8b da 3e dc b9 bf f3 ba 52 89 a6 39 cc 3f
       -0.10101692996604034 0.22050935464127228
0005a0 00 00 00 00 00 00 f0 3f fe af 9e d0 a5 5f ea bf
       1.0 -0.8241757464033979
0005b0 11 b4 6f e5 d8 85 e9 bf b0 06 97 39 19 9d cb bf
       -0.7975887757471601 -0.21573176681527206
0005c0 2d ae e0 9a 21 13 e3 3f f6 94 92 6c b4 51 e3 bf
       0.5960853600458386 -0.6037237282331762
0005d0 8f 4e d4 68 3c 72 d0 3f 7c 9f 7e a0 af 74 d6 bf
       0.25697241055716175 -0.35087195084860645
0005e0 cd 77 e4 ef a9 0c c5 3f fa ff ff ff ff ff ef bf
       0.16444896901606257 -0.9999999999999993
0005f0 9d 06 e7 35 95 bd e7 3f 43 a8 88 53 f7 87 ec bf
       0.7418924382001993 -0.8915974265594361
000600 24 18 2a f6 52 97 d1 bf e0 81 94 88 46 1a c8 3f
       -0.27486108817572785 0.18830186528158688
000610 29 0f 39 20 61 ff ea bf 00 00 00 00 00 00 f0 3f
       -0.8436742429116509 1.0
000620 e3 c3 69 e7 81 c3 ad 3f b2 95 97 ac 38 26 e0 bf
       0.05813222837321754 -0.5046656962337492
000630 27 4b 2a 1f 3e ab cb 3f 7f 50 4e 35 d0 07 a9 3f
       0.2161634113477586 0.04888773585040073
000640 97 ce 35 fa b4 c0 b7 3f b3 a0 34 09 7a e9 a0 bf
       0.09278422459265766 -0.03303128588078277
000650 b2 72 ce 10 e8 9a c2 3f cb 4a f5 a2 94 4d e6 bf
       0.14535237141253315 -0.6969702894951636
000660 75 02 39 50 93 29 b8 bf 8c 31 1e 6a 0d e2 d0 bf
       -0.0943843909126459 -0.2637971435840647
000670 16 5b a6 a0 09 9a c2 bf 57 16 ce 59 ee 49 ef 3f
       -0.14532585472326137 0.9777747873310528
000680 46 80 00 aa a4 4b e0 3f 87 37 06 af 35 4e dd bf
       0.5092337913847664 -0.4578985413762599
000690 ab cd 43 61 d9 77 d5 3f cc 8b 58 fe 23 84 a1 3f
       0.3354400110103721 0.03421127776916641
0006a0 0a 3f eb bd 0d 66 cc bf 6e da ff 16 cb 5f be 3f
       -0.2218644311274079 0.11864919005879823
0006b0 3c eb 51 56 90 82 e0 bf 7d 98 e8 84 ef 85 b4 bf
       -0.5159379659593024 -0.0801686954006033
0006c0 05 22 61 8e 1b 71 d6 bf 3d 12 b3 47 55 8c e3 bf
       -0.35065354255905873 -0.6108805084591676
0006d0 40 76 01 61 5f 84 ed bf 5f 69 6f 05 8e fc e5 3f
       -0.9224087614672456 0.6870794397503167
0006e0 3e 6f 2a 28 bb 05 e1 3f 6c 3a ee ed e7 b2 e5 3f
       0.5319495949256419 0.6780891081887837
0006f0 85 36 0d 9d 1e 11 ec bf 98 15 38 91 48 82 e9 3f
       -0.8770897929586715 0.7971537433920046
000700 6b e3 bf db 82 e3 d6 3f 33 53 5f b5 80 e5 c2 3f
       0.3576361795417628 0.14762886863777566
000710 db d2 b7 c3 0f e4 ec 3f 6e cc d4 8e f2 9e d1 bf
       0.9028395483606703 -0.2753263850056048
000720 25 ef 0c ba 33 82 da bf 71 e6 b3 9c 28 3e e0 bf
       -0.41419690293308725 -0.5075877247429174
000730 85 dd 45 19 d4 e6 ef 3f 66 46 aa 58 81 af ea 3f
       0.9969273084270048 0.833923981832595
000740 51 3e c8 05 39 10 e0 3f 1c ef e4 83 89 16 e5 bf
       0.501980315488206 -0.6590011192379026
000750 0c 4b bf 94 58 34 d4 bf ff 7c 35 30 26 72 e3 3f
       -0.3156949474916224 0.6076842252331572
000760 65 e4 6c 8a ce 4c ee bf 80 b1 f1 db b4 da ac bf
       -0.9468758300419152 -0.05635609803070718
000770 b6 dc da 87 03 3c ec 3f 7f 0b f7 76 e8 fa a1 bf
       0.8823259023110015 -0.03511740162095744
000780 6a 1f 22 fe f9 17 d6 3f cb cb c6 2c 1d 99 c0 bf
       0.34521341150001794 -0.12967266737322655
000790 48 c7 3b 1c 2e 82 ef bf f1 0a cf f0 1e 9b c5 3f
       -0.9846411277232869 0.16879641302337903
0007a0 9a b4 b6 27 25 29 ef bf c4 d1 d3 b2 e4 95 ef bf
       -0.9737725997598716 -0.9870475285265958
0007b0 0c e8 a5 51 81 ac ee bf 7e 2c 3e 65 76 a8 e2 3f
       -0.9585577578247935 0.583064267864202
0007c0 04 52 19 32 45 c5 ea bf 1c 7c 0a 12 2d 24 ea bf
       -0.8365808466429034 -0.8169160225260188
0007d0 34 b0 04 d6 4a 97 ee bf 49 e2 f0 86 86 23 e9 3f
       -0.9559683017773808 0.7855866084638105
0007e0 00 00 00 00 00 00 f0 bf db 3f 71 95 11 2a e5 3f
       -1.0 0.6613853377148148
0007f0 d0 2e 33 53 11 dc dd 3f ad 50 75 f9 26 45 dc bf
       0.4665568649768206 -0.44172071801336693
