Snake Genetic/plot/best_snakes_each_generation/snake76/b1.npy (npy, 640 bytes, 1 tensors)

array f8 [64, 1]
-0.49190530831351836 0.15229477815321535 0.876429093639956 0.03968526461254314 -0.8232414201782522 0.5073166266203538 -0.06488486506979517 -0.6984819912768445
-0.018763219386339708 0.9881190976666157 0.43558706728343694 0.6473466994226144 -0.09536339655361677 -0.42107305047824034 -0.9792309341354821 0.05914904629447823
0.1749441289548025 0.6697205817680192 0.6089849188416433 -0.22004513091474007 0.5182767982430796 -0.37054630929788285 -0.17357566898122784 -0.9869673025842203
-0.4845908622885003 0.23430733392973258 -0.999999905715452 -0.7127795559517179 -0.323486123313015 -0.3838322039901336 -0.15226897582872992 0.39915255261673316
-0.9644191507910765 -0.25289534377856726 0.08299647372612205 -0.3920778606558748 0.09097353471061086 0.43419692933050014 -0.450927769326098 -0.3198465126017749
-0.7113995194811844 -0.3552975157876265 -0.3190440489446855 0.537356514848551 -0.9953397274423046 -0.7996746027260531 -0.07280910850669568 -0.9751594564885335
0.754564574320075 0.15496710897422436 -0.5134580199351049 -0.8924635037876121 0.35724657614583827 -0.963885916575517 -0.27751100792249034 -0.7088598466794847
0.3678811559729894 1.0 0.6724173925564353 0.4973101017447658 -0.9002747991366725 0.1798785179496795 -0.5809219637177256 -0.9963833928012741
00000000: e9dc fb66 607b dfbf 6883 c231 657e c33f
00000010: ff49 ce06 b50b ec3f 9ab7 4983 a051 a43f
00000020: 1d1a 0c64 fe57 eabf 95a5 0114 f03b e03f
00000030: a7ea 7a65 4b9c b0bf ce20 ace7 f659 e6bf
00000040: 982b 8756 aa36 93bf 22ff 20f1 ab9e ef3f
00000050: 17bf 2294 a8e0 db3f 8d32 e66c 10b7 e43f
00000060: 55ea 6e4d bc69 b8bf e5fb 4161 dcf2 dabf
00000070: 58fd aa1c dc55 efbf 8c47 d9a6 c848 ae3f
00000080: 8479 3eb8 9164 c63f 06db 84db 596e e53f
00000090: 89d3 c5f0 cd7c e33f db1f 7658 702a ccbf
000000a0: 0659 5739 b995 e03f 47a0 05de 07b7 d7bf
000000b0: d2ed d33e ba37 c6bf 0c42 da73 3c95 efbf
000000c0: 150d 5e64 8903 dfbf b077 3860 c8fd cd3f
000000d0: 62a1 61cd ffff efbf b13d 4212 17cf e6bf
000000e0: d3b5 1524 ffb3 d4bf a882 d2f2 b490 d8bf
000000f0: 999d b0bf 8c7d c3bf 77a4 e625 b78b d93f
00000100: 9d14 098d 85dc eebf 64bc b5f3 6f2f d0bf
00000110: c746 56c4 413f b53f 0c2b 40bd cd17 d9bf
00000120: 3f33 62a4 0a4a b73f 38e1 dfea e1c9 db3f
00000130: e048 8725 00dc dcbf 4850 d781 5d78 d4bf
00000140: 48fa d1ec c8c3 e6bf 071b aaca 31bd d6bf
00000150: b0da 0cbb 376b d4bf 6525 324a 0632 e13f
00000160: acc6 38b3 d2d9 efbf 5cce 4431 ef96 e9bf
00000170: cb1d e323 9ea3 b2bf be1b c09a 8134 efbf
00000180: a598 2d9b 6425 e83f bffe 7f54 f6d5 c33f
00000190: a6af 6f83 3f6e e0bf 1286 349f 0f8f ecbf
000001a0: dbe0 49be 20dd d63f df89 1847 27d8 eebf
000001b0: 69a7 d387 bdc2 d1bf 64f3 5dd8 faae e6bf
000001c0: 9afe 6d67 5d8b d73f 0000 0000 0000 f03f
000001d0: d553 c97a 7184 e53f 7bb5 bdbf edd3 df3f
000001e0: 2d8f 7618 0dcf ecbf ad64 ec5f 4206 c73f
000001f0: 6c43 76a8 e996 e2bf e17c cb6c 5fe2 efbf
