Snake Genetic/plot/best_snakes_each_generation/snake43/W4.npy (npy, 640 bytes, 1 tensors)

array f8 [4, 16]
0.12266708261086216 -0.6431988286738107 0.6968139248916567 -0.13454421849410278 -0.11818963529971398 -0.6348922167926109 0.37031176233159 -0.9999999999999997
0.6694795910471417 -0.6022652360826907 0.9431235485535364 -0.019822283048618904 -0.9999999999999998 0.05922108560796597 1.0 1.0
0.3999049343777112 -0.23864243030022497 1.0 -0.10451809123805808 1.0 -0.8754394603493075 0.04652606230436971 -0.07252087716701969
0.9305104374522113 -0.23356440218297994 -1.0 0.39372686128236045 -0.48192850558603245 0.11705913648329867 0.008489558451119407 0.713719926718509
0.8621777665156382 -0.9918558694723328 -0.2699601943678627 0.5600716516293252 0.4618646719574568 0.7198647242373583 0.11058027502918348 -1.0
0.576114922340676 0.4449073042459279 -0.013430714286797115 0.7014927064458735 0.05466700135888437 0.5490734591607178 0.49813449418391204 -0.5140837448364571
0.6277280570507706 0.8417322744297125 0.07189955093937299 -0.588939433117467 0.42147585971722196 -0.3565502178201256 -0.9999853860945987 -0.9996948896942305
0.5169928832746701 0.8604880629618974 0.8549521558911519 -0.5461575254824651 -0.8326000919938921 -0.8234375423221593 -0.19253844298603803 -0.5699531721817213
00000000: 8b00 1c24 1c67 bf3f 4358 bfb5 1595 e4bf
00000010: 7cd3 59b7 4c4c e63f 7f26 26b5 be38 c1bf
00000020: eba3 560a ad41 bebf 9d7e 737b 0951 e4bf
00000030: 9273 221b 30b3 d73f fdff ffff ffff efbf
00000040: b761 9c76 606c e53f a3c5 8fbe c145 e3bf
00000050: 3dff a36f 112e ee3f 2618 b4e5 4a4c 94bf
00000060: feff ffff ffff efbf f9f3 d6e3 3952 ae3f
00000070: 0000 0000 0000 f03f 0000 0000 0000 f03f
00000080: ab52 aadd 0a98 d93f 16e9 c9cc d58b cebf
00000090: 0000 0000 0000 f03f 9e32 b597 b2c1 babf
000000a0: 0000 0000 0000 f03f 5380 7a9d 9903 ecbf
000000b0: fd91 0498 43d2 a73f 36a7 b56b ba90 b2bf
000000c0: 7034 2ed3 bdc6 ed3f 495e 7136 70e5 cdbf
000000d0: 0000 0000 0000 f0bf 06ed 3026 d232 d93f
000000e0: 6f23 a0a8 ead7 debf ffcd e46a 96f7 bd3f
000000f0: b484 3d3f f962 813f ee4d f82b cbd6 e63f
00000100: 55bc d0d3 f596 eb3f 8b56 3785 48bd efbf
00000110: 9508 821f 0747 d1bf de44 6562 1bec e13f
00000120: fb0a 4fd7 308f dd3f a797 04bf 2109 e73f
00000130: 5b41 d528 fd4e bc3f 0000 0000 0000 f0bf
00000140: e51a c68f 886f e23f d337 5f7c 5c79 dc3f
00000150: 8b5d fdf4 8f81 8bbf 6929 12d5 a072 e63f
00000160: c27a 032e 50fd ab3f cc4c c680 0292 e13f
00000170: c3e1 6180 6fe1 df3f 134a efc0 5f73 e0bf
00000180: e011 7a26 5916 e43f db39 d585 78ef ea3f
00000190: a3b6 e14b 0268 b23f bf0e 9282 97d8 e2bf
000001a0: 317e 62e2 75f9 da3f cbd2 3a01 b8d1 d6bf
000001b0: b122 385a e1ff efbf abe1 2623 80fd efbf
000001c0: 15be bda8 348b e03f b2a1 2043 1e89 eb3f
000001d0: 644f a69f c45b eb3f cc2a cd58 1f7a e1bf
000001e0: da54 b8f2 a8a4 eabf 3350 52b0 9959 eabf
000001f0: 8384 ec85 19a5 c8bf d0b3 586f 0e3d e2bf
