Snake Genetic/plot/best_snakes_each_generation/snake51/W4.npy (npy, 640 bytes, 1 tensors)

array f8 [4, 16]
0	0x3fbf671c241c008a	0.12266708261086215
1	0xbfe490cc0e5f94cc	-0.6426754265527506
2	0x3fe64c4cb759d37c	0.6968139248916567
3	0xbfc138beb526267e	-0.13454421849410275
4	0xbfbe41ad0a56a3eb	-0.11818963529971398
5	0xbfe451097b737e9c	-0.6348922167926108
6	0x3fd7b3301b227392	0.37031176233159
7	0xbfeffffffffffffc	-0.9999999999999996
8	0x3fe56c60769c61b8	0.6694795910471418
9	0xbfe345c1be8fc5a3	-0.6022652360826907
10	0x3fee2e116fa3ff3d	0.9431235485535364
11	0xbf944c4ae5b41826	-0.019822283048618904
12	0xbfeffffffffffffe	-0.9999999999999998
13	0x3fd6fac00d0a2bb8	0.35905457757388204
14	0x3fef379ad9995c0d	0.9755377054196984
15	0x3fe4a1cab975c30a	0.64474998686464
16	0x3fd9980addaa52ac	0.39990493437771124
17	0xbfe22391870960b4	-0.5668418538507667
18	0x3ff0000000000000	1.0
19	0xbf810c10545fe9a8	-0.008323791098509073
20	0x3fe6d5fdd9036aa6	0.7136220205823818
21	0xbfec03999d7a8054	-0.8754394603493076
22	0x3fa7d243980491fd	0.04652606230436971
23	0xbfb290ba6bb5a736	-0.07252087716701969
24	0x3febb83acd4f1608	0.8662389764728582
25	0xbfcde57036715e4a	-0.23356440218297997
26	0xbff0000000000000	-1.0
27	0x3fe5e957f620cc26	0.6847343260946033
28	0xbfded7eaa8a0236f	-0.48192850558603245
29	0x3fbdf7966ae4cdfd	0.11705913648329865
30	0x3f9b2cec83bd948a	0.02653855852203838
31	0x3fe6d6cb2bf84dee	0.713719926718509
32	0x3feb96f5d3d0bc55	0.8621777665156382
33	0xbfefbd488537568b	-0.9918558694723328
34	0xbfd147071f820895	-0.2699601943678627
35	0x3fe3b7806d4a149c	0.6161501059110779
36	0x3fdd8f30d74f0afa	0.46186467195745673
37	0x3fefffffffffffff	0.9999999999999999
38	0x3fbc4efd28d5415b	0.11058027502918348
39	0xbff0000000000000	-1.0
40	0x3fe26f888fc61ae5	0.576114922340676
41	0x3fdc795c7c5f37d3	0.4449073042459279
42	0xbf8b818ff4fd5d8b	-0.013430714286797115
43	0x3fe672a0d5122969	0.7014927064458735
44	0x3fabfd502e037ac1	0.054667001358884366
45	0x3fe1920280c64ccc	0.5490734591607178
46	0x3fdfe16f8061e1c3	0.49813449418391204
47	0xbfe0735fc0ef4a13	-0.5140837448364571
48	0x3fe41659267a11e1	0.6277280570507707
49	0x3feaef7885d539db	0.8417322744297125
50	0x3fb268024be1b6a3	0.07189955093937299
51	0xbfe2d89782920ebf	-0.588939433117467
52	0x3fdaf975e2627e31	0.42147585971722196
53	0xbfd6d1b8013ad2cb	-0.3565502178201256
54	0xbfefffe15a3822b2	-0.9999853860945989
55	0xbfeffd802326e1ac	-0.9996948896942306
56	0x3fe08b34a8bdbe15	0.5169928832746701
57	0x3feb891e4320a1b2	0.8604880629618974
58	0x3feb5bc49fa64f64	0.8549521558911519
59	0xbfe17a1f58cd2acc	-0.5461575254824651
60	0xbfeaa4a8f2b854db	-0.8326000919938922
61	0xbfea5999b0525033	-0.8234375423221593
62	0xbfc8a51985ec8483	-0.19253844298603803
63	0xbfe23d0e6f58b3d0	-0.5699531721817213
