Snake Genetic/plot/best_snakes_each_generation/snake23/W3.npy (npy, 4224 bytes, 1 tensors)

array f8 [16, 32]
00000000: 55bc 6576 6d7b ee3f 971d 45f6 c4fa e9bf
00000010: 1d16 1f5d 6bdd e0bf 6e87 2838 6970 d13f
00000020: 9a08 9828 c387 ee3f 7fa8 59f3 5612 dc3f
00000030: a6e4 cc07 0637 e13f 9a57 c714 770d c4bf
00000040: c87f 2ec8 7391 bb3f 4c6f d858 b29e ea3f
00000050: 9678 31e4 c8fa c53f 4593 2019 115e b3bf
00000060: 0000 0000 0000 f0bf 0a40 46a5 d010 b1bf
00000070: b56d 4f3c 18f6 c83f 3347 d5bf 1bb6 ed3f
00000080: b140 de7c 8445 c33f 9e63 8b60 c20d ef3f
00000090: 57af 2de5 b24d e33f 3b9f 77bd c637 edbf
000000a0: 59cc 385f d34f e53f bbe8 446b 7649 a03f
000000b0: b1a1 87d1 2051 e23f d55c 25bb cd00 d63f
000000c0: 8967 1293 a2a7 dabf 0499 8412 2ad0 e3bf
000000d0: 76b3 d338 6348 e5bf 6858 5bc7 f5d4 e33f
000000e0: ff43 77bc c04d e9bf ca19 467f 38f8 d1bf
000000f0: 80a1 79c5 bb53 d23f 5979 fa1b 5291 e83f
00000100: 0aad 1fbf 380e d8bf 3c7d 0dd2 ac52 d63f
00000110: b057 50ee 9812 e0bf 2398 8cc7 0236 d3bf
00000120: 41c3 0327 dd20 703f e4da 5cc3 f9d7 d73f
00000130: c004 7040 a067 e53f c20d 198d c612 eb3f
00000140: 8aa7 ec39 0ac7 bcbf a001 0ac3 0f91 e3bf
00000150: c738 68fb b042 bd3f 94cf e811 655f eabf
00000160: f9e4 5401 871e e43f 0000 0000 0000 f0bf
00000170: 7e0b 8df1 2b57 e1bf 6e66 86b8 d91a b8bf
00000180: ba98 266a 11da ec3f d181 c1db ba5a d13f
00000190: 1fd0 d990 dd0b c5bf 1c13 044c 9353 dcbf
000001a0: c3aa bbb4 580e d23f 290f a4ce c9e3 d0bf
000001b0: fb4b 348a bfc4 e9bf a260 f077 8067 e8bf
000001c0: b067 e233 127a ea3f 888e 73e8 2059 ea3f
000001d0: 4fdf 6abd 9bf9 d0bf 50ae f619 14ae ef3f
000001e0: e6ed 4938 75f4 ef3f 6d00 9867 b105 e73f
000001f0: 8039 322f 6429 cb3f 1c6f cd2e f55e ca3f
00000200: 5f86 70a1 efff ef3f e731 cc43 ed4f edbf
00000210: 8722 4e30 c5ff efbf b9ed a3ad 5eb8 e0bf
00000220: 1a86 6e59 67c1 c63f d0e4 d7ea 9fd1 b8bf
00000230: 0f81 b93f 9f2f eb3f 625b 0ff9 bf07 bebf
00000240: c3cc c566 a1c9 efbf ceed 6559 2f87 e03f
00000250: 518d 3bac db85 ee3f c126 bd8a 3efc d93f
00000260: 70d3 63cf 2483 cdbf 57dc 8357 c696 d63f
00000270: ba0f 7a83 f7f1 d8bf e465 8bf0 195e d83f
00000280: c87b 2fba 0f89 efbf 27d3 4c2d e15d bf3f
00000290: 7d9e 5c34 2b54 edbf 5409 cba0 640b e9bf
000002a0: 3d24 5c91 8a28 ebbf 3dee d603 7c03 d83f
000002b0: 1f01 166f 2ede d0bf fc2b 8024 d317 e1bf
000002c0: fd1f 96e2 8b8e e23f 6a6f c357 e4ff ef3f
000002d0: dd49 cb80 0322 e33f a8ad 1bd0 0349 ec3f
000002e0: 0000 0000 0000 f0bf 229e 2ce6 72ac acbf
000002f0: 1598 e070 5d80 d93f 6ca1 856d 9f5b c43f
00000300: 2e34 8392 8428 e43f b1b2 c31e b6cc e43f
00000310: 9dea 6012 0d50 a6bf c883 59e3 3c45 e73f
00000320: 8f2f 33c9 3c83 debf 5de6 72ea 3361 eb3f
00000330: 9add f471 c330 c4bf f7f4 5335 7ce2 d43f
00000340: f357 40a3 d178 e33f 113b 3adf 37da e3bf
00000350: d6df d355 b657 e2bf 2ae0 48be b2be c53f
00000360: cdd4 01d8 187f cb3f 6203 62e6 668c dd3f
00000370: cc9b 762c faa6 df3f 01e7 3e04 1ca3 d43f
00000380: 1ed9 4760 43bd c9bf 10b3 dd7d a617 a03f
00000390: 7eb4 cedc db11 ec3f 8681 4606 390e eb3f
000003a0: add1 5fd4 6a71 ba3f 3d56 7780 ac09 debf
000003b0: bebd 0ed7 7b8c e9bf 88b9 e3bc 7cee 843f
000003c0: 3a5c 8cec 28ec d6bf b42b 8b77 625a de3f
000003d0: d910 3432 97ce 93bf d7da 77bf ffff efbf
000003e0: a37c e9a9 0ca2 e53f 83e4 c320 d063 c63f
000003f0: 8452 c618 a2d6 e9bf 1f21 e490 e17a e8bf
00000400: b754 2b72 bd5e c6bf d6c2 fcad a5d1 d3bf
00000410: e0af 6a96 aec9 e4bf ec54 b763 e16d e43f
00000420: fdbb 5f55 638b ed3f 92e2 9f04 bd7a e93f
00000430: d892 5e05 8d93 d9bf 7638 d31f fd79 ecbf
00000440: 03fc be33 0b75 d4bf 85ce cff6 a404 e5bf
00000450: c674 b9e0 54ec dfbf 3cbd f274 fbd4 d83f
00000460: 3973 19d0 fa83 c93f 91a5 e58a d512 efbf
00000470: 046e 0a68 909c d0bf 8b0c 56a4 f4d9 ec3f
00000480: 05a7 8b9c 22bb ea3f 75f0 8a4a 4626 d63f
00000490: dddd 48be 2536 ec3f 651e 87f6 cd4e c0bf
000004a0: 1193 444c 76a3 d3bf 6ade 268b 8907 d43f
000004b0: 87ac 798b 4e62 74bf 5801 9cf8 60a0 d83f
000004c0: 9ace d986 e3af e2bf 0fbc 23f0 253b e9bf
000004d0: 0000 0000 0000 f0bf a262 cab4 0199 bcbf
000004e0: 6c5b 08c8 70d0 e4bf 5d52 ea98 7b03 dcbf
000004f0: 6990 9339 2ef9 ea3f 161d ddbf 7d8b cd3f
00000500: 18c6 a6f1 adac e0bf 58bd 2c2f ade8 e2bf
00000510: a19c 7cd1 8099 d43f a215 747d aaeb dfbf
00000520: dbfc 6b20 ac3b e1bf 892f 17a2 ebb7 ec3f
00000530: 0145 666e 3f37 e6bf 0b86 cee6 f2c0 b73f
00000540: 8c1c 1c25 6ccd ccbf ab5b 6e7f 90b5 de3f
00000550: 19f7 b7b8 5a18 e0bf a820 cc35 1231 d63f
00000560: 6953 6093 6a4d dbbf 6f76 ba44 9aed 89bf
00000570: 317b da16 ea85 e73f fb24 b84a 2920 e7bf
00000580: 8be2 1461 fb4d d1bf 419b 903a c73a c33f
00000590: 35b9 3a8d e2cc e03f 6c1f f806 6795 c1bf
000005a0: 8a8e 7906 a630 ddbf 509d d21c 8f71 cfbf
000005b0: 3bfe ed13 4841 ebbf bddd 2933 8cdc ecbf
000005c0: e907 822f 69d6 a33f a9ad 5256 5ad6 e43f
000005d0: 2f83 55b4 0b51 b03f dbbb 6d8c 7cf1 d43f
000005e0: 7070 91de 52f7 e53f f242 7efd f14e d8bf
000005f0: aa81 884e c0b4 d4bf 3e32 d30b 44c3 e1bf
00000600: 89de 2039 ce00 e63f 0000 0000 0000 f03f
00000610: f251 fea4 dc48 dcbf 43cb e707 dee7 e93f
00000620: d661 2f8f 8462 ed3f 9eba 4b0e 1515 debf
00000630: 0000 0000 0000 f03f 2feb 8986 c2fc e33f
00000640: 723e 3024 67eb c23f db9f e7e1 5d25 d23f
00000650: 1d8b 113b 4ea1 dcbf fab2 6784 a716 ecbf
00000660: 8a6c 4e3c 7fd4 d83f 98d5 19e7 80a1 e9bf
00000670: ce15 813e f655 ce3f 25ca c184 7ca4 a03f
00000680: 745b 98d1 3dc2 d43f f571 3906 40d6 ec3f
00000690: 209c af6f b2a3 e6bf 8a9e aba3 d5e3 80bf
000006a0: ba08 44d2 4462 ca3f 40ca 640e 98af c1bf
000006b0: 121a dd10 c37c bf3f 2231 5350 a769 eb3f
000006c0: 69dd a3ff 4d8a edbf 2e27 1c03 6f26 efbf
000006d0: 2a0c 27a3 bfbb b73f 5ad4 b0d2 42fe d3bf
000006e0: e088 63bf da4c 91bf 55cf 5b22 6682 ca3f
000006f0: 836a e014 9495 dbbf ee16 4bd5 a610 e5bf
00000700: 7fd3 348c 2060 ea3f 8a8e 8b32 9a64 d03f
00000710: abee 3eb9 e5bb dd3f 0ac4 223a 8a1e c8bf
00000720: 4140 cdb6 a92a e5bf 4fb0 b6db 251c dcbf
00000730: 9e7b f1e7 d865 eabf 27bf 1010 5a60 e3bf
00000740: 6646 1504 8c86 d6bf c082 13ab 61b9 8dbf
00000750: 0194 ef87 dad1 ecbf f444 4deb 4658 b1bf
00000760: 888c 9db1 67dc d53f 3933 3eda 876f e03f
00000770: 8cae c16f 1c87 ce3f 38cb 6066 3199 d8bf
00000780: 00d4 818a 32de e8bf 1057 525e 6c92 e83f
00000790: 182c 3389 fbca e23f 05b4 1337 ca14 e0bf
000007a0: dbf8 b0d7 80d1 d73f c022 ddcd 4bc8 eebf
000007b0: 0000 0000 0000 f0bf dc5e 264a 12c6 e5bf
000007c0: 8379 2bd8 f9c4 e43f b611 4aeb 1e47 a33f
000007d0: 3f22 98fd f81f cb3f fef9 c5e9 09ea eb3f
000007e0: 0434 e04f a665 e53f 10e7 2186 05dc e5bf
000007f0: 44c3 f848 bcbe c33f 1f84 bc14 3398 e3bf
0.9525668442200962 -0.8118614969215966 -0.5270287340906098 0.27248602375231357 0.9540725510453456 0.43861936344786295 0.5379667427397592 -0.15666092409690863
0.10768817555663113 0.8318721518767034 0.17171584264992096 -0.07565409530122931 -1.0 -0.06666282687206163 0.19501021332585614 0.9284800287952976
0.15055900666312064 0.9704296002993151 0.6032347179548009 -0.913058633855122 0.6659943446924316 0.031810474962598666 0.5724033443812485 0.3437990501019617
-0.41648163187493786 -0.6191606866530326 -0.6650863752271181 0.6197461026847693 -0.7907413178419346 -0.28077518872342166 0.2863606861560797 0.76773934807333
-0.3758680216257778 0.34879608643491955 -0.5022701887671612 -0.3001715611193296 0.003937591435019539 0.372557106765653 0.6688996561571443 0.8460419421975802
-0.11241210855646791 -0.6114577111584829 0.11429887903088619 -0.8241448735993679 0.6287264848716908 -1.0 -0.5418910711090204 -0.09415970568661589
0.9016196320779024 0.27116271458183144 -0.16442460606379058 -0.4426010362952171 0.2821256413432531 -0.26390309505244375 -0.8052671145727567 -0.7626345007474991
0.8274012578360637 0.8233799495760232 -0.2652348851947765 0.9899998194791326 0.9985910510435445 0.71944494469791 0.2122006636095186 0.20602288041379146
0.9999921944729059 -0.9160066913769328 -0.9999719565831392 -0.5225060836232195 0.17777721277984498 -0.09694861873130667 0.8495632404920189 -0.11730575399938695
-0.9933630950239593 0.5165020700509844 0.9538400997084101 0.4060207705375483 -0.2305646908422676 0.35295256182093254 -0.38976848449260226 0.38074348917652245
-0.9854811321673589 0.12252623897513769 -0.9165245077792431 -0.7826407566538287 -0.8486988867817967 0.37521267294843935 -0.2635608753989959 -0.5341582978156789
0.5799006867900968 0.9999868120316766 0.5979020610341724 0.8839129509555521 -1.0 -0.056003180119941 0.39845977805305327 0.15904610488656645
0.6299460279057081 0.6499891854160379 -0.043579491132239336 0.7272018852637467 -0.47676009796554636 0.8556155757025398 -0.15773814262659586 0.32632355888183845
0.6084984005453847 -0.6203879699622538 -0.5732070614167195 0.16988214770549465 0.2148161940309933 0.4616944551308305 0.4945664819919642 0.3224554101430926
-0.20108835412219944 0.03143043791246758 0.8771800339360565 0.8454861757818868 0.10329311070365206 -0.46934044404529 -0.7983988952964223 0.010220503344012824
-0.3581640539209193 0.47426664041693845 -0.01934276813428046 -0.9999998798001241 0.6760314291567692 0.17492105102408936 -0.8074503406410973 -0.7650001363663569
-0.17476623606368033 -0.3096708487601466 -0.6496193826510499 0.6384131381588793 0.9232651393375587 0.7962327089617978 -0.399630789989073 -0.8898912068923568
-0.3196437840778687 -0.6568169422666449 -0.4987995333265868 0.3879994051048532 0.1993402019606039 -0.9710490906556278 -0.2595559135458816 0.9016059121789949
0.8353436524896273 0.3460860946613658 0.8816097942826066 -0.12740492379656412 -0.30685193489107215 0.3129600390343287 -0.004976565185283672 0.38478874471913604
-0.5839707979016169 -0.7884702387071928 -1.0 -0.11170969642479148 -0.6504444033515546 -0.4377125733674683 0.842917549566221 0.23081943386407805
-0.5210790366892892 -0.5909028931982148 0.3218690915841283 -0.49875890971483205 -0.5385342248190698 0.89745122583689 -0.6942441135635421 0.09278791556291581
-0.22501899539949866 0.47983181423608795 -0.5029729469094689 0.34674506429338203 -0.42660011665548453 -0.012660222265647307 0.7350969740253729 -0.7226759394990546
-0.2703846405088732 0.1502312694512629 0.5250103720079894 -0.1373719009427491 -0.45609427101428734 -0.24565304667815235 -0.8517189397097761 -0.9019223212516675
0.03874520020418954 0.6511661230082854 0.063736659552444 0.3272391673444283 0.6864408823999053 -0.37981843714901153 -0.3235321776319561 -0.5550861578900095
0.6875983348645188 1.0 -0.4419471369995157 0.8095541147616604 0.9182760998328898 -0.4700367583854276 1.0 0.6246044757566319
0.14780892626776027 0.2835306840993305 -0.4473453118172744 -0.8777654253040901 0.38796978844920516 -0.8009647859277491 0.23699834873165887 0.032504931646048875
0.3243555590465157 0.9011535760469643 -0.7074825459830016 -0.008247059876750801 0.20612392680056307 -0.13817120268648075 0.12299746667586245 0.8566471642348328
-0.9231328957529686 -0.9734416065923364 0.09270856602874802 -0.31239386153476334 -0.016894739085622557 0.20710446050326917 -0.4310045436738294 -0.658282677258027
0.8242342699437443 0.256140279160015 0.4645933445969869 -0.18843200529730125 -0.661457879099551 -0.43921801048668824 -0.8249325304167205 -0.6055116952684089
-0.3519620933412625 -0.014513743432361337 -0.9006168990132438 -0.0677532505481116 0.3415774569059029 0.5136145842130652 0.2384982629476905 -0.38435015676366246
-0.7771237092225647 0.767873939725833 0.5872781448064215 -0.5025378299447999 0.37216206611254926 -0.9619502087380951 -1.0 -0.6804286430587712
0.6490449163500646 0.037651983472673775 0.211913226914719 0.8723191800962125 0.6686584053110214 -0.6831081027769148 0.15425828517029505 -0.6123290448196065
