Pong Genetic V2/plot/best_paddle_each_generation/paddle45/W3.npy (npy, 4224 bytes, 1 tensors)

array f8 [16, 32]
000000 c1 26 e9 d5 9f 91 cf 3f 7c 95 e3 33 1c 82 c8 bf
       0.24663160271511766 -0.19147064717905582
000010 68 d7 f0 77 ae ca 98 bf 97 77 67 d0 b1 0c e0 3f
       -0.02421066863117663 0.5015496321100156
000020 d1 41 f9 df e9 d6 b9 3f 99 ff ca e2 2d 97 ee 3f
       0.10093557088953921 0.9559544972944308
000030 9e 00 03 ec 77 cf d9 3f ba 0f a2 e7 f7 42 e5 bf
       0.4032878689577134 -0.6644248508532578
000040 90 ba 17 0c 76 42 e2 bf 6a 85 63 d5 5e 85 cb bf
       -0.5706129299340592 -0.21500764293072488
000050 fe b5 78 12 08 7d be 3f 7b cf 96 ed 24 c0 ef 3f
       0.11909532977070822 0.9922051086818863
000060 54 ce 59 06 ae 0b e7 3f d9 3b 57 6a 80 d9 e7 3f
       0.7201757549323227 0.7453004910438451
000070 19 58 d3 10 84 ce e3 bf 44 a1 df a2 74 6f d9 3f
       -0.6189594582199361 0.39742771058674387
000080 4b d8 9d 72 ab a3 df bf 26 c1 38 4d 05 c8 df 3f
       -0.49436460679078625 0.49658329526120537
000090 64 e8 02 f5 57 70 dd 3f f2 f2 17 1c f3 cf d1 3f
       0.45998190810099104 0.27831723922262974
0000a0 e4 3e 92 2a eb cc c9 3f e2 7e c2 76 e8 b8 c9 bf
       0.20156611994433782 -0.20095544623199318
0000b0 28 87 ae d4 ae a9 e6 3f 0b 0b f7 cb d3 9a d6 3f
       0.708213248628657 0.35319991033991077
0000c0 c8 d5 0b 9e e1 01 df 3f b3 24 23 71 e2 80 e5 bf
       0.4844898265285704 -0.6719829759323573
0000d0 1b 06 cd ee a3 7a eb 3f fa dd ae 98 94 09 ec 3f
       0.8587207473830775 0.8761694891063023
0000e0 57 24 5d fb 46 ef e5 3f 03 d9 d5 d7 39 97 dd 3f
       0.6854586514902036 0.46235509946508574
0000f0 8d c8 25 b9 f6 c9 c6 bf e0 4c c8 1a 3c 5d da bf
       -0.17803844490442025 -0.41194059958907125
000100 95 1e 19 c0 f4 bf e9 3f 3b 5d 6b b9 1d 2f d3 3f
       0.8046821357647383 0.29975073916780887
000110 78 27 b1 e4 2e 5f e0 3f 15 b6 00 9f b2 df e1 bf
       0.5116190401688376 -0.558556852867414
000120 df 8d 35 9e 7b 31 e4 3f 3e ba 69 d4 75 34 e3 3f
       0.6310403909705505 0.6001538418475503
000130 f2 83 6c 50 7c c1 e4 3f f6 7a 99 e7 05 ff ef 3f
       0.6486188479212827 0.9998807452610368
000140 bf b7 a6 33 5c 1d af 3f 06 01 fe 8a e9 94 ea bf
       0.06077087526806179 -0.8306777682010142
000150 64 84 98 9b 2e c9 e8 3f cf c7 09 5a db 95 b7 3f
       0.7745583571414838 0.09213038395117155
000160 02 9c 24 00 80 9d e8 bf 1a 39 ef b4 3b 7a e2 3f
       -0.7692260744851185 0.5774210485340376
000170 dc 85 09 f5 ed 6f e2 bf c7 83 aa 91 26 35 ee bf
       -0.5761632715113438 -0.9439881176987165
000180 00 00 00 00 00 00 f0 bf 84 06 c5 27 92 bf c8 bf
       -1.0 -0.19334628049732683
000190 57 4b f3 80 a2 83 e9 bf bf cd 28 56 15 28 ab 3f
       -0.797318698745907 0.05304018666029319
0001a0 17 bf 5f b8 71 be b8 3f 8d ab 41 fc 0c 2b b6 3f
       0.09665594817465394 0.08659440191847363
0001b0 33 0c 10 9c 37 1c 72 bf 14 b8 86 11 a6 a1 b3 3f
       -0.0044214412928367695 0.07668531349074242
0001c0 84 80 cb 20 5c dd e8 3f 52 b1 73 6a 6b ac eb 3f
       0.7770214691663715 0.8647973136080884
0001d0 b2 bf 09 06 c9 ee d5 3f 28 b1 f2 22 ee 18 e6 bf
       0.3426992949453008 -0.6905432398394042
0001e0 ca a3 30 d6 b6 20 b6 3f d8 5d 75 fe 94 5f df 3f
       0.0864366791653445 0.4902088627763681
0001f0 b3 0a 24 0e f9 7a db 3f 9a 10 de 70 db 06 e7 3f
       0.4293806684583316 0.7195870594446376
000200 f1 d0 2e 11 ad 36 ea bf ac 0a 1c 67 cc 8a e1 3f
       -0.8191743217089692 0.5481931699617539
000210 68 8b 4b b4 67 c0 e4 3f b2 88 b7 cb 5f 82 d1 bf
       0.6484869500530808 -0.27358240980369
000220 78 a0 63 f0 28 cb ec bf 4f c5 ed 39 5e ab ef 3f
       -0.8997997946835445 0.9896689540311544
000230 c9 56 20 76 10 10 e7 3f ed 37 3a 94 4b 59 d6 bf
       0.7207109744219561 -0.3492001483472212
000240 00 00 00 00 00 00 f0 3f db 0b fc 56 cf f8 eb 3f
       1.0 0.8741223048131092
000250 00 64 db 3e 9a fd ed 3f b1 8d 88 1c 89 71 c6 bf
       0.9372073390651394 -0.17533983128769884
000260 3b 1e 09 00 5c c7 e0 3f 07 55 ce 5e 88 e5 a4 bf
       0.5243358612723975 -0.04081369550037022
000270 7c 45 6a e0 d2 cd df bf bc 62 fa a8 b5 d3 e6 3f
       -0.49693748393573123 0.7133434582093154
000280 8c e5 09 aa e3 2d e7 bf cf cf 16 d6 60 cc e4 bf
       -0.7243517228190952 -0.6499485188892268
000290 f5 dc 68 dc 3c 6f e8 bf f3 a8 64 74 68 fd dc bf
       -0.7635788254619046 -0.452966798463094
0002a0 b6 f2 33 e1 fe 31 c4 bf 89 31 75 3f ef dc e7 3f
       -0.15777574535595357 0.7457195510301499
0002b0 8f 21 72 32 3d 7b c3 3f a7 b3 8e e1 3a 2c ec 3f
       0.1521984573667052 0.8803991704386264
0002c0 04 b4 3a a2 f5 82 ca bf 2f 92 72 cc 2c 1e ef bf
       -0.20712156697609896 -0.9724334710231853
0002d0 a8 4d db 19 b5 58 eb bf eb d5 a5 db 3f 18 ec bf
       -0.8545785431874053 -0.8779601373668674
0002e0 4b 83 1e 57 ad ca da 3f a4 66 3c 60 a1 c3 e3 bf
       0.4186204291127537 -0.6176306609733797
0002f0 75 ea e8 e4 81 88 ed bf 8c 60 82 cf 9a bd e1 bf
       -0.9229135008711881 -0.5543951085010277
000300 a8 05 9a 21 8d 1c e2 bf 69 a1 29 0a 82 82 eb bf
       -0.5659852653772548 -0.8596811483849197
000310 27 97 ee 10 7a e6 e3 3f d0 93 56 71 64 0a e9 bf
       0.6218843775465971 -0.7825185979496556
000320 b0 d0 e2 df e9 e4 e2 3f d5 87 d4 4e 74 7e e0 3f
       0.5904435513280273 0.5154363193180368
000330 10 3e c4 52 cf ad cb bf f8 83 b9 83 58 6a e9 bf
       -0.21624175587975047 -0.7942316601512394
000340 9d 21 f5 b8 d9 9c e0 3f 68 69 b9 6d 92 84 d6 bf
       0.5191467869236025 -0.35184155192623345
000350 45 4c d9 16 92 b0 ef bf be 2f 83 2c 5b e0 ef bf
       -0.9903040357843415 -0.9961372250922904
000360 f4 56 13 7f a9 bc a9 3f a8 12 4e cf 31 26 be bf
       0.05026750255789905 -0.1177703028789191
000370 37 d5 29 a3 fd 92 e0 bf 55 0c 8a 4d 0c 1d df 3f
       -0.5179432093415589 0.4861479527682538
000380 68 e6 21 72 78 e1 d4 3f d3 ce 61 32 e8 47 c3 3f
       0.32626162667984326 0.1506319280630267
000390 fa 8f cb 78 50 24 bc 3f 0e 20 38 d8 f9 ff ef 3f
       0.1099291129026482 0.9999970648796095
0003a0 d7 99 1d c7 9e 04 ea bf 05 f6 35 6a 4f 03 de 3f
       -0.813063992402756 0.46895203945300096
0003b0 28 ae 12 77 33 82 d2 3f 00 00 00 00 00 00 f0 3f
       0.2891968405553791 1.0
0003c0 68 12 c5 99 0f ef ee bf c2 5c 58 97 4c f3 ee 3f
       -0.9666822436634677 0.9671996074638616
0003d0 53 ec 48 13 47 eb c3 bf 14 53 06 18 33 8d c1 3f
       -0.15561760369914399 0.13712156937676723
0003e0 65 bb ff 50 48 5c ef 3f 1d e8 3f 77 e7 87 d8 3f
       0.9800149518976978 0.38329493184540003
0003f0 fe 1e dc 7f 91 6a da 3f 7c ca 3a 9a 96 9d cb bf
       0.41275441633523247 -0.21574671297783599
000400 27 16 53 cf 7a ca 85 3f 3e 54 88 8d 9f f9 ef 3f
       0.0106401056785997 0.9992215885455449
000410 da 2f 7a d1 6b 53 e6 3f 3e 3b ca aa 89 63 b5 bf
       0.6976832476952908 -0.08355007571865955
000420 03 f1 75 66 ce 4b b6 bf 00 00 00 00 00 00 f0 bf
       -0.08709421159250401 -1.0
000430 5a 7a bb 92 ba 48 e8 bf 00 00 00 00 00 00 f0 bf
       -0.7588780275216991 -1.0
000440 b5 0d 48 fa f6 72 c4 bf 3c 1c 10 57 6a dc 92 bf
       -0.15975844593786595 -0.018418942989253603
000450 f3 ad fa d8 ba e4 eb bf 00 00 00 00 00 00 f0 bf
       -0.8716711271167114 -1.0
000460 72 71 e4 c6 ca a8 ec 3f 34 38 75 aa cd 27 ec bf
       0.8956045040718392 -0.8798588113074914
000470 1f 4e 3d 3f da 5a e9 bf 99 6d 52 7a 46 be e7 bf
       -0.7923403964181864 -0.7419769658185259
000480 a8 51 f2 00 86 31 da 3f 10 8d 0a e1 6f 03 ea bf
       0.4092726716274009 -0.8129195590339879
000490 fe 77 fc e7 c2 63 d6 3f c3 4d 61 6a 93 3c c2 bf
       0.3498389497270863 -0.14247362799015492
0004a0 5c 94 59 7b 7c 48 ef 3f 13 45 d0 f1 f0 4c e2 3f
       0.9775984200647474 0.5718922350808121
0004b0 0b 46 a1 2f b8 37 df bf d5 2e 32 90 d3 93 e8 bf
       -0.48777584697117565 -0.7680452171639113
0004c0 53 d0 53 95 c8 f5 c8 bf b7 fb 08 90 fd db ef 3f
       -0.19500071803452332 0.9956043065247887
0004d0 f5 1e 31 c1 ec f0 e0 bf 3f 0d ce 24 f2 df ef bf
       -0.5294097684172515 -0.9960871428342343
0004e0 17 c7 34 16 7d c2 a9 bf 64 1b 64 54 33 6b ec 3f
       -0.05031195541449856 0.8880859993231351
0004f0 5c 46 22 73 ad 3a c4 bf b5 0a 44 5e 67 92 ee bf
       -0.1580406963517359 -0.9553715554360084
000500 0b 47 c3 6b 5b 21 d3 3f cb 59 dc 16 af f3 c8 bf
       0.2989109566088792 -0.1949366437554104
000510 3b 99 85 64 96 08 e2 bf 00 00 00 00 00 00 f0 3f
       -0.5635482753103028 1.0
000520 3a ff a3 45 b2 8e c2 3f bd c0 30 17 e0 60 cd 3f
       0.14497974777622763 0.22951890117974996
000530 40 e7 ab 4f d1 55 3c 3f 61 71 09 ad 39 4c da 3f
       0.0004323612226212366 0.4109024228871672
000540 63 de 51 5c 24 d9 ef bf 42 80 18 e5 95 6a ee bf
       -0.9952565959092222 -0.9505109285855797
000550 a0 4b a3 4b 0b 1d d5 3f d8 77 bc cc 84 4b e7 3f
       0.32989771257887845 0.7279685972932795
000560 2d 8a 1d 50 62 31 c3 3f 70 20 3e 9b 01 6c a3 bf
       0.14994458114513645 -0.03793339748432423
000570 1a 40 f7 ac 24 62 d0 bf 75 18 e7 4f a9 56 d3 bf
       -0.2559901894683222 -0.3021643905925722
000580 57 60 bd eb 55 4d ea bf ec 23 9f de df 80 de 3f
       -0.8219403843204515 0.4766158746757003
000590 c4 00 e3 d4 34 f0 d5 3f e4 a9 41 ba c1 50 d7 bf
       0.34278603353233117 -0.3643040007506484
0005a0 15 69 60 5b b6 7c aa 3f 82 81 d6 21 e8 55 dc 3f
       0.051732729582186256 0.4427433329056144
0005b0 c9 bf f2 b2 96 10 da bf d0 be 6b 63 a2 50 e5 bf
       -0.4072624919453998 -0.6660930578054494
0005c0 cb c2 78 5f 9b b3 d5 bf fb 10 80 96 2b c2 eb bf
       -0.33908733676348096 -0.8674524249513803
0005d0 5e 14 8b 4b 62 06 e5 bf 99 1d 8f a8 30 e7 de 3f
       -0.6570292926268271 0.482860722168391
0005e0 17 eb 73 8b da 8a c4 3f 07 fa 64 1f d5 53 d0 bf
       0.1604874783441452 -0.25511673036444943
0005f0 a9 86 70 6f da 8c e5 bf 97 60 f0 7f ea 22 c1 3f
       -0.6734440018228344 0.13387805220623214
000600 6f 27 d4 9e f8 cd e2 3f 33 99 dc 3c b0 b4 ef 3f
       0.5876429655192917 0.9908066929536176
000610 2e 20 53 75 87 ff cd bf 6f 65 ed 5c 39 c4 c6 bf
       -0.23436063030953974 -0.17786328351466404
000620 d5 0e 19 a7 7d 72 e4 3f 79 99 4b b3 5f d2 e0 bf
       0.6389759315138358 -0.5256803991185698
000630 1f 5e d4 a8 2f 9e dc 3f f9 4d fc 00 9f a0 e2 3f
       0.44715491759549936 0.5821070689439117
000640 33 55 b5 f7 ae f1 ee bf fd f6 bd c1 48 55 d5 3f
       -0.967002376370749 0.3333303348552901
000650 fc 23 b9 24 50 5d bb 3f 8e af 1e 8a 17 f7 e4 3f
       0.10689259430468206 0.6551625917104376
000660 5c 62 6a 21 bb 86 a0 bf f7 2d 77 83 f9 ff ef 3f
       -0.03227791579155756 0.9999969070135525
000670 ea cc 0c 18 3a c3 d5 3f 92 ff 2a 86 b3 fa e8 bf
       0.34004070614464743 -0.7806031818836223
000680 92 ce 1e 42 eb 35 d2 bf 4f a1 20 ec 92 c8 cc 3f
       -0.2845409532267037 0.22487103013669205
000690 a4 5d fd d6 74 c5 cc bf 4f 2d 2d bf c5 55 bd 3f
       -0.22477589128059805 0.11459003369707442
0006a0 58 d6 fa 37 30 ea e4 bf 27 93 7a c7 d3 dc ef 3f
       -0.6535874455791584 0.9957064529486147
0006b0 ec 85 0a 2f d2 d2 e8 bf a6 8b ea 33 9d 5b ec bf
       -0.7757349890491105 -0.8861833585727836
0006c0 70 bb c4 fd ad 99 ea bf d9 93 6e 8c 0b 7a e4 3f
       -0.8312597233215069 0.6398980849086185
0006d0 fc 3e 26 4e 23 4f cc 3f 7d 19 c0 18 d4 b6 d2 bf
       0.22116509738815882 -0.29240896622686546
0006e0 98 de 2b b0 fd a0 80 bf 0d 26 1a 8a 96 05 eb 3f
       -0.008119565905402568 0.8444321343715174
0006f0 ca 2a b7 9c 49 4d e3 3f 1a db b9 70 e6 ea e8 3f
       0.6031845150804085 0.7786743356399228
000700 f5 cb 03 d8 61 62 ec 3f 45 47 07 ae e3 e3 e3 3f
       0.8870095461883226 0.6215685271256254
000710 45 3d 7e e9 9f 21 e3 3f 44 e6 2c ec 52 c5 e5 3f
       0.5978545723354861 0.6803373921204146
000720 9b 47 c8 fc 08 64 b2 3f 53 4c 9b 25 3e 1e e6 bf
       0.07183891459888374 -0.6911917433266218
000730 00 00 00 00 00 00 f0 bf 6a be e8 0e fd 28 b2 bf
       -1.0 -0.07093793500893644
000740 44 b2 f1 2b d8 bd d4 bf 70 b7 b2 44 05 ab e3 3f
       -0.32408718387049285 0.6146265355834952
000750 82 96 fb 8f 22 b1 ef bf 8e 11 cd 9a 36 2d e1 bf
       -0.9903729259646783 -0.5367692016084662
000760 7a 90 f5 50 7a 20 d7 3f b1 28 68 43 af 46 d4 3f
       0.3613572874658143 0.31681424696638333
000770 15 d6 28 56 0d 3e e3 bf 6f ee b7 e2 9e 46 e9 bf
       -0.6013247187426624 -0.7898706844420768
000780 33 fc 14 dc ca 06 ef 3f 3b da a7 f3 a4 80 e0 3f
       0.969579152915577 0.515703655138004
000790 90 2e db e6 89 33 ce 3f f3 29 49 4b d2 9e e0 bf
       0.23594783565782906 -0.519387385408946
0007a0 91 c9 69 b3 db 52 c5 3f 65 bb dd 3c 29 70 ce bf
       0.16659113178645815 -0.237797884673877
0007b0 2b 56 fd 44 0a 4d e0 bf 9b 99 3e 3c 9e 9b ed bf
       -0.5094043109372185 -0.9252463509226801
0007c0 68 18 9c b7 79 14 bf 3f b3 af 5c 8c 95 68 ed 3f
       0.12140618069324349 0.9190166226812749
0007d0 dc f3 1c 18 b1 71 d3 3f 33 37 2d 3f b5 e1 c9 3f
       0.3038141952018216 0.20220056137844153
0007e0 7e 53 f0 b8 be b1 e1 3f 54 0f 85 79 c9 0a ec 3f
       0.5529473888478689 0.8763167737419999
0007f0 de 0d 22 97 d4 e9 e7 3f a1 f4 a5 4b 1b 7f de bf
       0.7472937537972333 -0.4765079725983217
