Snake Genetic/plot/best_snakes_each_generation/snake47/W2.npy (npy, 16512 bytes, 1 tensors)

array f8 [32, 64]
0	0x3fabe85ea8ba8de5	0.05450721559216357
1	0x3fda2271de99c40b	0.40835234392494674
2	0x3fe033d8dd19e752	0.5063289945967233
3	0xbfcd0679ca4ebb80	-0.22676012399957912
4	0xbfbd24836c32b7d3	-0.1138383998065529
5	0xbfeb2416acc1c89e	-0.8481553434524078
6	0xbfe250a7c1fc8d3a	-0.5723456181334889
7	0x3fccc05be8391522	0.22462033118260033
8	0x3ff0000000000000	1.0
9	0xbfe17f891785cf2e	-0.546818300192603
10	0x3fee4cb1d5a64e81	0.9468621418804589
11	0xbfe3c3b1cffd317a	-0.6176384985242713
12	0x3fcd1a7bd386848b	0.22737071827308272
13	0xbfe22422a50470a8	-0.5669110510821342
14	0xbfea44da98280ea4	-0.8209050151640054
15	0x3feff95f2de06778	0.9991908927943163
16	0x3fe1c7dcc00d4534	0.5556472540867277
17	0x3fdc985a435e599e	0.4467988641639752
18	0xbfb3bd8b24fe7722	-0.07711095479177435
19	0x3fe578d914941c7d	0.6710019494938845
20	0xbfe518c01eb31a29	-0.6592712974168694
21	0x3fc8c52335f4c73c	0.19351616034105656
22	0xbfe56767bb3c581a	-0.6688727051684993
23	0x3feaeebfb0dcc8a0	0.8416441397041758
24	0xbfe235059f9cb61e	-0.5689724080490952
25	0xbf93b40c3fc769c7	-0.019241515534170774
26	0xbfe580e4bee131ba	-0.6719840744131524
27	0x3fdfbf1b4b6adb63	0.49603922238332226
28	0xbfe5ddc25de1f4ff	-0.683320220341244
29	0xbfe7a4b0738aca9a	-0.7388536698038763
30	0x3fe62d58be50a6d2	0.6930354802218182
31	0xbfd79889d4e59cde	-0.3686852053710491
32	0x3feb110a4c1afaa1	0.8458301054414116
33	0x3fec0ac22e9f99be	0.8763132963766151
34	0x3fda3c1084a365a3	0.40991604760128036
35	0xbfe30f664334ade3	-0.5956298172581537
36	0x3fa4a74ba3143bf8	0.04033886304579676
37	0xbfd241ec9323a3cf	-0.28527368897499356
38	0x3fbdc7ebc3237a03	0.11633180154920102
39	0xbfef257ae8e5f963	-0.9733252095027577
40	0xbfd30d8503cfde0d	-0.2977001702524554
41	0xbff0000000000000	-1.0
42	0x3fcaee21921c7533	0.21039218553861758
43	0x3fda10d0e6683b41	0.40727636814783713
44	0x3fd788af674bd917	0.3677176007035014
45	0x3fe6ddca78703bde	0.7145740845024837
46	0x3fe6e00d0dfdbbcc	0.7148499749435984
47	0xbfbae12f8676aac1	-0.10499856026460021
48	0xbfcae6d428f2092c	-0.21016933440484686
49	0xbf9b552c1839379f	-0.026692093828664217
50	0xbfbf86aa2d51630d	-0.12314857107538675
51	0x3fde365f33681a17	0.4720685960786865
52	0x3fb7f1fca3eb7c7c	0.09353617670011433
53	0x3fed2134d10e5ec5	0.9103035052421197
54	0xbfe14ded3f123126	-0.5407625419480027
55	0xbfd3c52c525af5db	-0.3089094928980935
56	0xbfda3bf44e6b90c8	-0.4099093213865328
57	0x3fd57672f4ad14e5	0.33535455602789305
58	0x3fd3e8293135b3a6	0.31104497724191515
59	0xbfe196dd90e5232f	-0.5496661977750587
60	0xbfe10cbec4913e5f	-0.5328058089452944
61	0xbfbf1cf122fc0123	-0.12153536895857946
62	0xbfc27f6b7aededed	-0.14451354505932504
63	0xbfb2a4f01ef3e693	-0.07282925372774178
64	0xbfeffde96e1c26a1	-0.9997450972161525
65	0xbfe80e7e9e31bae3	-0.7517693605167007
66	0xbfe6d3e14cafd654	-0.7133642671385112
67	0x3f97fb9df004b937	0.023420779966891927
68	0xbfefffa7b0ada6f2	-0.9999578905819517
69	0xbfd811ad5b921691	-0.37607892935225445
70	0xbfad83590b70af5c	-0.057642729422098
71	0x3fd6b4c5d313eb48	0.3547834931666114
72	0xbfbebe6cf01486e1	-0.1200931631215343
73	0x3fef682ee41d0e0c	0.9814676719037734
74	0x3fc06b60b1c4b80a	0.12827690773104933
75	0xbfcc14abd4346cac	-0.2193808351665657
76	0xbfef035abbb3a2b0	-0.9691594759034015
77	0xbfd3f8ceccf5d03e	-0.31206102386136425
78	0x3fd3130f3990c5f3	0.29803829785950525
79	0x3fb6e97cdc57134f	0.08950024012945089
80	0x3fd6498adc89aa6a	0.34823867356195726
81	0xbfd925482cdb4707	-0.3929005086948653
82	0x3fe71fa70ac27ce5	0.7226138315344569
83	0xbfea8cc4ceb18bf6	-0.829683688829731
84	0xbfdf776fee70edf2	-0.49166487012163806
85	0x3f9e00c5d1390a51	0.02929982270712578
86	0xbfde58258ed3bc49	-0.4741300482555216
87	0x3fd6b61edd44a10c	0.3548657570668332
88	0x3fcc21f25a682c5e	0.2197859708252023
89	0x3fec8c59e4c9db06	0.8921327084088666
90	0xbfc8c79e6e51d691	-0.19359188448622835
91	0x3fea90d4bea97ec4	0.8301795696133571
92	0xbfb167c9431b6e04	-0.06798990143163769
93	0xbfe701bbf7c6a218	-0.7189617003796824
94	0x3fd188163cc7817b	0.2739310830638925
95	0x3fdc5ad42399183b	0.44304374195451474
96	0x3fdea4a81fcb2b07	0.47879984955641003
97	0xbfd5b6cd448ce64f	-0.3392823380887408
98	0xbfd6db08dd607941	-0.3571188127406409
99	0xbfb9a828fcabcbb6	-0.10022216957786054
100	0xbfe714605dd1c9db	-0.7212373573695986
101	0x3ff0000000000000	1.0
102	0xbfd3d285a37ac1a0	-0.30972424473568516
103	0x3fb0165350814804	0.06284065928892352
104	0xbfbcf2f25213f7e4	-0.11308207038743451
105	0x3fe514e936e07799	0.6588026115239131
106	0xbfd199e50f99a132	-0.27501799128960436
107	0x3fbf935c90ce0c9a	0.1233423093345202
108	0x3fa25b109b52aa00	0.0358510198214681
109	0xbfeeeab88e2d90fd	-0.9661524559892595
110	0xbfd6396afefbe06a	-0.3472545137478905
111	0x3feffffffffffffb	0.9999999999999994
112	0x3fdfd33d0c69605b	0.49726797306130316
113	0xbfd450c868cc427c	-0.31743059381646055
114	0x3fee18043789b6ae	0.9404316982961143
115	0xbfc908032440063f	-0.1955570151331347
116	0xbfb2033bb57f9d75	-0.07036183529964098
117	0xbfec248ba4c44565	-0.8794611185168547
118	0x3fd343faf328f052	0.30102418657384533
119	0xbfcd476975d0df54	-0.22874181988458508
120	0x3fd92848a7591076	0.3930837282425793
121	0x3fea99144a23668e	0.8311864326489784
122	0xbfe5b7452816dde3	-0.6786218436235995
123	0x3fb667dd895b4876	0.08752235988075249
124	0xbfca4dc14204f720	-0.20549789165118515
125	0x3f6eceaa57dd2ba4	0.0037606551185595683
126	0xbfdff3e42fbbc5c4	-0.4992609468600586
127	0xbfe09fc95524b857	-0.5195051825483102
128	0x3fea19c8ba1fb5ad	0.8156474719268566
129	0x3fb2991ffe3a8945	0.0726490016627724
130	0x3fd6675176eacbe9	0.3500560437489058
131	0xbfea983bb98308ea	-0.8310831664350904
132	0x3fc728784c1809df	0.1809225436737298
133	0x3f972add98a2998c	0.02262445682631546
134	0xbfc2357b56d5d02f	-0.14225713481903443
135	0x3fe4858896930e7d	0.6413004818827656
136	0xbf7796cd7079c22f	-0.005759050843707799
137	0xbfeb0c0fe5592dbf	-0.8452224235019726
138	0x3fe75a4e82585921	0.7297737642100267
139	0xbfe6583c52f14f8e	-0.6982709522221613
140	0x3fbd223705c68b37	0.1138033284283154
141	0xbfe4e7601554ae15	-0.6532440582863638
142	0x3fd8f93fb90398f2	0.3902129465844971
143	0xbfdd4d00f4f8186c	-0.457824935176524
144	0xbfdfc2c3151737e1	-0.49626233157766647
145	0xbfb09a1f1df923df	-0.06485170823829332
146	0xbfdea448e40d0d74	-0.47877714415172723
147	0x3fefffffffffffff	0.9999999999999999
148	0xbfe6fb3d8d861ea1	-0.7181689991129653
149	0x3fec589867c722d0	0.8858148600494022
150	0x3fd242badd14762b	0.2853228720649407
151	0x3fe7f296212182cf	0.7483626029098448
152	0x3fded2bb4c87a27f	0.481612038360744
153	0xbfe7ea0734f294d7	-0.7473178896076672
154	0xbfcbcd33ca6b41bf	-0.21719977744807115
155	0x3feb8cd698470dd9	0.8609421705409047
156	0x3fe4e77fefe0c008	0.6532592473140548
157	0x3fe25ec3f69120a9	0.5740680518874984
158	0x3fe20fa5398ae7d3	0.564409840000048
159	0xbfdb2e7fce43049f	-0.4247130884433065
160	0x3fe31a08f8981080	0.5969281058646771
161	0x3fe0654deb00e098	0.512366255751675
162	0xbf9009d496a7c0ee	-0.015662500090855618
163	0x3fd0251678e03036	0.25226365856429156
164	0xbfebd674e4d9cc3b	-0.869928786253133
165	0x3fe687b3029e7b6c	0.7040648509172178
166	0x3fe896b1301b78f3	0.7683950366588576
167	0x3fe1f9f12228c6ee	0.5617604891942543
168	0xbfed3d3ad96a31e4	-0.9137243505843426
169	0x3fdd9386cf441a3e	0.46212930908987804
170	0xbfe69c0efa46ce58	-0.7065501106466838
171	0xbfea7df4e58d1fe3	-0.827875564901657
172	0xbfd41f02e0a62066	-0.3143927759015298
173	0x3fd97d5fd7c00b5e	0.39827724522927166
174	0x3fe6226f1823d7bc	0.6917033645138342
175	0xbff0000000000000	-1.0
176	0x3fe40bc031031527	0.6264344174639164
177	0xbfd6b528ce323760	-0.3548070920595503
178	0xbfb9dc3eda8be52c	-0.10101692996604034
179	0x3fcc39a68952baf3	0.22050935464127228
180	0x3ff0000000000000	1.0
181	0xbfea5fa5d09eaffe	-0.8241757464033979
182	0xbfe985d8e56fb412	-0.7975887757471603
183	0xbfcb9d19399706af	-0.21573176681527204
184	0x3fe313219ae0ae2d	0.5960853600458386
185	0xbfd3d0eb3976a2b4	-0.30962639438306927
186	0x3fd06ce8823f8a93	0.2566472312884482
187	0xbfdfeb8d545f8116	-0.498751957316942
188	0x3fc50ca9efe477cd	0.16444896901606257
189	0xbfeffffffffffffa	-0.9999999999999993
190	0x3fe7e3959b4cfab4	0.7465312989441686
191	0xbfe96fd8d85d8807	-0.7949032045255543
192	0xbfd19752f62a1823	-0.2748610881757278
193	0x3fc862eed3cbe925	0.19051919309260615
194	0xbfeaff6120390f27	-0.8436742429116507
195	0x3ff0000000000000	1.0
196	0x3fadeaaa144abb9e	0.058430972077409424
197	0xbfe198aa1140ccc0	-0.5498857819533427
198	0x3fcbab3e1f2a4b27	0.2161634113477586
199	0xbfb22ccdcc04d5a6	-0.07099615317277727
200	0x3fb7c0b4fa35ce98	0.09278422459265767
201	0xbfa0e97a0934a0b2	-0.03303128588078276
202	0x3fd4c43310e4e0e2	0.3244750657063503
203	0xbfe98b35fe4e1e38	-0.7982435194871362
204	0xbfb770fe7bc18419	-0.0915679027689439
205	0xbfd0a7e2ca589754	-0.26024694214207966
206	0xbfc29a09a0a65b17	-0.1453258547232614
207	0x3fef49ee59ce1658	0.9777747873310529
208	0x3fe04ba4aa008046	0.5092337913847664
209	0xbfdd48c58eb7faa7	-0.4575666326272007
210	0x3fd577d96143cdac	0.33544001101037213
211	0x3fa18423fe588bcc	0.03421127776916641
212	0xbfdb223a8160e402	-0.42396414408318617
213	0x3fbe5fcb16ffda6e	0.11864919005879823
214	0xbfe082905651eb3c	-0.5159379659593024
215	0xbfb485ef84e8987d	-0.0801686954006033
216	0xbf9d80f2fdb0794a	-0.028812214597672615
217	0xbfe09648b3879696	-0.5183452135504065
218	0xbfed845f6101763f	-0.9224087614672455
219	0x3fe5fc8e056f695e	0.6870794397503166
220	0x3fe105bb282a6f3f	0.531949594925642
221	0x3fe5b2e80f1af320	0.6780891699814653
222	0xbfec111e9d0d3685	-0.8770897929586715
223	0x3fe9824891381599	0.7971537433920047
224	0x3fd6e9afb2f5b2c2	0.35801308132685616
225	0x3fc4fa2c2f1bf014	0.1638846616768893
226	0x3fece40fc3b7d2dc	0.9028395483606704
227	0xbfd19ef28ed4cc6e	-0.2753263850056048
228	0xbfda8233ba0cef25	-0.41419690293308725
229	0xbfe03e289cb3e673	-0.5075877247429176
230	0x3fefe6d41945dd85	0.9969273084270048
231	0x3fe69e39d683553b	0.7068146886546524
232	0x3fe0055cff490f5e	0.5006546960871494
233	0xbfe5168983e4ef1d	-0.6590011192379027
234	0xbfd4345894bf4b0d	-0.31569494749162247
235	0x3fe3722630357d00	0.6076842252331573
236	0xbfee4cce8a6ce464	-0.9468758300419151
237	0xbfa69dc00b9c05a9	-0.04417228833882387
238	0x3fec32798acc710f	0.8811614714536818
239	0xbfa1fae876f70b7e	-0.03511740162095743
240	0x3fd617f9fe221f6c	0.34521341150001805
241	0xbfc0991eeb430e70	-0.12967287528418892
242	0xbfef81a60038bf96	-0.9845762256936605
243	0x3fc59b1ef0cf0af2	0.16879641302337905
244	0xbfef292527b6b49b	-0.9737725997598717
245	0xbff0000000000000	-1.0
246	0xbfeea893fb70acc0	-0.9580783759060054
247	0x3fe2a876653e2c7d	0.5830642678642018
248	0xbfeac54532195204	-0.8365808466429034
249	0xbfea242d120a7c1c	-0.8169160225260188
250	0xbfedfdce694c8012	-0.9372322136514433
251	0x3fe9238686f0e24a	0.7855866084638106
252	0xbff0000000000000	-1.0
253	0x3fe52a1195713fdb	0.6613853377148148
254	0x3fe0025938fa2b16	0.5002866852604224
255	0xbfddbeef8fff7698	-0.46477879583640336
