Flappy_Genetic/plot/best_birds_each_generation/bird29/W3.npy (npy, 2048 bytes, 1 tensors)

array f8 [12, 20]
000000 0c 64 74 b9 29 15 ed bf 69 41 db bc 22 e6 8b bf
       -0.9088333723221935 -0.013622542751733762
000010 d9 d3 8f d5 5e 49 d5 bf dc 5d 46 0c 99 5f d9 bf
       -0.33260317664763545 -0.3964598293182158
000020 e2 b6 50 fd ec a0 e8 bf 3f eb 65 90 3b ee cb 3f
       -0.7696442554058331 0.21820778418244832
000030 0d 0d 4f 1c d4 11 d3 bf 22 44 8c 7b c3 52 e5 bf
       -0.2979631687596374 -0.6663529789967735
000040 b6 98 18 84 b5 08 d8 3f 85 ae b3 36 a7 f4 c3 bf
       0.3755315580368789 -0.15590372248640363
000050 55 1c 11 69 fe ac cb bf 80 9f db 3d 0c a4 bb 3f
       -0.2162168515226052 0.10797192106440257
000060 00 00 00 00 00 00 f0 3f ea 63 04 bb 4d 23 e6 3f
       1.0 0.6918095257452681
000070 1b 7a 8e 15 a9 b0 d3 3f 61 41 10 f9 91 f1 e7 bf
       0.30765750031597044 -0.7482385506173551
000080 9b 26 c2 5b 16 da eb 3f 7c 6d 81 dd 1b da e9 3f
       0.8703719894558221 0.8078746153145597
000090 b7 2b 35 be 0f 62 e6 3f a1 65 54 dc e2 9d a5 3f
       0.6994703974718196 0.04222020091601598
0000a0 d4 21 4f 84 22 7e c3 bf 1d ec 6e cc 61 e4 e0 3f
       -0.15228682957082518 0.5278786652410222
0000b0 6a cd ba 3d 60 17 e1 bf 34 c8 37 2a 60 96 db bf
       -0.5341035085352079 -0.4310532009395758
0000c0 21 df 16 2b 85 a6 e2 bf 1e 16 31 1f 4f 42 d0 bf
       -0.5828271714771952 -0.2540471844298241
0000d0 2d 80 b5 db fa b2 e6 3f b5 1a 86 83 75 b6 dc bf
       0.7093481341544298 -0.44863641590238085
0000e0 ff f1 35 a2 03 0b b3 3f b5 8f 12 82 00 7a cd bf
       0.07438681326124906 -0.23028570510098026
0000f0 34 f5 a5 76 3f 32 dd bf 0e 96 1e 3c 26 a7 cd bf
       -0.45619188868279825 -0.23166349349519105
000100 36 52 83 d2 1e fc e4 bf 90 b1 bc 1b 1e 5d c5 3f
       -0.6557764159757145 0.16690422396039795
000110 36 ee dd cd 4f c5 e9 3f df b7 6a 29 cf ef a0 bf
       0.8053359051550106 -0.03307959919526104
000120 dd d5 cf 3e 6f 5c e4 3f 01 70 43 7b f8 97 ef 3f
       0.6362835146707614 0.9873011023987602
000130 9b 82 31 71 12 f9 ef 3f ed 08 db 14 cf b1 e0 bf
       0.9991543017204835 -0.5217051894508394
000140 d3 a4 7b 1e cd 45 dd bf 73 ea ef 0a 93 77 ce 3f
       -0.45738532997945675 0.23802412065545617
000150 ef bf 76 fa 16 71 d8 bf c6 a0 ae dd 1a c3 d9 bf
       -0.38190245112764293 -0.40253326080938867
000160 93 d4 92 36 77 15 e3 3f 6f b5 c1 93 5d 7b bb bf
       0.5963703218354958 -0.10735115868893329
000170 05 53 b1 d8 0b cb cb 3f 05 c1 02 db 9b af d5 bf
       0.21713398056694913 -0.3388433111931735
000180 6f e0 75 e5 d1 fb ef 3f 93 4d cd ed 36 ea e6 bf
       0.9994897348069695 -0.7160906452722194
000190 8a db e8 50 fa 26 e1 bf 72 e5 6a ee 8d b7 74 3f
       -0.5360080318704246 0.005057863635266601
0001a0 b3 ff ed bf 32 42 d4 bf fd 45 24 45 fc c4 c9 3f
       -0.3165404199899015 0.20132401825007654
0001b0 75 89 57 ff fd ff ef bf cf b3 62 07 2b 44 c8 3f
       -0.9999990450999535 0.18958032475111827
0001c0 07 37 8c 77 7a 5e ce 3f 04 38 04 8f df 9c ef 3f
       0.2372582515458179 0.9878995698252315
0001d0 f4 51 41 d5 2f 8e b4 3f bc 90 94 e3 97 d7 dc bf
       0.08029459911751485 -0.45065877174989644
0001e0 f1 4c 97 2e a3 9f bc bf d9 54 7e ee 88 ab ef bf
       -0.11181087386585255 -0.9896893175197433
0001f0 e6 dc 72 f4 b4 a0 b0 bf 1a df 80 af fc ff ef bf
       -0.0649521920012038 -0.9999984195519318
000200 a5 6b 51 69 e6 0c e3 bf 52 31 92 4b fc ff ef bf
       -0.5953247124665394 -0.999998233413445
000210 20 ad e2 1c c5 89 c2 bf ee 82 8a 87 64 18 cb 3f
       -0.14482940588400428 0.2116819059201797
000220 8e 54 ec 69 96 b0 d7 3f be 84 06 49 0e 11 c8 3f
       0.37015304893550016 0.1880205017633098
000230 1b 59 3d 2d 62 4b e0 3f cc e9 8e 28 6f 38 85 bf
       0.5092020877444016 -0.010361545968284334
000240 bc fc 7a 40 55 11 d2 3f d2 d8 90 7b 89 d3 e1 bf
       0.2823079232875434 -0.5570723927874275
000250 33 5f fd ea fa e1 dd bf 77 2c 24 51 88 a8 e8 3f
       -0.46691773365226935 0.770572813490971
000260 d9 1c 38 4d 2a 44 e0 3f 5f d7 3e 98 3c 76 c6 3f
       0.5083209522425945 0.17548329767094636
000270 52 9a f5 da d9 5a eb bf b2 5e d4 aa aa 7b c5 3f
       -0.8548402096319683 0.16783650723731608
000280 3e b8 ab c9 c8 d7 e7 3f 00 00 00 00 00 00 f0 3f
       0.7450908602602409 1.0
000290 6f 89 46 cf da cf cd 3f b3 18 42 46 e1 e9 ec bf
       0.23290572281718933 -0.9035498020391713
0002a0 a4 fd f6 fa f1 a3 d9 bf 34 b5 e0 77 ec d0 bb bf
       -0.40063142307550437 -0.10865667273238416
0002b0 c7 67 0c bd 03 aa eb 3f 88 3f 6d 7d b4 c5 bf 3f
       0.8645037357666688 0.12411048948456316
0002c0 d8 60 a1 6e 33 0d e8 3f 71 32 53 ea 23 0f d2 bf
       0.7516114388227164 -0.28217409022617007
0002d0 bf 1c 3f ce 64 ef ad 3f f8 c6 f9 ae 33 d4 da 3f
       0.05846705453546396 0.4192017754313464
0002e0 47 e2 c7 e3 67 2a ee bf 6c b4 5f 60 3c f4 e3 3f
       -0.9426764916270906 0.6235639459897704
0002f0 78 4a 3c f8 f6 b3 eb bf 09 98 4f 15 81 71 e5 bf
       -0.865718350253089 -0.6701054970005781
000300 1e a0 6e 67 ec a0 ef 3f 7f ff 92 bd 0f 5f e8 bf
       0.9883939762266925 -0.7616041853543577
000310 c3 05 ec 45 76 58 d7 bf d6 08 cf 87 a6 05 e4 3f
       -0.3647742922622365 0.6256897594942312
000320 3e 86 f0 aa 62 48 e7 bf 9f 08 a4 65 65 77 d7 bf
       -0.7275861109412245 -0.36666235853057033
000330 28 b6 eb b4 c0 7b d0 3f 62 61 07 ef b4 c1 d9 3f
       0.25755326908151455 0.40244792311343336
000340 78 1f a1 8a 08 8e d4 bf b8 5d 33 c7 31 11 e4 3f
       -0.3211690286448099 0.6270989313733741
000350 b6 e3 01 e2 63 89 b2 bf b2 de e8 22 b5 1a c9 bf
       -0.07240890758283922 -0.19612755016873035
000360 5a 90 00 74 5f 8a e1 3f ad 87 8c 4d db dc ef bf
       0.5481412187259693 -0.9957100405338132
000370 d9 cd 21 fc 87 0a ca bf 07 bf a1 62 76 63 cd 3f
       -0.20344638644347304 0.22959785285956277
000380 fe ff ff ff ff ff ef 3f 9f bd 71 4c 90 e2 d2 bf
       0.9999999999999998 -0.2950783487821926
000390 06 54 f8 53 55 b9 b8 bf 40 5a 5a 4f 2f 63 b5 3f
       -0.09657796192216503 0.08354469001128795
0003a0 12 56 84 73 43 e8 e5 bf f4 81 67 28 0d 8a ee bf
       -0.6846024757566644 -0.9543519772669797
0003b0 7a 1a f4 1e 58 19 d7 bf 76 e5 ce 74 fb 8f c0 3f
       -0.36092188856893126 0.1293939895966038
0003c0 22 fb cf d2 d1 52 e0 bf 32 44 1e 99 4b 1d ed 3f
       -0.5101098172598066 0.90982608705429
0003d0 4d 09 1b 58 0f 43 c3 bf b7 88 96 ec 06 81 de bf
       -0.15048400690109034 -0.4766251860074919
0003e0 82 8a 6c 76 54 66 c2 3f 59 45 9d dc ed f3 d2 3f
       0.14374786169453918 0.29613825363511165
0003f0 b8 3a 40 66 90 36 e3 bf 99 f7 d2 25 62 a1 e3 bf
       -0.6004106518829166 -0.6134501208068627
000400 12 ea ac 3e 8b 8f c6 3f c4 60 3c 62 d0 26 e5 bf
       0.17625561294865172 -0.6609880369824386
000410 73 b4 d4 29 2c ed e2 3f d3 0e 27 65 56 ce e3 bf
       0.5914517228135437 -0.6189376807819492
000420 2c 97 f6 cc 2d f0 db bf a9 e5 dd ca 7a 57 d2 bf
       -0.43653435722295586 -0.28658933459481745
000430 fc ff ff ff ff ff ef 3f 9f 18 99 43 8f d1 ec 3f
       0.9999999999999996 0.9005810089372693
000440 f6 a3 0e 29 81 52 e8 3f ab 32 72 5f 6b d7 bf bf
       0.7600713540933828 -0.12438078956820202
000450 00 00 00 00 00 00 f0 3f 84 b4 8e 64 e2 37 e7 bf
       1.0 -0.7255718196880854
000460 a8 27 40 19 ef 46 e7 3f 4c 00 61 5e 92 ac ce bf
       0.7274089329887277 -0.2396414719423795
000470 04 7d 7e 44 1a db ec bf 75 95 47 23 bc dc d5 bf
       -0.9017459237838072 -0.3415975899245816
000480 f3 46 bc 59 75 5c e1 bf 1e 8b a0 4a aa e7 c2 3f
       -0.5425364258428246 0.14769486087706069
000490 00 00 00 00 00 00 f0 bf f3 43 66 c1 b2 3b ca 3f
       -1.0 0.20494684642156322
0004a0 fd 19 04 da 95 d3 e1 3f d9 d7 ce 2b e2 ca 96 bf
       0.5570782907605573 -0.022258314060046167
0004b0 b3 6b fc 20 25 1e ee 3f d0 67 c6 bb 87 20 97 bf
       0.9411798137911006 -0.022585030399205952
0004c0 25 db d7 d8 ff 72 d0 3f 86 22 d7 29 bf 99 e7 bf
       0.2570190065011267 -0.73751791164348
0004d0 f6 cf 5f c0 86 23 eb bf 05 38 5b 05 78 32 ef bf
       -0.8480867154416944 -0.9749107460609144
0004e0 fa f2 2d 0a 3e 64 e0 bf a5 f5 54 41 13 5e e7 3f
       -0.512236614114584 0.7302337909711026
0004f0 46 69 dd 3f 0b 07 cd 3f 45 fb e3 31 73 c0 e7 3f
       0.22677746408846583 0.7422424292015896
000500 fd 17 ab ba cf cc d5 bf 54 e3 0d 88 28 81 d1 bf
       -0.34062569836930817 -0.27350819860980846
000510 b0 a8 0a 87 42 e1 e9 3f 09 dd 60 b0 95 08 d2 bf
       0.8087475430995905 -0.28177396988344633
000520 9c 39 e1 e5 33 b3 ee 3f b7 57 40 11 05 8f e7 bf
       0.9593753328170354 -0.7362084710064128
000530 fb b1 a8 98 9c 02 d7 3f c2 32 f0 50 0c 01 e7 bf
       0.3595344057855809 -0.7188779431176828
000540 00 00 00 00 00 00 f0 3f 54 e4 5b 1d ad cb ea 3f
       1.0 0.8373628209511801
000550 15 43 10 21 b3 82 d6 3f b3 c4 04 d7 73 e1 b4 bf
       0.3517272780309651 -0.08156513213613685
000560 36 8f 36 e6 e3 39 d4 bf 30 9d da 69 65 9b e6 3f
       -0.3160333393263842 0.7064692561588455
000570 fe ff ff ff ff ff ef 3f bf 82 c4 d6 6f 45 de 3f
       0.9999999999999998 0.4729880902614631
000580 97 7a 30 a8 55 39 ea 3f 78 d6 58 4c 8b 4e db bf
       0.8194988522480625 -0.4266689534737007
000590 52 35 9f 21 59 dc b0 bf 2f 58 ab 77 06 ed dc 3f
       -0.06586224623534534 0.45196687399345853
0005a0 16 18 0e 6f e9 9c d0 3f 33 6b 39 16 a9 89 e4 bf
       0.25957713933201043 -0.641804259688206
0005b0 53 7a e2 a9 cb db e4 bf 73 31 f4 eb 2c cd d2 3f
       -0.6518305128154885 0.29377291719790505
0005c0 92 b6 df 27 e3 ee d5 bf 9b 8c 3f 84 45 7a e4 3f
       -0.3427055253404002 0.6399257262204573
0005d0 fd ff ff ff ff ff ef bf ca b9 84 93 47 f3 e5 3f
       -0.9999999999999997 0.6859472161502762
0005e0 12 90 4c d5 7d ee be 3f fa 2d 65 cb a0 80 ed bf
       0.12082659204003246 -0.9219516727984562
0005f0 1c 5c 2f 43 13 09 e2 bf 86 fe 71 b6 a9 8d e9 3f
       -0.5636078178603188 0.7985428393730707
000600 a1 e9 a3 49 cf ea d8 3f 6d b9 f9 45 16 89 df 3f
       0.3893316477912326 0.49274212678473966
000610 db 0e 47 ce c0 6b df 3f 56 7e 13 92 05 e5 e6 bf
       0.4909517301968955 -0.7154567578363167
000620 00 00 00 00 00 00 f0 bf ff 5e 2b 79 56 b1 ed bf
       -1.0 -0.9278976790037347
000630 11 88 c9 fb 4e 26 c7 bf 4e 57 8b c7 ef 48 ea 3f
       -0.18085658354090176 0.8214033982610347
000640 f0 e0 14 09 ee 76 c8 3f 14 67 87 12 d4 aa a5 3f
       0.19112945025859274 0.04231894231970848
000650 00 00 00 00 00 00 f0 3f e0 98 54 99 5a f6 e0 3f
       1.0 0.5300724978194715
000660 73 0f 2d 65 8a bb e4 3f bc 60 2d 6f 86 e6 b1 3f
       0.6478931404203493 0.06992378439224728
000670 0c 44 9e 51 97 05 d6 3f bf 43 c8 97 d0 17 ca bf
       0.34409125299959054 -0.2038517705082352
000680 b5 e8 bd e5 6c 5a bb bf 94 78 91 09 e3 56 d7 bf
       -0.10684853180819938 -0.36467815336607967
000690 d6 09 3a 07 c6 96 e3 bf a7 d3 f9 ca 04 fe ef bf
       -0.6121549740931254 -0.9997581447956819
0006a0 15 9e 94 92 c5 5d d8 bf 62 e3 57 6e a4 6c eb bf
       -0.38072337450509625 -0.8570120005743826
0006b0 34 fa ad f9 04 96 ea bf 00 00 00 00 00 00 f0 bf
       -0.8308129192881268 -1.0
0006c0 ff ff ff ff ff ff ef bf 11 16 6b 2b 6c f7 d7 3f
       -0.9999999999999999 0.374476473236741
0006d0 9d 69 62 e9 b2 ad 96 bf fd 98 b1 e2 41 28 e0 3f
       -0.022146983618407046 0.5049142291652796
0006e0 ea fb e9 75 12 f2 d2 3f c1 7a 50 5c ba f6 e4 3f
       0.29602490916289403 0.655118160535345
0006f0 5d d9 5f 9c d2 4d ed 3f b7 e2 72 7c f3 4c eb 3f
       0.9157498411357597 0.8531434469833447
000700 28 3f 3a 2a 91 f8 cf 3f e8 11 ea de 04 c3 c0 bf
       0.24977316438570907 -0.13095150837410974
000710 bd fd b9 4d 59 f3 e1 3f 3f e3 16 ca 56 22 e8 3f
       0.5609556692215204 0.7541917750414554
000720 4a fe 47 16 94 27 d7 bf bd 73 89 1f 86 fe ea 3f
       -0.36179067779446383 0.8435698142962945
000730 4d 72 9a aa 66 d0 e8 3f a3 b6 a3 e5 a5 2e e1 bf
       0.7754395801635582 -0.5369443402430146
000740 e3 16 08 73 bf da e1 3f 9e 8f 61 ab ec da da 3f
       0.5579526182852671 0.4196120904582531
000750 a3 d8 0b e9 83 12 e8 3f 73 15 ea d1 88 bf e7 bf
       0.7522601653752371 -0.7421306705370355
000760 81 51 09 58 d2 ad ba 3f f0 65 99 4e 60 52 64 3f
       0.10421480798078699 0.002480686282791515
000770 c0 87 26 b1 98 4b ef bf f7 a9 26 a9 92 38 dd bf
       -0.9779780826540829 -0.4565779353967225
