Snake Genetic/plot/best_snakes_each_generation/snake85/b1.npy (npy, 640 bytes, 1 tensors)

array f8 [64, 1]
000000 e9 dc fb 66 60 7b df bf 4b f0 63 d0 47 eb c3 3f
       -0.49190530831351836 0.1556176917582682
000010 b5 53 8d ac 35 3c ee 3f 99 b7 49 83 a0 51 a4 3f
       0.9448498125226396 0.03968526461254313
000020 ae f6 c0 cf 9f de e6 bf 1f 8b fd 9c f8 20 e8 3f
       -0.7146758134546951 0.754024798032649
000030 a6 ea 7a 65 4b 9c b0 bf cf 20 ac e7 f6 59 e6 bf
       -0.06488486506979516 -0.6984819912768446
000040 79 08 41 58 ae 38 b4 3f 23 ff 20 f1 ab 9e ef 3f
       0.07898988394393482 0.9881190976666158
000050 f1 89 2d fc f0 6d db 3f bb 11 0f 06 0a 87 ed 3f
       0.4285852873491925 0.9227342718445962
000060 56 ea 6e 4d bc 69 b8 bf e6 fb 41 61 dc f2 da bf
       -0.09536339655361678 -0.4210730504782404
000070 58 fd aa 1c dc 55 ef bf fa 8c 6c 64 b9 43 b5 3f
       -0.9792309341354821 0.08306463910826159
000080 83 79 3e b8 91 64 c6 3f 7f bc f2 3b e2 46 e1 3f
       0.17494412895480246 0.5399027987349568
000090 88 d3 c5 f0 cd 7c e3 3f db 1f 76 58 70 2a cc bf
       0.6089849188416432 -0.22004513091474007
0000a0 05 59 57 39 b9 95 e0 3f 47 a0 05 de 07 b7 d7 bf
       0.5182767982430795 -0.37054630929788285
0000b0 d2 ed d3 3e ba 37 c6 bf 0b 42 da 73 3c 95 ef bf
       -0.17357566898122784 -0.9869673025842202
0000c0 da 75 f0 b9 d6 3d d4 bf af 77 38 60 c8 fd cd 3f
       -0.3162743392766437 0.23430733392973255
0000d0 62 a1 61 cd ff ff ef bf b0 3d 42 12 17 cf e6 bf
       -0.999999905715452 -0.7127795559517178
0000e0 d3 b5 15 24 ff b3 d4 bf a7 82 d2 f2 b4 90 d8 bf
       -0.323486123313015 -0.38383220399013357
0000f0 98 9d b0 bf 8c 7d c3 bf 77 a4 e6 25 b7 8b d9 3f
       -0.1522689758287299 0.39915255261673316
000100 9d 14 09 8d 85 dc ee bf 64 bc b5 f3 6f 2f d0 bf
       -0.9644191507910765 -0.25289534377856726
000110 c7 46 56 c4 41 3f b5 3f 0c 2b 40 bd cd 17 d9 bf
       0.08299647372612205 -0.3920778606558748
000120 3e 33 62 a4 0a 4a b7 3f 38 e1 df ea e1 c9 db 3f
       0.09097353471061084 0.43419692933050014
000130 df 0a b0 3f 8a fe d3 bf 47 50 d7 81 5d 78 d4 bf
       -0.312410890765177 -0.3198465126017748
000140 48 fa d1 ec c8 c3 e6 bf cf 0a 4b 6a 2d 77 bc bf
       -0.7113995194811844 -0.11119350285575112
000150 c0 b2 06 0b ea 8b c4 bf 0c b8 c7 5a a1 36 d4 3f
       -0.16051984346758807 0.3158343683743403
000160 ac c6 38 b3 d2 d9 ef bf 5c ce 44 31 ef 96 e9 bf
       -0.9953397274423046 -0.7996746027260531
000170 ca 1d e3 23 9e a3 b2 bf 91 47 e2 04 ae d7 e7 bf
       -0.07280910850669567 -0.7450780959500084
000180 a4 98 2d 9b 64 25 e8 3f bf fe 7f 54 f6 d5 c3 3f
       0.7545645743200748 0.15496710897422436
000190 ef 2a 93 31 fd 0a d0 bf 2f 3d 89 dc 03 6f ee bf
       -0.25067071763321186 -0.9510516459794526
0001a0 3a 34 93 d8 17 a6 d1 3f de 89 18 47 27 d8 ee bf
       0.2757625212660205 -0.9638859165755169
0001b0 e6 e3 6b 46 8a c5 d1 bf 63 f3 5d d8 fa ae e6 bf
       -0.2776818931302486 -0.7088598466794845
0001c0 9a fe 6d 67 5d 8b d7 3f 00 00 00 00 00 00 f0 3f
       0.3678811559729894 1.0
0001d0 76 d1 5a 31 94 18 df 3f 7a b5 bd bf ed d3 df 3f
       0.4858751756649079 0.49731010174476575
0001e0 2b 8f 76 18 0d cf ec bf ad 64 ec 5f 42 06 c7 3f
       -0.9002747991366723 0.1798785179496795
0001f0 6c 43 76 a8 e9 96 e2 bf d3 51 37 ab 88 ff ef bf
       -0.5809219637177256 -0.9999430984558394
