Pong Genetic V2/plot/best_paddle_each_generation/paddle4/W2.npy (npy, 16512 bytes, 1 tensors)

array f8 [32, 64]
-0.33449732108847186 0.616960969873142 0.309707881384045 -0.6638418087409313 -0.6348241959144776 -0.0535473840830868 0.4587007622982914 -0.10785660795360603
-0.92128463497627 0.2504875288530991 0.39960317018022506 -0.6457788728154761 0.7651194618331829 0.29038278475689633 0.5487280448192982 0.3225519922543886
-0.6645903692610832 0.09534043229973849 0.0659314878505186 -0.01652166986187291 0.118399189996299 -0.38088654868715244 0.4211300590380378 -0.3975323103653689
-0.9478665559849734 -0.10654097471502204 -0.24963303501206838 -0.9527593738233391 -0.9119203861870954 -0.4429271884544033 -0.40981226523876685 0.8908513758315948
-0.2227811441592797 -0.040650999356626666 0.010206576113116442 -0.8192450505457507 0.5172767664348937 -0.9767322103051821 0.5720119758638295 -0.19235900093370387
0.9651903906574711 -0.9186807392071012 -0.29117722823000347 -0.5675248055120591 0.5556656844193035 -0.06675433468155778 0.28049661090980554 0.27052892535899714
-0.8180962816404214 -0.5090061171410791 -0.9101900297497858 -0.07704077581591526 -0.875077588391581 0.025199791224315003 -0.3771396168002351 0.6860795398728574
-0.6188738987253197 0.22883443486125357 0.2720323479942706 0.7271087513143754 0.65277568493448 0.06112961179532519 0.40208221268211863 0.2758841546601187
-0.6151411560683993 0.9057207785905391 0.0023800880917381425 0.4828584640702988 0.736999645651303 -0.9519310953993069 0.2763781915307738 -0.2804659387876839
-0.4426873991852749 0.7335756021272972 -0.06956371515549553 0.5602946666862312 -0.882296102566668 -0.744247057307602 0.7903652213931155 0.49489503938117735
0.9159822786651656 -0.07682938970408647 0.5211968903016684 -0.175697968712873 -0.02140284286121468 -0.1996567850112308 -1.0 0.5605566208364188
0.471580869534726 0.791194028489854 -0.07023486580560896 -0.8821586001147983 -0.8957343215242407 -0.48700224877181897 -0.3747370070375336 -0.7292508794082051
0.17890981248383628 0.22084877949654597 -0.26615070666233687 0.32079760759285697 -0.19056283560823714 -0.15627986113793974 -0.4063507355967195 0.17520027984382297
0.9487513911148153 -0.5662294886923389 0.3547722512217125 -0.3458967492511271 0.3086026009221165 -0.3791850649818196 -0.9836857607703112 0.3976478642834372
-0.6743299602795496 -0.5858662682481671 0.8938633479540026 -0.11324968712857228 0.4601614728861264 0.5010627559949128 0.8180691984106885 -0.7388633703264315
-0.026314980218741325 -0.4602133080881535 0.7415010568537452 -0.027144708061914703 -0.054035627716231716 0.4143268577786231 -0.8723666863434452 -0.29431617004650945
-0.5098022693556777 0.7128403080333748 0.30228729081408456 0.3680984908403028 -0.5715523113061347 -0.9587998055864978 0.1510153691854194 -0.23689744665309892
0.09772850175036749 -0.5588389368405953 0.5116938039101743 -0.994143361528203 -0.3165118599878409 -0.6600506962069257 -0.9361850189569731 0.07800102052728947
-0.4268704295907842 0.8195785214614655 -0.5123283717750726 0.5466168639141796 0.41323594340220643 0.7313892975326215 0.7881250332840714 -0.22528867641109837
0.5151643686927968 0.5421157209727255 0.3767470718965195 0.42040469247888484 0.0423608784710812 0.7667932151123962 0.5357986858874567 0.9083408471139364
-0.3030059350867858 0.6525491838857432 0.9921837802849561 0.841431885205791 -0.913882711753027 0.3337578426945943 -0.9204430682555904 -0.3942578391290858
0.1808069585017378 -0.8750041304106521 0.8780843674105513 0.8878577855653421 -0.9350555722692266 0.783455800175293 -0.9867692880979327 -0.4694862135811293
0.09492469981611111 0.6785572410920335 0.8845175435826234 0.4685857464851748 0.15540548331813772 0.4896601329669453 0.7859619584239105 0.5185792837741672
-1.0 -0.9523253530771544 0.8163610921327076 0.07556198000826052 -0.5880028530170243 0.4402954295612971 -0.2971112411467266 -0.7133296339464708
0.7164635384821179 0.7684166471580667 0.401084462795527 0.4903784859879883 -0.3200398089951539 0.9932154007260404 0.2509028469919564 -0.9975390615977714
0.47890723531488816 -0.09505603441886172 0.5172215027220125 0.4471553782514257 -0.4915514101868458 -0.16123768151793538 0.6207814182620541 -0.5949793915087458
0.3819811441837285 0.6346799616268001 -0.9396544753151729 0.6883831000993907 -0.1939438290076817 0.6946787846465562 -0.8926704451003575 -0.6919509739090324
-0.8445374827352587 1.0 0.8724082668056726 -0.6079708209319203 -0.2939674009056443 0.6560415671880783 -0.9921297213912894 0.10732969449306179
-0.9694243933776641 0.9552353115685923 -0.4776318386532882 0.9623948860774688 -0.4586307802740641 -0.29589897691151196 -0.30956651315233674 -0.964063258429181
0.13616728423094726 0.3309928824028315 -0.6997748414187765 -0.8543660799420907 0.5063169099384855 0.8037028309260346 -0.05584576038936992 -0.9673715992265214
0.9219753204937892 0.2136197040657546 0.28084592820236404 -0.5388913507308055 -0.93438800738186 -0.12477426239567593 -0.48080104017773945 -0.5575614083809215
-0.9903611099472156 -0.8777744518091014 -0.370551697970399 0.09004121393616887 -0.6251884433223744 -0.968094509215757 0.9083332500693422 -0.806698746147665
00000000: 9c2c ab73 6768 d5bf 4c6f 90ee 24be e33f
00000010: 2be8 7601 41d2 d33f 2d50 482d 313e e5bf
00000020: 9030 05d5 7a50 e4bf d1ae d80e 906a abbf
00000030: ee2b 2e71 5a5b dd3f 9d77 d19b 7d9c bbbf
00000040: daf8 30ea 297b edbf f6b6 1ed8 fc07 d03f
00000050: ca53 d32c 1993 d93f 3a16 6674 38aa e4bf
00000060: 9a69 43cf db7b e83f b58b f6ac a195 d23f
00000070: 78b3 dc1d 2e8f e13f ee80 7f1c b1a4 d43f
00000080: 35d0 a605 5344 e5bf c4c0 b606 3b68 b83f
00000090: 9f37 18d0 e2e0 b03f 4c9f ed7e 0eeb 90bf
000000a0: cc30 e8c8 684f be3f 983f 86f9 7160 d8bf
000000b0: 3894 bb7d cbf3 da3f 5fd8 075c 2b71 d9bf
000000c0: 03af 5d3e ec54 eebf 6bc1 15f2 4446 bbbf
000000d0: 2964 b0ac f9f3 cfbf f2ea f039 017d eebf
000000e0: 2356 67a9 732e edbf e1ef 3a47 eb58 dcbf
000000f0: c5cf 2c39 5d3a dabf c062 99be da81 ec3f
00000100: 462f 2ab0 1784 ccbf c4a6 9231 35d0 a4bf
00000110: e837 e174 2fe7 843f ac1f 7065 4137 eabf
00000120: 2531 5a01 888d e03f d6bc 86e8 6341 efbf
00000130: f72c 280f ec4d e23f adfd 0c41 389f c8bf
00000140: 9531 49f5 d6e2 ee3f e281 4b26 d565 edbf
00000150: 669e 25d0 a5a2 d2bf 4dfa eac7 2929 e2bf
00000160: 46e4 c266 03c8 e13f d0d2 52e4 cf16 b1bf
00000170: ddc5 9f0e a8f3 d13f a17d c28d 5850 d13f
00000180: 7cfe d340 d82d eabf 56b7 5232 c749 e0bf
00000190: 8875 5dd7 4620 edbf 9e7b 96bc f1b8 b3bf
000001a0: 2957 f3b6 a200 ecbf d6a5 b25c f9cd 993f
000001b0: fab5 0b34 0e23 d8bf 44ad 4614 5df4 e53f
000001c0: c8f1 6ba2 d0cd e3bf bdbf f65e 724a cd3f
000001d0: 19ba 855d fa68 d13f fffa 7092 7944 e73f
000001e0: e95c 4dd5 89e3 e43f 33c9 f466 614c af3f
000001f0: 1879 7108 b7bb d93f fbfc 6f03 16a8 d13f
00000200: d698 7781 3caf e3bf 2754 6b24 aafb ec3f
00000210: b5e9 7f10 687f 633f 9fd6 f12f 27e7 de3f
00000220: c88c e747 8095 e73f a522 5933 3876 eebf
00000230: 72f2 7c27 2eb0 d13f e60a af68 27f3 d1bf
00000240: 0888 7687 fd54 dcbf cef7 888a 7379 e73f
00000250: d0c3 9479 edce b1bf 764c b114 efed e13f
00000260: ee2f 3d09 c53b ecbf f1f8 6834 dfd0 e7bf
00000270: 75ef 3801 ac4a e93f 0511 463e 5cac df3f
00000280: 63a3 5211 ba4f ed3f a793 2644 17ab b3bf
00000290: 0eec d319 a5ad e03f bf36 cc62 457d c6bf
000002a0: ee78 8578 a0ea 95bf 521c 0681 5a8e c9bf
000002b0: 0000 0000 0000 f0bf e08e 4170 14f0 e13f
000002c0: 7a89 0487 612e de3f f8f0 a423 7651 e93f
000002d0: d58d ac83 e9fa b1bf 381a 2cac a43a ecbf
000002e0: 5d3e 1b06 dba9 ecbf 366b e37a 0b2b dfbf
000002f0: adef 74ed b0fb d7bf 3e66 b4f0 0556 e7bf
00000300: d399 c648 84e6 c63f 8a4b a6d6 c544 cc3f
00000310: 7a02 3bf9 9c08 d1bf 65c4 4fb0 f287 d43f
00000320: 8f9c 62ed 5c64 c8bf 1231 4e7e fa00 c4bf
00000330: 24fb 0584 a601 dabf 3ef2 1678 f66c c63f
00000340: a4ec 9be0 2b5c ee3f 58dc fe4d 8d1e e2bf
00000350: a2a2 21ac 96b4 d63f 28e2 741e 2c23 d6bf
00000360: 27f2 9a1f 25c0 d33f 90a0 4e6f 9144 d8bf
00000370: 6994 818f 5a7a efbf a5fb 1a07 1073 d93f
00000380: faa2 c36c 1c94 e5bf f992 be9d 6abf e2bf
00000390: bcc6 d14e 879a ec3f f6db 7f76 eefd bcbf
000003a0: e634 3b1b 4973 dd3f a6bc c7c2 b408 e03f
000003b0: 323e a174 9f2d ea3f a375 78cb c4a4 e7bf
000003c0: 5ace bc6d 50f2 9abf be0b db84 2274 ddbf
000003d0: 585c a46c 60ba e73f fda3 8a85 d2cb 9bbf
000003e0: 0058 b8cb 8eaa abbf 4edf 00cc 5484 da3f
000003f0: 2ce1 7e8a 6dea ebbf ae28 427d 13d6 d2bf
00000400: 1fe5 49d9 4c50 e0bf e1c3 487a 96cf e63f
00000410: 70bf 02cb ac58 d33f 776d f7f8 ec8e d73f
00000420: fc6a a012 284a e2bf 1ff7 0cee 7cae eebf
00000430: 8620 ecbb 7854 c33f 72c3 f0d0 a752 cebf
00000440: fea7 e72e bc04 b93f cac6 ae31 02e2 e1bf
00000450: 6985 2baf cb5f e03f 8792 29bd 05d0 efbf
00000460: fc68 dcf5 ba41 d4bf 1625 3da3 221f e5bf
00000470: 629c ed48 3af5 edbf 3426 38f8 dff7 b33f
00000480: 6d33 ae59 d851 dbbf fcca 45bc fc39 ea3f
00000490: 9cc7 3278 fe64 e0bf f182 3ea6 e27d e13f
000004a0: 816d 9c2b 7572 da3f 3681 3187 8a67 e73f
000004b0: dfa5 63fd 5138 e93f 3722 ac64 42d6 ccbf
000004c0: 9933 73fc 397c e03f cd35 8711 0359 e13f
000004d0: 2b32 2ac0 9f1c d83f 2708 5215 e9e7 da3f
000004e0: 0585 5337 53b0 a53f 587a b6ec 9189 e83f
000004f0: 7f0b 2449 4325 e13f 9935 ffd2 2011 ed3f
00000500: e543 6c01 7364 d3bf a543 7ad3 aee1 e43f
00000510: d541 fe32 f8bf ef3f eda7 988f 02ed ea3f
00000520: 4e7d ebf4 863e edbf ee08 cada 495c d53f
00000530: e29a 7f05 4574 edbf 3f11 503b 853b d9bf
00000540: 99bc d3b2 ae24 c73f 4351 7fa9 0800 ecbf
00000550: 8107 2563 4419 ec3f 6911 10bb 5469 ec3f
00000560: 36d8 daa9 f9eb edbf 1fa9 f3e5 1112 e93f
00000570: 877d a22f 9d93 efbf 9c3e 50e7 0f0c debf
00000580: e3f5 4a31 fc4c b83f 6489 deac bdb6 e53f
00000590: b29e 4dbc f74d ec3f fca2 2112 4ffd dd3f
000005a0: 8738 3cae 53e4 c33f eadf 4f74 9756 df3f
000005b0: f995 6ab1 9926 e93f 4c2e 0695 3398 e03f
000005c0: 0000 0000 0000 f0bf e9c6 d304 7379 eebf
000005d0: 72fa 0d4c a11f ea3f 2fdc f4a8 0758 b33f
000005e0: c635 f55b ebd0 e2bf 98d1 a2e1 cc2d dc3f
000005f0: 3ef2 ffdd de03 d3bf f42a 22ab 98d3 e6bf
00000600: 0ad4 51f1 44ed e63f 26de 2782 de96 e83f
00000610: 3cfe a82a 5eab d93f f0be fe71 5c62 df3f
00000620: 6f58 4340 887b d4bf 630f 00aa 6bc8 ef3f
00000630: 8e70 93d0 ca0e d03f 4b70 c109 d7eb efbf
00000640: b3b1 5f88 6aa6 de3f 6bd0 1d9f 9755 b8bf
00000650: 1f54 df1b 148d e03f 2881 7497 319e dc3f
00000660: 2288 c30b 9475 dfbf 844e 80b4 6fa3 c4bf
00000670: f6cc 2cfe 70dd e33f 905e 8a38 120a e3bf
00000680: 2e4c 7d0a 6172 d83f f3a2 d359 4c4f e43f
00000690: 3f99 2043 a611 eebf a678 c1fe 3b07 e63f
000006a0: 54ac 6cc1 26d3 c8bf 0706 a900 cf3a e63f
000006b0: 42fa f99b c190 ecbf 14fd 6b5e 7624 e6bf
000006c0: e002 9378 7306 ebbf 0000 0000 0000 f03f
000006d0: cf17 d6bd c4ea eb3f 5665 1a39 7f74 e3bf
000006e0: 14b6 3ea5 5cd0 d2bf d375 7ce2 4afe e43f
000006f0: 5a7c 58d4 86bf efbf 64c4 bc77 f579 bb3f
00000700: fa0d 304e 8605 efbf b87c e5a4 4991 ee3f
00000710: 86d4 a221 8591 debf bf4a 315c f0cb ee3f
00000720: 0cd4 8dea 345a ddbf b14e 3043 02f0 d2bf
00000730: 3e44 7b10 f0cf d3bf 1b50 c730 9bd9 eebf
00000740: 944d 47f8 ed6d c13f 7940 48c5 fc2e d53f
00000750: a4a1 4e35 8e64 e6bf 4e37 8588 f756 ebbf
00000760: 511f 3385 bf33 e03f 3cf5 d0ff eeb7 e93f
00000770: 8c35 fcc4 d097 acbf 653a b848 b5f4 eebf
00000780: 9dad 2763 d280 ed3f c02e 5ff5 e357 cb3f
00000790: bf02 3633 61f9 d13f ee8d ef12 993e e1bf
000007a0: aa59 afad 81e6 edbf 2a38 5fc0 34f1 bfbf
000007b0: 198e dcb9 71c5 debf 8e3f d005 8bd7 e1bf
000007c0: 7e83 4ec8 09b1 efbf f519 7972 ba16 ecbf
000007d0: 06a6 1078 1eb7 d7bf 54e2 25e5 f00c b73f
000007e0: 1404 bd31 8b01 e4bf 659a 1056 a1fa eebf
000007f0: d259 5de4 1011 ed3f adb5 8de3 79d0 e9bf
