Pong Genetic V2/plot/best_paddle_each_generation/paddle13/W4.npy (npy, 512 bytes, 1 tensors)

array f8 [3, 16]
-0.8337320842978251 -0.9817575742145104 -0.7907788978733433 -0.18080597219678962 -0.17626720248154243 0.048825290644509016 -0.7171101648102379 -0.8491861426299915
0.8856010412337189 -0.7652634956559192 -0.38977007839704275 -0.9013050828173851 -1.0 -0.7204861695422823 -0.019356421017535527 0.18440313984074844
-0.15519007253021494 -0.36023814986188923 0.9238011011858155 -0.9796398331095998 -0.38117812411529994 0.9260382342956877 0.04428509491263699 0.659281979956048
0.461936987360146 0.01650751676432533 -0.5207280612751957 -0.3002814141640464 -0.8873595629060648 -0.21480131521754325 -0.04987223014970101 0.22995870563296594
-0.3483157586388753 0.9997161020319901 0.7480560246521298 -0.5061715166388221 -0.34828289028667486 0.6295094532379889 -0.8256400676738936 1.0
-0.050267807664864106 0.15606766229486696 0.4024764453690454 0.04792110224521801 0.320010828892234 0.8408460912526524 -0.35286254302910397 -0.004164325604696661
00000000: 20ec 75e8 eead eabf 6e40 3bdc 8e6a efbf
00000010: 3174 178c 0f4e e9bf 70db c06c a624 c7bf
00000020: 5200 0277 ec8f c6bf 5f5c 12e5 a0ff a83f
00000030: 0da7 2f04 91f2 e6bf 95fd d96a 882c ebbf
00000040: 37e0 acfe d756 ec3f 2246 d5de 097d e8bf
00000050: 8b2d eb32 fef1 d8bf 6b6a cdc1 7dd7 ecbf
00000060: 0000 0000 0000 f0bf f5f0 ec02 390e e7bf
00000070: dca1 f36c 2bd2 93bf 41a7 72a7 859a c73f
00000080: a22f 17af 44dd c3bf 456a 1b50 240e d7bf
00000090: 7942 b353 c78f ed3f 7111 a2a2 3559 efbf
000000a0: 66a7 41ee 3865 d8bf 76a8 64ef 1aa2 ed3f
000000b0: 6037 b334 89ac a63f 791b d885 d618 e53f
000000c0: ec92 6127 6090 dd3f f154 90b2 58e7 903f
000000d0: 982a 29e5 cda9 e0bf f498 5b89 cf37 d3bf
000000e0: 4f2e cfe1 3f65 ecbf 22a2 ff07 9c7e cbbf
000000f0: 236f f15a da88 a9bf d8e1 0f70 496f cd3f
00000100: fa43 022e ce4a d6bf 4762 709f acfd ef3f
00000110: 059d 2e30 13f0 e73f bc2c c49b 8e32 e0bf
00000120: 7168 e251 444a d6bf 97c2 4502 f124 e43f
00000130: b5a6 1db8 a46b eabf 0000 0000 0000 f03f
00000140: b8a6 ecbb b3bc a9bf 1a83 c270 06fa c33f
00000150: eb4d 9190 2cc2 d93f 69eb dc5d 1d89 a83f
00000160: d24f 1db3 0e7b d43f 4fc9 dc0f 36e8 ea3f
00000170: f9c6 92c6 4c95 d6bf 4c59 83a4 9c0e 71bf
