Snake Genetic/plot/best_snakes_each_generation/snake86/W2.npy (npy, 16512 bytes, 1 tensors)

array f8 [32, 64]
00000000: 5c7e 3431 ca43 ccbf 4540 caeb b340 e93f
00000010: 52e7 19dd d833 e03f 7fbb 4eca 7906 cdbf
00000020: d5b7 326c 8324 bdbf 5cb9 3067 c77d ddbf
00000030: 6351 2433 7d4b e2bf 51dc 9269 d30a d03f
00000040: 0000 0000 0000 f03f 2fcf 8517 897f e1bf
00000050: 3df9 82b3 f9ff ef3f f4e8 47ee 5dc3 e3bf
00000060: 8a84 86d3 7b1a cd3f 267a 2dea 44bb e0bf
00000070: a20e 2898 da44 eabf db52 04a5 7b46 ed3f
00000080: 3445 0dc0 dcc7 e13f 9723 c7ca b38f d63f
00000090: 2377 fe24 8bbd b3bf e733 6345 a554 e53f
000000a0: 2a1a b31e c018 e5bf 3dc7 f435 23c5 c83f
000000b0: 1a58 3cbb 6767 e5bf d051 fefb 34ba e53f
000000c0: 1eb6 9c9f 0535 e2bf 0129 a165 3af5 d6bf
000000d0: bc31 e1be e480 e5bf 64db 6a4b 1bbf df3f
000000e0: fff4 e15d c2dd e5bf 9aca 8a73 b0a4 e7bf
000000f0: c8ea df4e 2863 d63f dd9c e5d4 8998 d7bf
00000100: f014 5e3e dae2 e33f ffff ffff ffff ef3f
00000110: 4022 e8b1 be26 ef3f 1711 afeb 8d1d e3bf
00000120: f1b2 cbe5 af0c a9bf cfa3 2393 ec41 d2bf
00000130: 047a 23c3 ebc7 bd3f 4693 35d6 ae68 eabf
00000140: 0cde cf03 850d d3bf 0000 0000 0000 f0bf
00000150: 3119 633e 0935 db3f 0080 96ce efba 003f
00000160: 045a d586 252d d93f 8bc7 89a5 4a4c e43f
00000170: 0268 6b38 f868 e13f c1aa 7686 2fe1 babf
00000180: 08ec e778 5aaf c7bf 0672 9c10 7ab3 b6bf
00000190: 95e3 a98e 80df ce3f 181a 6833 5f36 de3f
000001a0: 7b7c eba3 fcf1 b73f e7ce 1e97 4f33 ef3f
000001b0: 2631 123f ed4d e1bf 7fb4 7ca7 58e2 aabf
000001c0: 3827 08bf 3e2c e1bf 814c a4d7 a355 d63f
000001d0: a7b3 3531 29e8 d33f 3023 e590 dd96 e1bf
000001e0: 613e 91c4 be0c e1bf 2401 fc22 f11c bfbf
000001f0: eeed ed7a 6b7f c2bf 4c53 40bc af92 a23f
00000200: a226 1c6e e9fd efbf e4ba 319e 7e0e e8bf
00000210: cfb1 b172 d8cd e6bf 6061 dee0 657c d73f
00000220: f3a6 adb0 a7ff efbf 9116 925b ad11 d8bf
00000230: 5baf 700b 5983 adbf 7d60 7ebc f03f de3f
00000240: 8683 c2c5 bdb7 bebf 0000 0000 0000 f03f
00000250: 09b8 c4b1 606b c03f 88d6 db13 55e0 c6bf
00000260: aea2 b3bb 5a03 efbf 806f 5c00 757e c6bf
00000270: 80b0 6e96 3d1f de3f 5013 57dc 7ce9 b63f
00000280: afd5 72f2 f912 ce3f 0447 db2c 4825 d9bf
00000290: 0000 0000 0000 f03f 0000 0000 0000 f0bf
000002a0: db02 a672 13ae debf e09c 4b8a 93aa af3f
000002b0: 4abc d38e 2558 debf c921 47cf 9f02 e13f
000002c0: 5fd9 9ae1 b7ca c83f 6961 1b25 93f0 ef3f
000002d0: 8fd6 516e 9ec7 c8bf 9ab2 8697 cdfc e83f
000002e0: ac43 8e3f 0af9 a13f 19a2 c6f7 bb01 e7bf
000002f0: ef09 0663 92a8 d13f bd3f 7717 8fcd b63f
00000300: c025 5355 a4a3 de3f c570 2585 c0f3 c3bf
00000310: 54b8 bfd3 bb0f e6bf b6cb abfc 28a8 b9bf
00000320: dbc9 d15d 6014 e7bf 0000 0000 0000 f03f
00000330: a1c1 7aa3 85d2 d3bf b8f9 cc64 2378 c2bf
00000340: af42 a30d 117d b23f 9977 e036 e914 e53f
00000350: 33a1 990f e599 d1bf be07 22ce 707b c4bf
00000360: bb6d ff86 f092 c63f f668 c209 8bf7 eabf
00000370: 6de0 fbfe 6a39 d6bf f9ff ffff ffff ef3f
00000380: 979f 78db 61bb df3f 56fa c964 cadd cfbf
00000390: aeb6 8937 0418 ee3f 30c4 e732 785c d9bf
000003a0: 749d 7fb5 3b03 b2bf 969a 7c96 c743 e4bf
000003b0: bf1b e8ec a046 d33f f8a5 27ac 8b60 d8bf
000003c0: 9032 6442 13ea d43f 4edc c2ed 6ab7 e93f
000003d0: 4162 f131 a6de d6bf 1ad6 a2be 14ba df3f
000003e0: 3034 4a59 36a6 cabf a025 9447 dd8f ccbf
000003f0: 67f5 24f7 4682 d7bf ffff ffff ffff efbf
00000400: 1972 3872 3ace e93f 4589 3afe 1f99 b23f
00000410: 3d5e 3536 7565 d63f ea08 83b9 3b98 eabf
00000420: df09 184c 7828 c73f 8a99 a298 dd2a 973f
00000430: 85e5 78e0 e836 c2bf baec 6c74 b01f eb3f
00000440: c6df 81c2 5d32 963f c12d 59e5 0f0c ebbf
00000450: 2359 5882 4e5a e73f 1073 32f1 3c37 eebf
00000460: c255 5788 cc7c a9bf 1680 88e8 f385 edbf
00000470: dabc a75a 78a8 d23f b53e 3769 2fae e7bf
00000480: a234 183b 9c29 ecbf dc41 b48d 3345 a7bf
00000490: 750d 0de4 48a4 debf 01e0 47e4 1217 e73f
000004a0: 99ca 5fac 7ef5 efbf 90f5 769b b99f ef3f
000004b0: 080c 618e 0bab e93f 1ca0 1b88 6670 e93f
000004c0: 2ff4 a593 3213 e33f e507 1eb3 cd8d dcbf
000004d0: 8508 081a ff88 cfbf eed6 1a88 5a9e e73f
000004e0: 08c0 e0ef 7fe7 e43f a820 91f6 c35e e23f
000004f0: d3e7 8a39 a50f e23f b792 e4ca 7ce3 d5bf
00000500: 63cd 9b21 04e0 e83f 2b12 862f db61 e03f
00000510: c77e b538 94b1 adbf 50cc c857 86d7 a2bf
00000520: 2954 e33a 3976 e8bf 44b8 3c81 7987 e33f
00000530: 831b ab0d 4f3f ef3f 147c ec63 80fa e13f
00000540: 0000 0000 0000 f0bf 3ee1 c7a0 89c8 e33f
00000550: 59ce 46fa 0e9c e6bf e31f 8de5 f47d eabf
00000560: 456e 89b4 69f9 b9bf b0d2 a380 8865 da3f
00000570: bfb7 a78a d4b2 e53f 2117 1d77 cbd0 efbf
00000580: 1eb3 63c5 220b d83f 5f3f aae6 7d35 dbbf
00000590: 2be5 8bda 3edc b9bf 7470 c18e 9487 d83f
000005a0: ac14 f42a bb15 ed3f fbaf 9ed0 a55f eabf
000005b0: 0fb4 6fe5 d885 e9bf b006 9739 199d cbbf
000005c0: 77ef 55c1 ed41 e63f 0704 ec47 63c1 ebbf
000005d0: 8e4e d468 3c72 d03f bb13 6e67 2acf e4bf
000005e0: ce77 e4ef a90c c53f faff ffff ffff efbf
000005f0: 9d06 e735 95bd e73f 2d08 fa93 35e9 e5bf
00000600: 2518 2af6 5297 d1bf 24e9 cbd3 ee62 c83f
00000610: de89 b76c 3df1 eabf 767c dc19 08e0 e63f
00000620: 5a45 0639 49cb d3bf c1cc 4011 aa98 e1bf
00000630: 264b 2a1f 3eab cb3f 752d 1511 9244 aa3f
00000640: 97ce 35fa b4c0 b73f b2a0 3409 7ae9 a0bf
00000650: 284f 5688 875a d13f 2475 6fa4 07a7 e5bf
00000660: 7502 3950 9329 b8bf 8b31 1e6a 0de2 d0bf
00000670: 175b a6a0 099a c2bf 5416 ce59 ee49 ef3f
00000680: c192 4e8b 1cad e63f 23c0 b426 11f3 e0bf
00000690: abcd 4361 d977 d53f 8432 9a8e 8ad4 963f
000006a0: 399c e617 1973 d2bf 6cda ff16 cb5f be3f
000006b0: 3ceb 5156 9082 e0bf 7d98 e884 ef85 b4bf
000006c0: 0322 618e 1b71 d6bf d99d a0cd 9095 e0bf
000006d0: 4fbb 52ea c7cb eabf e357 3689 7f13 e43f
000006e0: 3f6f 2a28 bb05 e13f 4685 093a b66d d63f
000006f0: 8436 0d9d 1e11 ecbf 9815 3891 4882 e93f
00000700: c0da 66fe fa70 913f 0062 8437 fa6a bfbf
00000710: 0000 0000 0000 f03f 6fcc d48e f29e d1bf
00000720: 23ef 0cba 3382 dabf 70e6 b39c 283e e0bf
00000730: 88dd 4519 d4e6 ef3f 6846 aa58 81af ea3f
00000740: 513e c805 3910 e03f bf79 3f84 c887 d8bf
00000750: 0b4b bf94 5834 d4bf ff7c 3530 2672 e33f
00000760: 0000 0000 0000 f0bf 541e 7ff7 8255 cbbf
00000770: 3314 5810 b4c1 eb3f 7f0b f776 e8fa a1bf
00000780: 26c6 adaa 08f6 d33f 720e 43eb 1e99 c0bf
00000790: 0000 0000 0000 f0bf f40a cff0 1e9b c53f
000007a0: b69c ca2c 0f0e efbf 0000 0000 0000 f0bf
000007b0: 0000 0000 0000 f0bf 7e2c 3e65 76a8 e23f
000007c0: a9b8 d4cb 08a3 e1bf 1c7c 0a12 2d24 eabf
000007d0: e8d6 4d0b ecfe edbf 49e2 f086 8623 e93f
000007e0: 0000 0000 0000 f0bf db3f 7195 112a e53f
000007f0: 162b fa38 5902 e03f ac50 75f9 2645 dcbf
-0.22081878092375262 0.7891482930444985 0.5063289945967233 -0.2267601239995791 -0.11383839980655293 -0.4608019359319735 -0.5717149733414256 0.25066075620583655
1.0 -0.5468183001926031 0.9999969965063326 -0.6175985006259723 0.2273707182730827 -0.5228600095541125 -0.8209050151640052 0.9148538802133673
0.5556472540867277 0.3525208931210328 -0.07711095479177436 0.6665827136254138 -0.6592712974168695 0.1935161603410566 -0.6688727051684993 0.6789803430315775
-0.5689724080490952 -0.3587175362087152 -0.6719840744131527 0.4960392223833223 -0.683320220341244 -0.7388536698038763 0.3498020906696806 -0.36868520537104904
0.6214419572940226 0.9999999999999999 0.9734796023122456 -0.597357712097195 -0.04892491989253312 -0.28527368897499356 0.11633180154920103 -0.8252786811614008
-0.2977001702524553 -1.0 0.42511206715097943 3.191036541783099e-05 0.39338052909207044 0.6343129380386342 0.5440636732048463 -0.10499856026460021
-0.1850388613091527 -0.08867609887642666 0.24119574514386657 0.47206859607868656 0.09353617670011431 0.9750135375565748 -0.5407625419480027 -0.05250813526650066
-0.5366510134783544 0.3489770513417128 0.3110449772419152 -0.5496661977750588 -0.5328058089452946 -0.12153536895857947 -0.14451354505932507 0.036275378923312646
-0.9997450972161526 -0.7517693605167008 -0.712627624523117 0.36696764907676105 -0.9999578905819518 -0.37607892935225445 -0.05764272942209799 0.4726526108511349
-0.11999116972084609 1.0 0.1282769077310493 -0.1787210795370593 -0.9691594759034012 -0.17573416249876672 0.4706567734781473 0.0895002401294509
0.23495411241826278 -0.39290050869486515 1.0 -1.0 -0.4793747539152215 0.06184826911140262 -0.47413004825552163 0.5315703438182534
0.19368647113669632 0.9981170391793458 -0.1935918844862283 0.7808597526069037 0.035103149660364735 -0.7189617003796825 0.27591380758545275 0.0890740806855765
0.4787379105806302 -0.15587622166902385 -0.6894206176491573 -0.10022216957786054 -0.7212373573695986 1.0 -0.3097242447356852 -0.1442913286391112
0.0722208650870566 0.6588026115239131 -0.2750179912896044 -0.16001710953793052 0.17635923949897667 -0.8427176657308155 -0.3472545137478907 0.9999999999999992
0.49581190521939206 -0.2489560119756386 0.9404316982961143 -0.396268892013782 -0.07036183529964096 -0.6332738818353671 0.30118582854668924 -0.3808926755142177
0.32678681834730927 0.8036398547909671 -0.3573394286845862 0.49573248497776634 -0.20819739684921634 -0.2231403922562949 -0.36732648978416765 -0.9999999999999999
0.8064243536824193 0.0726490016627724 0.349942496240576 -0.8310831664350904 0.1809225436737298 0.022624456826315455 -0.1423007103019637 0.8476183198867127
0.02167650699308845 -0.8452224235019729 0.7297737642100269 -0.9442429266815413 -0.049780265467841214 -0.9226016561187886 0.2915326009087501 -0.7400128417011361
-0.8800793794813624 -0.04544983963762991 -0.4787771441517273 0.7215666254624012 -0.9987176291163734 0.988247684137308 0.8021295338479613 0.7949707659108785
0.5960934528117202 -0.44615499965595823 -0.24636830111564137 0.7380802782342621 0.6532592473140548 0.5740680518874983 0.564409840000048 -0.3420097333312628
0.7773457199495336 0.5119453361699632 -0.057995445177537124 -0.0368005735548641 -0.7644315862804706 0.6102874302066614 0.9764781252823557 0.5618287994037723
-1.0 0.618229688668215 -0.7065501106466839 -0.827875564901657 -0.1014619889987723 0.41244709551328196 0.678079863367877 -0.9942376448095481
0.37567967678369196 -0.4251398804271868 -0.10101692996604032 0.3832751649949906 0.9089027251181014 -0.8241757464033975 -0.7975887757471599 -0.21573176681527206
0.6955479408347703 -0.8673569111562082 0.2569724105571617 -0.650288774501511 0.1644489690160626 -0.9999999999999993 0.7418924382001993 -0.6847179308099435
-0.2748610881757279 0.19051919309260612 -0.8419482348802452 0.7148476128676424 -0.3092825943832246 -0.5498857819533428 0.21616341134775857 0.05130440195588452
0.09278422459265766 -0.03303128588078276 0.2711504775445399 -0.6766393863323725 -0.0943843909126459 -0.26379714358406464 -0.1453258547232614 0.9777747873310525
0.7086317749823011 -0.5296712642648383 0.3354400110103721 0.022295155481105514 -0.28827502569260194 0.1186491900587982 -0.5159379659593024 -0.0801686954006033
-0.3506535425590586 -0.5182575241241764 -0.8373756004928995 0.6273801498343768 0.531949594925642 0.35044627826399155 -0.8770897929586714 0.7971537433920046
0.017032548692180738 -0.12272609572790572 1.0 -0.27532638500560486 -0.41419690293308714 -0.5075877247429172 0.9969273084270052 0.8339239818325952
0.501980315488206 -0.38328755297507294 -0.31569494749162236 0.6076842252331572 -1.0 -0.21354710659783172 0.8673954314441573 -0.03511740162095744
0.3118917147431567 -0.12967287528418897 -1.0 0.1687964130233791 -0.970466220362957 -1.0 -1.0 0.583064267864202
-0.5511516552994823 -0.8169160225260188 -0.9373684139997893 0.7855866084638105 -1.0 0.6613853377148148 0.5002866852604224 -0.4417207180133669
