Pong Genetic V2/plot/best_paddle_each_generation/paddle15/W2.npy (npy, 16512 bytes, 1 tensors)

array f8 [32, 64]
00000000: d9ac c8ba 3a30 bfbf ee4f 1801 5aab e3bf
00000010: 568d 856b 54cc e83f ade8 353e c844 c33f
00000020: 0ede 14be b0eb ef3f dc9e 5201 4b39 b73f
00000030: 0f14 7a01 1924 d13f 4c60 1d31 e932 c1bf
00000040: ea61 f9d7 4160 e63f 156c 3dd4 9d57 efbf
00000050: df21 ec98 ed4c e5bf ff32 d62d 9291 e3bf
00000060: 6b3e a88b a113 ed3f 8f53 a439 3c35 8a3f
00000070: 3406 1fb5 a45e b5bf 36a6 bfbe 3cb1 bbbf
00000080: 0b2b d927 3133 e5bf e24e b45c f7c7 e5bf
00000090: cc72 bfdb 3b45 d7bf 9b70 9785 807a eb3f
000000a0: c654 3a9b a826 c5bf 146d 6fd9 6b8c ec3f
000000b0: 3ceb 770a 90d2 cebf d2b1 542d a945 c13f
000000c0: fbd2 c435 d488 c1bf 303c 48fc ff6f e43f
000000d0: 2c92 4813 e704 e7bf 0612 8f3a e707 d2bf
000000e0: 20f2 62e3 836c dc3f ab88 da46 479c c2bf
000000f0: d1e1 6e15 12ed e1bf 0830 902f 3ee3 e63f
00000100: 3899 8844 2e66 d43f 5956 d754 b3b2 b7bf
00000110: c711 05be ede2 d8bf e7d5 d6ef 9762 e23f
00000120: 4532 d1b4 4ac6 e23f c019 94ba 4237 aebf
00000130: 601f e17a f8bc c23f ca9d 4753 e5cf d43f
00000140: 2fb5 79d1 f683 c03f 4d1e 4e2e 746f d03f
00000150: a199 a730 db9e e93f 50cc 46b2 72f3 dc3f
00000160: e845 6ce4 4b01 e73f f063 8d71 33ee e33f
00000170: d877 bd98 f257 efbf 7448 8806 3dd2 e7bf
00000180: 7f01 67f6 1da0 e6bf bc14 3a01 3fca ce3f
00000190: fc6f 1285 aafa e93f 6698 9e8c 92d7 cdbf
000001a0: e605 d522 a1a5 dbbf b3ad 3924 e441 e53f
000001b0: e423 03b2 8539 babf 5f3d 450f 2a77 ebbf
000001c0: 3a6c cbf3 562d d13f 0000 0000 0000 f0bf
000001d0: fb8c 2fd0 2a7e eabf 8637 cbe2 916e e33f
000001e0: 551e 8e03 08fd eebf 8422 0ffd 6818 e8bf
000001f0: 03b8 70d8 1434 cf3f 1183 8d5f d7b4 cdbf
00000200: 48d5 5d46 cdce d3bf 5668 22ae 9364 e43f
00000210: 5634 be01 1541 c13f 1918 642e 8c02 d1bf
00000220: 1532 837b 4aff e33f 411b 30ab 6800 d5bf
00000230: a4b3 4fb2 6ec2 e73f eed2 533e 4d25 d5bf
00000240: a864 4e87 e859 cbbf a9a1 cbda f4e4 d7bf
00000250: 3623 af6a c53e e03f 2be2 7351 d39a dcbf
00000260: f78b d48d f52a e03f 5b22 d4de 33ff eabf
00000270: 1a75 c71d 9a98 e83f 7954 c021 7f52 e5bf
00000280: 7028 4882 03cc 9bbf bad0 29cd 9ad0 e63f
00000290: bc46 1fd4 fc2c ee3f 29bd 29b5 f9b8 b6bf
000002a0: 5b72 90a2 321e c0bf 560e 1813 0519 c6bf
000002b0: 1b13 4e13 e811 d8bf e509 41b7 d024 c53f
000002c0: fc79 8427 6f80 ba3f 4c1d efc9 14f6 ddbf
000002d0: e88c 74e3 e6e5 ebbf f74b 95be 7a36 ef3f
000002e0: 6f3f 85c1 5f2c debf 0d6f 89c8 5fa1 e8bf
000002f0: ea1d b4ba 5403 eb3f 0000 0000 0000 f03f
00000300: 4929 d5d8 069c e63f 36f6 20bc ef2f c23f
00000310: 2e1c d1d6 1c2a e6bf 3d45 c618 eeb5 dcbf
00000320: 7f5e 2dae 4d41 d0bf 3e59 4be5 d99c dcbf
00000330: 0308 be5b f0f1 e63f c21f 13e5 4925 e63f
00000340: 849f 174d 3aab e2bf d06a 140f 075d e7bf
00000350: 1d25 ced7 53f9 d73f ef9b 8711 00a3 ed3f
00000360: 4129 4cca c37e e03f b749 c1bc 586e dbbf
00000370: 1195 88bb 9333 cbbf 7ee5 c669 c54f ed3f
00000380: 86b4 6518 74a4 b23f 4934 265d dcd3 eebf
00000390: 702e 3292 f5c5 e83f 2d8a 4310 3f6f df3f
000003a0: dff0 3ad9 0087 e4bf 848b 0615 02ec bfbf
000003b0: 85b6 920d b183 e93f 5e0e 9348 a557 e2bf
000003c0: dad0 4e04 92c3 e03f c230 7f7a 155d d3bf
000003d0: 16ee ffad ba5b a0bf a316 7d8b 6f9c e53f
000003e0: 3064 4be6 a3b3 ebbf 0c6b 64f1 ee2c e4bf
000003f0: 75ca d99a 72b2 e8bf ba2e 7bea 2a2f c7bf
00000400: 61b3 01a2 b925 5dbf 11c5 988b 9a3d e2bf
00000410: 4018 e0a0 885f e83f 0617 9547 342e e6bf
00000420: 88d5 9e71 54c9 df3f c62f d631 86fe efbf
00000430: 57e2 dc8c c159 e43f 6e07 b19e 649a ccbf
00000440: 5d04 6e07 9333 ee3f 024e 591e 0c48 eabf
00000450: 6810 5b94 dc4d ebbf d8f6 bf43 ccc2 e73f
00000460: 2270 e9cc c7bc e63f e08a bdb3 3498 dbbf
00000470: aedd fbb0 0c79 e93f ef91 7f63 589a c6bf
00000480: 9d45 7775 eb88 e53f ad61 dc93 fb0d e83f
00000490: 55c2 062d 91df ee3f feb3 7463 c60b da3f
000004a0: a12c 1e15 9da3 e03f ca5e a700 c307 da3f
000004b0: 474b 4a7e 75c9 d73f bdbb ee35 7929 e63f
000004c0: 21ee cc2b b8b4 eebf 1de1 2904 a45f c63f
000004d0: fea5 45f5 b086 e0bf 42e9 bc68 e339 e4bf
000004e0: d4eb eb99 7cc4 ed3f b3d4 0bf2 4140 d3bf
000004f0: 838b 775e d526 e13f bcce 9094 65b5 d73f
00000500: 3721 e8e7 8774 d4bf 2b25 72c0 b72d c1bf
00000510: 7167 a48c fbfa e83f 3bea c674 1efc e0bf
00000520: db78 8c2b 6773 e1bf ef3f 6df4 168b d03f
00000530: 74f1 cf24 80a4 e9bf 42ba 0cdb 290c e43f
00000540: 16e5 1369 ffac ec3f b169 190c c315 dcbf
00000550: c664 610a 9839 af3f 97f1 a089 2d73 edbf
00000560: d19d 284a 7676 eabf a879 f1e0 fe03 c13f
00000570: 25b6 dfa8 f406 db3f ef5b 6779 5f67 dbbf
00000580: 8703 3dc6 7752 a13f 43a4 b068 a695 c3bf
00000590: 75b1 0902 0ae2 dbbf 66c9 e79e 0284 e33f
000005a0: aeb1 a001 c858 e4bf 2437 b925 c20d e7bf
000005b0: 18c6 6cf2 f4a8 ebbf 3db5 f30d a76b e93f
000005c0: 285b 078d 1ecb a6bf f3f8 330c aee7 eabf
000005d0: b5d5 674f 0709 c4bf adb2 6d97 83b7 ec3f
000005e0: 61d5 1dbf 5df2 ecbf f537 74c9 e680 d33f
000005f0: a3bd c335 02b4 a13f b9d9 536f de4b a13f
00000600: 54b0 48ad abf3 d03f c5e4 1a39 cb93 c7bf
00000610: 7faa d46c 8b48 d13f 614b b2ca 6328 d83f
00000620: 78f5 7fcf b156 d3bf 42da a445 840a ecbf
00000630: 6f67 2ad4 355b d9bf 33f5 3586 eb82 d53f
00000640: 06e4 5c05 9e4c d9bf 8e1a 295a ee0b d33f
00000650: beac 55c1 8034 eabf fa03 dc64 7a06 e63f
00000660: c150 214a 9b74 e33f e1bb a7c1 6176 d8bf
00000670: 4fc1 1a2c c5a3 eabf 491a 13d1 632b e3bf
00000680: 0000 0000 0000 f03f 8b73 6d56 7571 c5bf
00000690: 2c82 eab4 907a ebbf 0aed 5457 c511 e2bf
000006a0: 8b69 7a63 c191 ee3f d4e4 7c86 5bf1 e7bf
000006b0: 1755 a82b aa8b d8bf 34c1 8d1e 478d e73f
000006c0: 225e 3a17 29c9 eebf 4864 6e63 27c8 ec3f
000006d0: 5848 d9b8 f15c e1bf 3984 c631 3838 eabf
000006e0: 4e1e cc75 458e edbf 03b0 1ecd b83d ed3f
000006f0: dd9e d0ab f08d bc3f a829 51ac 1fe3 c83f
00000700: b3e9 6be8 053c e8bf 428f b1df 4fd0 edbf
00000710: 2ecd 7d8c 55dc eabf 599e d914 1597 d53f
00000720: 419a 8643 2c86 c3bf b694 33cb 5bf9 b7bf
00000730: 0f2b 4d04 802c e9bf 762c 5890 3ab8 c1bf
00000740: e73c 4b03 2342 d53f 910b 48e3 c21d e1bf
00000750: 71dd 95fa c2b8 e03f e85f d69e 9f22 e93f
00000760: 2001 4e6c c5e5 97bf 0b18 9a61 95d3 e03f
00000770: 4292 2cec ed26 e03f 47db 5f9d 4a24 e73f
00000780: 4aae 9bfa fa93 ed3f 7b0b 63ee 90bb d8bf
00000790: 9cec 85d9 ff76 cc3f 8a07 d457 244a d53f
000007a0: 79aa 75ba db6a e53f 3561 e911 247c eabf
000007b0: 575d 0388 339f ef3f 0465 03b5 6dfb ef3f
000007c0: c81a fdc1 0d44 adbf ffc5 fb13 a93b e93f
000007d0: 404f e4f2 4741 e1bf 508f b51a 9701 d23f
000007e0: 0000 0000 0000 f0bf 6232 2f70 8e8a cb3f
000007f0: 7f26 7f8f a6aa ea3f 039f 45a1 5388 e6bf
-0.12182967243340971 -0.6146669408212782 0.7749425983460394 0.15053656613946967 0.9975208008317524 0.09071797163289425 0.2678282274649186 -0.13436617754155333
0.6992501466984866 -0.9794453759490148 -0.6656406389966455 -0.6115198989151337 0.9086463668517814 0.012796850689974963 -0.08347539350418104 -0.1081731763548753
-0.6624990251815189 -0.6806599436408443 -0.36360069713354615 0.8587038621149249 -0.1652422674129978 0.8921412703306566 -0.24080086241868937 0.1349383803693756
-0.13698818803245402 0.638671868074999 -0.7193484665518262 -0.2817323753227189 0.44412324147904947 -0.145394239040859 -0.5601892870536692 0.7152396134347336
0.31873661701901623 -0.09257050343816199 -0.3888506274854788 0.5745353397712137 0.5867055446229378 -0.05901535537309455 0.1463919258114812 0.32518895275867676
0.12902722576419864 0.25680260202395716 0.800641627339065 0.45235888871974783 0.7189082585702495 0.6228272645777206 -0.97948579628041 -0.7444138648591108
-0.7070455372377608 0.2405470615378017 0.8118488883078494 -0.23314124933421282 -0.4319842186124262 0.6642933566594621 -0.10244021984102819 -0.8582964227916071
0.26839231308048606 -1.0 -0.8279012743118125 0.6072472981993406 -0.9683876103817491 -0.7529797499237962 0.24377689903616337 -0.2320813385549845
-0.309497183530159 0.6372774506628598 0.1347986467848467 -0.265780492118553 0.6249134456971343 -0.3281499549633971 0.7424844248431453 -0.3304017170587902
-0.21368128401517095 -0.3733493935274291 0.5076624950098452 -0.4469497962414006 0.5052440424082069 -0.8436526634332709 0.7686281758903164 -0.6663203868107664
-0.02714543802907382 0.7129644400688655 0.9429916518222039 -0.08876000092435689 -0.1259215635081031 -0.17263854439089482 -0.37609292874576433 0.16518601367904676
0.10352225031645185 -0.4681446048748128 -0.8718141977773515 0.9754003259971559 -0.4714583768700242 -0.7696989933715216 0.8441566130213094 1.0
0.7065462336552538 0.14208790479635675 -0.6926407046929677 -0.4486041299761217 -0.2539858056020207 -0.44707343475365124 0.717033557113837 0.6920518373599338
-0.583401823588233 -0.7301059050108396 0.37459274363262 0.9261474935891537 0.515474219429315 -0.4286100238142824 -0.21251150757704143 0.9159876886325689
0.0728218612254797 -0.963361913616276 0.7741649489775693 0.49116493786110277 -0.6414798968103489 -0.1246949483234357 0.7973256363963662 -0.5731989304990284
0.5238733371866389 -0.30255639040548143 -0.03194983839054204 0.6753461574923744 -0.8656787393512158 -0.6304850306217715 -0.7717831634930251 -0.18112694215084507
-0.0017790139027297968 -0.5700199820040855 0.7616618291947432 -0.6931401632398042 0.4966631993841806 -0.9998198483822243 0.6359565497614977 -0.2234617018567024
0.9437956948387513 -0.8212948410750303 -0.8532545945713652 0.7425290415992221 0.710544491022578 -0.43116490891240566 0.7960265595165106 -0.1765852437812465
0.6729638380294777 0.7517068756015327 0.9647909049436502 0.4069686862229104 0.5199723637064332 0.4067237383255643 0.37167107899692947 0.6925626805658492
-0.9595604758719142 0.17479372218418457 -0.5164418020696642 -0.6320664449370172 0.9302351957588777 -0.30079697263074506 0.5359904141481454 0.3704465819202871
-0.31961248061317654 -0.13420769593020884 0.7806375262182269 -0.5307762413788802 -0.5453372812806053 0.2584893595676467 -0.8013306349744611 0.6264848020853793
0.8961178829478367 -0.43882824117249714 0.0609862816497269 -0.9203097999630242 -0.8269607017909327 0.13293443664129012 0.422299542346851 -0.42818438392481445
0.03383230490590621 -0.1530044566327736 -0.4356713313961998 0.6098645309087203 -0.635837557963489 -0.7204294907366813 -0.8643746123181613 0.7943911812305157
-0.044518427577420916 -0.8407812345829185 -0.15652552964426794 0.8974016149127998 -0.9045857174630038 0.3047425238918316 0.03457648187929443 0.033781958665645324
0.264872473929022 -0.18419781006176641 0.2700527727890076 0.37746519846512255 -0.30216641677528555 -0.8762837753518584 -0.3961920329980932 0.33611572367211123
-0.3953013470050454 0.2976032143091424 -0.8189090515201298 0.6882907838736394 0.6079842040876643 -0.38222545539514213 -0.8324914800087216 -0.5990466197479886
1.0 -0.16752497406096398 -0.8587115796581819 -0.5646692949007115 0.9552924101765695 -0.7482125879970689 -0.3835244585364576 0.7359958264114881
-0.9620557264015057 0.8994328443542452 -0.5425957308127733 -0.8193627330948693 -0.9236171055535551 0.9137844091651462 0.11154083437633795 0.19443126596372662
-0.7573270358546352 -0.9316787117972825 -0.8393962615940944 0.3373463348020543 -0.1525321321216371 -0.09364865981077028 -0.7866821369183031 -0.1384347157294063
0.33216166803045016 -0.534882968815838 0.5225539106603901 0.7854765035908686 -0.023337445006746838 0.5258280664718326 0.5047521221900484 0.7231801103324437
0.9243140120210651 -0.38644812850923643 0.2223815738796916 0.3326502664277703 0.6692942277707764 -0.8276539182507238 0.9881837517267894 0.9994419608512151
-0.057159833841571805 0.7885327711393869 -0.5392188781720293 0.28134706123659203 -1.0 0.21516590574028088 0.8333313753766588 -0.7041414403765603
