Snake Genetic/plot/best_snakes_each_generation/snake10/W1.npy (npy, 6272 bytes, 1 tensors)

array f8 [64, 12]
000000 ac 67 f8 7c c6 50 e5 3f 5b 7d 28 48 55 74 c0 3f
       0.6661102715327067 0.12855020545337478
000010 54 c9 7b a6 cc 2e e4 bf 7d e5 02 d9 27 cd b7 3f
       -0.6307128192550331 0.09297417686584271
000020 72 99 e3 d5 49 02 da bf 00 00 00 00 00 00 f0 bf
       -0.4063896740684846 -1.0
000030 77 dc bc 50 46 78 da 3f 88 06 80 9a c7 c2 c1 3f
       0.4135909832434161 0.1387567047495859
000040 9c fb b6 86 81 cc b0 3f 9c fb d9 32 a7 ab e7 bf
       0.0656205133336542 -0.7397037499612114
000050 6a 67 9e 04 7b ad cb bf 84 7b 74 2d 72 0a e3 bf
       -0.21623170590902002 -0.5950251472275885
000060 4d 2b 67 e4 dd 08 d3 bf d4 94 0f 97 a3 b5 e2 bf
       -0.2974161844728556 -0.584672732392074
000070 e0 fb 31 6a b5 5b e9 bf 5e e1 ec 02 23 03 aa bf
       -0.7924449037672012 -0.05080518160542867
000080 ed b2 14 5a 18 6e b1 3f 20 67 ce 15 dc 02 c2 3f
       0.0680861682819331 0.14071227135428277
000090 d0 a4 44 44 55 41 e0 3f 61 e4 f2 04 f1 31 e8 3f
       0.5079752286302668 0.7560963722854802
0000a0 b4 c6 fb 26 e9 88 db 3f 49 5b 2f 07 2c 45 e6 3f
       0.4302313690851449 0.6959438457805415
0000b0 4d 92 eb 19 4b 16 94 3f b6 80 e0 fc 95 9d ea bf
       0.019616292435687566 -0.8317365588191226
0000c0 8a e4 31 3a 9b 4d e4 bf 4e c3 04 83 07 f0 e4 3f
       -0.6344734322184575 0.6543004569012767
0000d0 de ef 84 53 5f 7a e6 bf 8a 24 df 87 c3 ac e7 bf
       -0.7024380332218205 -0.7398393300765218
0000e0 31 e7 a2 67 09 07 e0 bf ca ab 46 5d 1d 7f d0 bf
       -0.5008589767596502 -0.25775846585264317
0000f0 9d 71 69 48 4b d3 e7 bf 78 7e a9 aa e5 ca ed 3f
       -0.7445427336020206 0.9310177167171352
000100 f3 18 e4 92 38 3a d9 bf 5c 54 de 94 8c 16 bd 3f
       -0.3941785273058393 0.11362532267078634
000110 01 0c a0 e4 b9 1b d9 3f 5e 41 f3 82 29 69 e6 bf
       0.392317269579678 -0.7003371770497713
000120 eb 6d 78 2d 92 94 e5 3f e0 2a 49 85 f9 8a 9e bf
       0.6743861091703683 -0.02982702137004878
000130 ea d8 90 37 8a 83 ee bf 55 7e 99 31 c2 65 e0 bf
       -0.9535571179647182 -0.5124217003576158
000140 1c f2 40 98 71 d9 e2 bf 1a 5b 9f 02 76 80 e8 3f
       -0.5890434240059821 0.7656812716694248
000150 b8 f7 f3 cc 23 42 d1 3f 81 6d 86 69 ae b5 ef 3f
       0.2696618558401229 0.9909278927838586
000160 00 00 00 00 00 00 f0 bf 85 4f e4 51 f2 de 8b bf
       -1.0 -0.01360883057035501
000170 a0 86 e1 91 48 be e0 3f 12 2a 03 2e 4d 9c d8 bf
       0.523227963374854 -0.38453988545794104
000180 23 fd 14 35 64 96 e3 3f 4a b5 12 df 69 9b ee bf
       0.612108329463727 -0.9564713818450994
000190 7a 97 4b a2 c9 16 ea 3f 64 91 c5 f3 a9 03 ec 3f
       0.815281693442315 0.8754472504775035
0001a0 57 1d b4 44 67 3f ec bf b2 47 6e 6e 37 b5 d7 3f
       -0.8827396718851713 0.3704355791497803
0001b0 84 1c 70 77 67 83 e6 3f f1 52 b8 11 b6 36 eb 3f
       0.7035405476352854 0.850428614243894
0001c0 ef c1 a4 12 e6 98 eb 3f d3 66 d6 78 5f 42 d2 bf
       0.8624143947727684 -0.2853010826162123
0001d0 76 94 95 09 75 37 de 3f a9 7c 2d 61 cb 72 ee bf
       0.47213483749357665 -0.9515129945756559
0001e0 68 4b 1a 8c 6c 49 e2 bf 3e 2d c7 e5 f2 70 a7 bf
       -0.5714628921872249 -0.04578360609920161
0001f0 91 d9 7a 48 18 32 e9 bf 15 f2 49 e1 7f 54 ef bf
       -0.7873650947210981 -0.9790648842022757
000200 d0 38 5f 0c 1f ac d7 bf f5 03 99 ca 9d 58 e4 bf
       -0.3698804493732384 -0.635817428301492
000210 9b a0 4a b9 b5 6d ca bf ab e9 93 6a 11 d4 ec 3f
       -0.20647307918011823 0.9008872109982823
000220 97 19 6e 2b 0d 23 dc bf 55 44 97 1a 6e aa dc 3f
       -0.43963937035769035 0.44790222737089397
000230 e0 e5 d0 25 c4 bc d8 bf 08 9b c1 08 2a 2e e6 bf
       -0.3865213746354055 -0.6931352778454718
000240 8c 48 0f ee e9 ba da 3f 4c 63 3d 3d 78 bc 80 3f
       0.41765831230180406 0.008171977394953032
000250 d3 11 5d 34 91 3b e6 bf d1 92 41 d3 88 fd e7 3f
       -0.6947713873601579 0.7496990324112521
000260 27 2b 99 92 ac 81 e0 bf e6 55 35 d9 0b 72 d3 bf
       -0.5158293593643507 -0.3038358327079024
000270 4a fa 8b 5a da 30 ee 3f e7 33 97 73 95 27 c8 3f
       0.9434634941570235 0.1887080015571023
000280 71 71 76 55 60 b2 d7 3f 31 c0 b5 4b a0 a8 df 3f
       0.3702622255894062 0.4946671237330547
000290 44 1b e4 4c c7 cd e5 3f c0 62 63 3c 6e 6d 9c bf
       0.681369447877707 -0.027761194644741805
0002a0 93 b9 bb 65 0d e0 e5 bf 27 4d 16 c8 12 e3 e4 bf
       -0.6836001383760951 -0.6527189166976414
0002b0 e5 2b a2 4d ee d8 d6 3f cc fb 1a 1a 77 e5 cd 3f
       0.35699040967364076 0.23356522345235786
0002c0 80 20 68 15 27 a8 35 bf 3c a7 fd 55 17 37 e9 3f
       -0.0003304572504991901 0.7879749946125467
0002d0 00 00 00 00 00 00 f0 3f d4 c7 51 cd 60 9c ec bf
       1.0 -0.8940891275544751
0002e0 fb ab 4c 94 af fc ef bf b1 de 6a cb c7 43 ee 3f
       -0.9995954414820284 0.9457739804265285
0002f0 27 41 d4 e8 e5 ae e7 3f 03 75 ed 68 30 bf e2 3f
       0.7400998637622579 0.5858385133139169
000300 50 4b df 5e 4b de e1 3f 13 23 a8 43 bf 90 af bf
       0.5583855488751883 -0.06165120793236247
000310 f1 b6 95 2d 0f 5c de bf 75 19 ff 16 e5 a2 ec bf
       -0.474368853107861 -0.8948846291685145
000320 7d f1 2c c6 e7 b2 cb 3f 02 1f 46 b3 2c 25 d0 bf
       0.21639725853482253 -0.2522689581605705
000330 91 36 8a 21 6a 1e e8 3f 12 f8 32 5d 95 78 9c 3f
       0.7537127165866925 0.027803739369794363
000340 09 9b d6 94 af 43 e4 bf 81 93 3c 39 23 fb c6 3f
       -0.6332624346731289 0.1795391110873901
000350 bb eb 50 00 1a 63 ab bf c9 75 07 eb b8 dd ee 3f
       -0.05349045995577436 0.9645657148754988
000360 e4 fb e0 3d 77 12 ee bf 67 4d a4 f6 05 c7 da 3f
       -0.9397541245051539 0.41839741788972734
000370 a3 50 d2 72 e8 47 e0 bf 63 05 ec b2 a4 65 c8 3f
       -0.5087778322799931 0.19060190903114024
000380 00 00 00 00 00 00 f0 3f a2 5c 0b 6a 79 4b e3 3f
       1.0 0.6029631682566967
000390 70 4f 74 10 7a b9 d6 bf d8 81 65 d9 a5 b5 ed 3f
       -0.355070606297196 0.928423809626163
0003a0 a0 5f c9 ff 0d ce e5 bf af ee ea d0 3c e6 e1 3f
       -0.681403159697755 0.5593551712440411
0003b0 d1 73 68 36 ca bf ec bf 03 86 04 d0 b8 55 d1 3f
       -0.8984118521362864 0.27085705103135654
0003c0 c4 90 a9 f5 95 da e7 bf b8 1e e5 d6 8b ab a0 bf
       -0.7454328344433852 -0.03255879400472622
0003d0 00 00 00 00 00 00 f0 bf df cd c3 20 36 21 ef 3f
       -1.0 0.9728041305483507
0003e0 4e 5a f3 fb 5b 34 ed bf 2a 37 d5 6a dd 89 ef bf
       -0.9126415177259533 -0.9855792128161955
0003f0 96 6b 4c 13 be 98 b3 bf b7 39 00 8c de 06 d0 3f
       -0.07654941531329337 0.25041927024804117
000400 da e1 d0 b9 05 43 b2 bf 13 cc be d3 c3 52 de bf
       -0.07133518015405774 -0.4738015716386041
000410 03 69 87 b6 95 37 e1 3f 6d c4 0d 8c a8 0c e5 bf
       0.5380352559107283 -0.6577952132630692
000420 1a 16 eb 24 23 76 e0 3f d1 70 94 68 5d 92 d7 bf
       0.5144210549412407 -0.3683084031379283
000430 99 79 ec d1 01 5f e6 3f 05 46 b8 ea 4a 83 e8 3f
       0.6990975475380764 0.7660269340869382
000440 5a 20 0e 31 cc 39 ed 3f 7f 1e b1 ae 54 66 d9 bf
       0.9133053739651686 -0.39687077579262814
000450 20 35 61 14 90 d4 e1 3f fe 1d 7b ee 4b 92 d0 bf
       0.557197608760962 -0.258929236308603
000460 26 13 73 e7 08 9e e8 3f 3c e8 d0 9b 3c 0d ea 3f
       0.7692913551805745 0.81411581452199
000470 84 e3 49 f8 bf 6f df bf a0 3d 9b 6b 8b c9 ea 3f
       -0.49119567152916255 0.8371026136100461
000480 94 ea 89 49 15 89 ef bf 30 80 03 7f d6 17 cd 3f
       -0.9854837833693915 0.22728997423019015
000490 53 e5 30 5b 57 ac da bf 5c a0 28 65 95 93 ed bf
       -0.416768874219618 -0.9242655730968283
0004a0 bd 14 2c 7d 84 cd c9 bf 67 02 f3 9f 4b 6a ec bf
       -0.2015843974296895 -0.8879755138405699
0004b0 9c 5f 32 33 ad 72 dc bf e9 6c d4 8c 63 ca bc 3f
       -0.4444993019073935 0.11246320903994768
0004c0 96 f9 d1 66 c3 97 eb 3f 3f b4 b9 cc 80 08 e0 bf
       0.8622757919509236 -0.5010379789870355
0004d0 a2 3e 23 f0 70 74 ea 3f 64 d0 d3 64 88 4e d9 bf
       0.8267140093029932 -0.3954182610170902
0004e0 30 cc 9b 50 15 99 ed 3f f4 a0 91 2f 77 de e1 bf
       0.924936921538011 -0.5584064416007366
0004f0 cf cc fb e8 77 79 d3 bf 3b ac 18 60 6d 82 ea 3f
       -0.3042888427000436 0.8284212948686965
000500 68 19 9c 79 71 22 e3 3f 66 f6 06 88 d5 a0 e9 bf
       0.5979544997397115 -0.8008830696850964
000510 e6 91 c6 ab 87 6c e4 bf 37 fd f6 2e eb 33 e4 bf
       -0.6382482867234642 -0.631337730148437
000520 af a3 35 56 3d 6d dd bf 35 82 7a 2a 62 f1 a1 3f
       -0.4597924558534556 0.03504473465477923
000530 cb b5 6f 53 4a d7 de 3f cb 1e ef 01 e7 a6 de bf
       0.4818902792747763 -0.47893691243050956
000540 d0 e9 fb 78 ae 18 e2 3f 90 35 08 f6 60 b2 c9 3f
       0.565512882515856 0.20075618756565605
000550 17 d1 b2 a8 42 80 ce bf 78 4c 9a 1f 54 e5 e4 3f
       -0.2382891963694724 0.6529942147484595
000560 b0 d8 71 3d b6 55 e5 3f 7d 65 08 33 cb 23 ea 3f
       0.6667128753749889 0.81686935393661
000570 c7 97 52 cd 9f a5 ed bf 05 96 a7 e5 6e 72 ad bf
       -0.9264678011138522 -0.05751368096734314
000580 90 c5 d9 04 15 e5 b1 3f d8 a8 54 e3 e6 6a cb bf
       0.06990176552223759 -0.21419988727695372
000590 7e a2 b3 50 17 ba cc 3f 42 53 fa 6d 24 fb da bf
       0.22442904892456633 -0.42157850971243616
0005a0 2a e2 19 25 70 3e c8 3f a2 cd d2 0f e5 36 ea 3f
       0.18940545856072905 0.8192010220577013
0005b0 6c 2b a2 19 9a c5 cb 3f 1e 94 4f fe f6 37 d0 bf
       0.21696783305773282 -0.25341582140964813
0005c0 48 b3 b3 da 3e 06 e1 bf 00 00 00 00 00 00 f0 3f
       -0.532012393142943 1.0
0005d0 4a d5 d7 05 57 50 e7 3f 74 33 3e b8 42 3c d8 3f
       0.7285571207163823 0.3786780165908603
0005e0 6f fa e3 1f 8a 4d dc 3f ce ee f3 f1 69 9a a3 3f
       0.4422326384955459 0.03828745916868358
0005f0 d2 4c 11 3d 44 f9 ae 3f 83 37 01 b0 11 3c e4 bf
       0.06049550290540541 -0.6323326528160894
000600 7c 6d 49 ac 22 74 94 3f 35 a3 17 57 a3 92 bd bf
       0.019974271550706288 -0.11551876903798759
000610 ca 72 a5 47 00 e9 ec 3f 34 26 d9 f1 61 89 bd 3f
       0.9034425162641011 0.11537754206178691
000620 41 2d 77 80 e3 83 e7 3f 26 74 03 af 7c cd dc bf
       0.7348496922581164 -0.45004193392907366
000630 00 00 00 00 00 00 f0 3f cb b8 5a bd 32 5a ec bf
       1.0 -0.8860105226829317
000640 86 1a 55 85 af c3 ce bf b5 72 6a 9e 2e 99 ef 3f
       -0.24034685144780016 0.9874489873942226
000650 72 d3 ca c5 66 a9 bb 3f 0f 27 f2 b8 eb e6 a5 bf
       0.10805361107743552 -0.042777410818486065
000660 04 98 a0 a4 39 c1 d1 bf c8 d0 fc 18 ab 6c e4 3f
       -0.2774185283363979 0.6382651794470116
000670 a6 6e 85 09 95 b1 d0 3f 83 99 1e 4a 0e 0f ec bf
       0.2608387558918629 -0.8768378684660977
000680 82 aa 20 42 a1 df ef 3f ea 5e a4 3d 96 b5 da bf
       0.9960485736422273 -0.4173331834767696
000690 4a d5 d6 7b 71 5b e7 3f 4e b4 2c 7c fe 6a ee bf
       0.7299125117048473 -0.9505608010564488
0006a0 01 55 33 5f 78 89 e5 3f bd f8 93 1f 7b 34 ed bf
       0.6730310305962633 -0.912656366039094
0006b0 af 57 78 09 27 d0 ef bf 57 a7 d0 08 a3 16 da bf
       -0.9941592392885833 -0.4076316438755518
0006c0 69 be c6 fa f4 b3 d7 bf 0f 7f 2e b4 27 28 e3 3f
       -0.37035870065572013 0.5986517447636021
0006d0 00 cd 1d a1 3a 51 d2 bf 87 46 03 d8 df 52 d4 bf
       -0.286207825985187 -0.31755825133323196
0006e0 fd 12 20 c5 a8 e4 e9 bf 1e c9 d7 f4 8e 8b c4 3f
       -0.8091625070670428 0.16050898509235706
0006f0 95 3a c6 ea dc 6f e6 bf 2c 65 56 12 b7 44 c7 bf
       -0.7011551461635742 -0.18178451915154292
000700 38 65 e5 48 55 f7 cf 3f d0 8f 4a 20 64 5e d9 3f
       0.24973550853136728 0.3963861766189867
000710 48 77 6b 0b de 9f e9 bf be 05 68 2b 18 2b e1 3f
       -0.8007650588076354 0.5365105483799011
000720 bb 6d 30 f7 60 ad e0 3f 5b 49 91 f0 96 22 e8 3f
       0.521164400855404 0.754222364290665
000730 99 df b8 c4 0c 56 c3 bf ff fc 75 da 48 d2 e5 bf
       -0.15106353383611973 -0.6819195048155108
000740 0f b6 02 3b 9a 60 e9 3f 53 9d 04 68 ad 9e ee 3f
       0.7930422928381534 0.9568697959520399
000750 24 a1 b8 e1 da e7 ef 3f 63 cd e1 2c b0 15 e8 bf
       0.997052613126503 -0.7526474835016582
000760 3c e1 d6 52 78 af e8 3f 17 dd 59 fd 49 3a ea 3f
       0.7714196794468431 0.8196153591406156
000770 1f 12 9e f9 6b 74 e9 3f 30 de 6d a5 84 78 98 3f
       0.7954616427746862 0.02389724025439771
000780 ed 6f e7 1e 83 84 d3 3f f4 72 c7 2d ab 3f e9 3f
       0.3049629022405032 0.7890220541117672
000790 34 b2 bd 10 5c ff c5 3f 5c 5e 0c 64 aa 9f eb bf
       0.17185545747214948 -0.8632404283589028
0007a0 2b 36 05 d0 73 58 d3 bf 7b 15 5e 85 2a 18 d7 3f
       -0.30227370562065187 0.36084998153849995
0007b0 a3 c1 97 4e 5c 9e e4 3f c0 ad cf 34 24 30 e7 3f
       0.6443311247840494 0.7246266395063046
0007c0 ac c2 f7 89 a0 89 e0 bf 68 c4 00 35 71 57 d2 bf
       -0.5168001837428924 -0.28658704925607603
0007d0 fc 5b 4e ac a8 53 e2 3f d8 fd d7 56 f7 bf e5 3f
       0.5727122655251828 0.6796833702246046
0007e0 b8 8b db 9d 2b 46 e9 bf 8b 58 da 28 c3 34 b6 bf
       -0.7898157199054969 -0.08674258944879136
0007f0 b3 d7 28 23 91 14 e8 bf 64 5e b4 f4 3f 66 e1 3f
       -0.7525106131276885 0.5437316684137383
