Snake Genetic/plot/best_snakes_each_generation/snake56/b1.npy (npy, 640 bytes, 1 tensors)

array f8 [64, 1]
00000000: e9dc fb66 607b dfbf 16f8 f935 8fde d73f
00000010: 69de 640b 5ba7 e63f 9ab7 4983 a051 a43f
00000020: 5096 1279 f0d2 e5bf 208b fd9c f820 e83f
00000030: a5ea 7a65 4b9c b0bf 6b98 f9d2 f659 e6bf
00000040: 7a08 4158 ae38 b43f 22ff 20f1 ab9e ef3f
00000050: f089 2dfc f06d db3f 8c32 e66c 10b7 e43f
00000060: 29fb 17eb fad2 cfbf e6fb 4161 dcf2 dabf
00000070: 56fd aa1c dc55 efbf 1190 5ea1 c6a4 c0bf
00000080: eff4 4028 0feb b93f 06db 84db 596e e53f
00000090: 88d3 c5f0 cd7c e33f db1f 7658 702a ccbf
000000a0: e8e7 5ab0 ca3f d93f 720d 507f 4cbd dbbf
000000b0: 8338 7441 0163 90bf 0e42 da73 3c95 efbf
000000c0: 39db e862 2cb9 dfbf b077 3860 c8fd cd3f
000000d0: 1c8c f3a3 f1ff efbf af3d 4212 17cf e6bf
000000e0: e496 a825 7c7e c3bf 45d9 a765 cd86 a4bf
000000f0: 989d b0bf 8c7d c3bf 76a4 e625 b78b d93f
00000100: 9f14 098d 85dc eebf 64bc b5f3 6f2f d0bf
00000110: cb74 bcdd bbff c6bf 6cec f7cf cf7c debf
00000120: 3f33 62a4 0a4a b73f 39e1 dfea e1c9 db3f
00000130: e248 8725 00dc dcbf 4850 d781 5d78 d4bf
00000140: 47fa d1ec c8c3 e6bf 378e 2b08 15e5 95bf
00000150: 1aac d9f2 f277 e0bf 6325 324a 0632 e13f
00000160: acc6 38b3 d2d9 efbf c945 95eb 1b95 e9bf
00000170: cb1d e323 9ea3 b2bf be1b c09a 8134 efbf
00000180: a398 2d9b 6425 e83f befe 7f54 f6d5 c33f
00000190: 791c c488 ed68 ebbf 3222 f111 baf2 efbf
000001a0: 016a 3261 34dd d63f df89 1847 27d8 eebf
000001b0: 6553 d021 7bf2 e0bf 64f3 5dd8 faae e6bf
000001c0: 9afe 6d67 5d8b d73f 0000 0000 0000 f03f
000001d0: d553 c97a 7184 e53f 79b5 bdbf edd3 df3f
000001e0: 01d7 86bc d40f e8bf ad64 ec5f 4206 c73f
000001f0: 6c43 76a8 e996 e2bf bd58 875b 11d4 ebbf
-0.49190530831351836 0.3729589488137902 0.7079291555919102 0.03968526461254314 -0.6819994320582712 0.7540247980326491 -0.06488486506979514 -0.6984819527249447
0.07898988394393483 0.9881190976666157 0.42858528734919243 0.6473466994226142 -0.24862610320266157 -0.4210730504782404 -0.9792309341354819 -0.13002856139530697
0.10124296887166272 0.6697205817680192 0.6089849188416432 -0.22004513091474007 0.3945185396402153 -0.43342888291245807 -0.016002673740381567 -0.9869673025842205
-0.4956770864404692 0.23430733392973258 -0.9999931528258261 -0.7127795559517177 -0.1522975143317843 -0.04009096017755324 -0.1522689758287299 0.3991525526167331
-0.9644191507910768 -0.25289534377856726 -0.17967937781296536 -0.4763679057065875 0.09097353471061086 0.4341969293305002 -0.4509277693260981 -0.3198465126017749
-0.7113995194811843 -0.021381691573777863 -0.5146422141236855 0.5373565148485507 -0.9953397274423046 -0.7994517899734827 -0.07280910850669568 -0.9751594564885335
0.7545645743200747 0.15496710897422433 -0.8565585776531314 -0.998379740755871 0.35725125781905837 -0.963885916575517 -0.5295997295785183 -0.7088598466794847
0.3678811559729894 1.0 0.6724173925564353 0.4973101017447657 -0.7519324953234162 0.1798785179496795 -0.5809219637177256 -0.8696371829671744
