Snake Genetic/plot/best_snakes_each_generation/snake1/W1.npy (npy, 6272 bytes, 1 tensors)

array f8 [64, 12]
-0.9571094919798329 -0.12460193784353257 -0.275853456297797 -0.4029725796968677 0.009947823242397513 -0.6645564750745574 -0.5492626536565914 0.9139373799409463
0.09682303624383781 -0.8643405447938239 0.13139120555547934 -0.6885939374633507 0.2852697637264483 0.5544361477153767 -0.8291763432039336 -0.6569067023932929
0.8840903737636661 0.18829202452638594 0.6942294831718812 0.14739683311512497 -0.016599587808393546 -0.28625757213425995 -0.48269099105751123 0.5515831333612868
-0.09832216715843334 -0.9999170950409633 0.6833649176727161 0.8124208410418474 -0.41068223296839346 0.7041123133047267 -0.8560410999107819 0.16013557408782053
-0.1484927976344672 0.3366471730435374 -0.1790271304714135 -0.6190575622522527 0.22763488129166753 0.7444675460265562 0.9238576190704806 -0.048446314579754235
0.7529630166158141 0.8680144563711985 -0.72439199715099 0.5542087701793317 0.27166978624055726 -0.4091734787732877 0.005476234750133813 -0.675182675588786
-0.3950703674117777 0.25370419345126516 -0.7201119512773082 -0.342471010421582 0.048918008522653045 0.7346010050679079 0.7103177678129269 -0.70639932070965
-0.5255591256434595 -0.9627878078325276 0.9193908567839388 -0.6743706534842693 -0.8033449874437895 -0.06798900190583668 -0.9962726304129439 0.965500960650826
-0.39711639230155904 -0.2797691404304312 0.9047106171937569 0.3350786759763451 -0.4602009563478855 0.18491156599434855 -0.4367142691492427 0.494651497536976
-0.5338034141040147 0.944453151342276 -0.37571554467683055 -0.05754425934766716 0.4182801293368432 -0.8389747840518711 -0.8693701650825221 0.8845861048950059
-0.9214610771944738 0.6252952756410839 0.24297191523994321 0.051214597324504396 0.4885795807101527 -0.1467270197099786 -0.6641536252079177 0.7265659359285466
0.5177017156516119 0.14549601404441548 -0.6807405917830065 -0.7303793341405642 0.6180647818665104 -0.24705080643676647 -0.030418278264215504 -0.9570485384350236
-0.806501067234878 -0.9486391486269219 -0.8392140209564938 0.9488960562764939 0.9175241020119194 0.2841855279446788 0.0695793640435336 -0.7399918455274159
-0.49123789683546004 0.29539059035414894 -0.16676797375654928 -0.30753658713332377 0.537346134138688 0.037307356795110325 -0.14810525273479747 0.3287613397765339
0.4811951844687108 0.38175353574872006 -0.1553427785002346 -0.19561541647942882 0.15883530957083258 -0.7301189755033028 -0.3874006101422609 0.20505381607269024
-0.7471572094233185 0.8296941970743106 -0.9731045441256649 -0.7837588963104556 0.8217596597998524 -0.4115551247756537 0.7922662018282185 0.36858914426631184
0.335990087483546 0.7770362772811807 -0.468350157963622 -0.6598367778998091 0.10502165413819098 0.8240439117408818 0.8622021889775526 0.973582700871243
0.9570353287643913 0.9374274578858524 0.7650602013318999 -0.35502487783523384 -0.3475290218330176 0.20913867406181463 0.4212555182909059 0.3434924828187844
0.1441521992067274 -0.9504965040226132 0.05306795546866616 -0.8894513976419962 0.6206090148711989 0.4071342961386275 -0.6113454716436371 0.2128263357172191
0.570645766419706 0.8978795445438454 0.8577773864503127 0.6715371934849896 -0.40904392059384187 0.3224077794147986 -0.20752402530821157 -0.4542390710734523
-0.7508102682455764 0.5371856005626972 0.7482060705599345 0.8209111113392764 0.7436762610096639 -0.5484800754050425 -0.06235853315051143 0.6612188745556891
0.14808650251669508 -0.23793951852139195 -0.9499685164353773 -0.8041010644814794 -0.18537679334139745 0.8396146617297335 0.5738575216366799 -0.2813180869432361
-0.49054459116816096 -0.5375582858119383 -0.3390448865601672 0.8043543820987884 0.14499938666944012 -0.010539994782411855 -0.28913955565760396 0.38175133337936873
0.3703736599440246 -0.9591511098655521 0.46315156262250445 -0.44948220920760984 0.43231703906547136 -0.8724171897680582 -0.6405302223427662 0.1568141944244683
0.4145434647286186 -0.21008109247249473 0.9485347013649312 -0.8649949415728724 0.5379873925548575 -0.6379209169090849 0.8239634973224372 0.8851821872781613
0.4533226955467815 0.4373761891882886 -0.18563002460969802 0.4813962277604651 -0.14683282738506076 0.3703531157399491 -0.16003888808506717 -0.26434380638660815
-0.6230737270448965 0.5736393096857981 -0.7010559168421975 -0.4493905916475902 0.6972877222561689 0.3326561995006778 -0.33032327621662616 -0.7334888771499806
-0.42031202599605444 -0.4373186730307608 0.3435685443232315 0.698366115940779 -0.1865362283831007 -0.9158659694113636 -0.3687290174960349 0.8532118721078406
0.3771189329857809 -0.8638239315188507 0.6869296874541144 0.07193308268512277 -0.6209469617798524 0.5031936276890241 0.9085085550495677 0.22093209749725506
0.9366098337411015 0.13501680481327294 0.774667687259994 0.6815398087414684 -0.767551126296494 0.1979554934441048 0.503023532549248 0.503765405724691
-0.9188155930086177 -0.7799284294209368 0.9439135360035218 -0.8767130215193031 0.45501109995229716 -0.17584932273951792 -0.6248652651240516 0.7453223865665031
-0.8503022174940364 0.33099623513213383 -0.9477518974023602 0.17355380758539551 0.25342356171761216 0.6273085431396013 -0.8196284289665332 0.7458468836662322
00000000: 68d3 d715 a4a0 eebf f062 0ea0 e9e5 bfbf
00000010: 1868 5241 95a7 d1bf 34e6 be80 4dca d9bf
00000020: 809c f03b 865f 843f d649 d9f0 0b44 e5bf
00000030: c6d0 cb45 8f93 e1bf 7a06 ae9a f93e ed3f
00000040: 40ad 2afe 64c9 b83f aae1 8f80 ada8 ebbf
00000050: c8e0 6b51 6dd1 c03f 7220 3427 f608 e6bf
00000060: 1889 6f1c dc41 d23f 700c 45e0 f0bd e13f
00000070: 44b0 95d3 9c88 eabf 3ead 6934 6105 e5bf
00000080: 62bf 40e5 774a ec3f 601f b8fb f319 c83f
00000090: 008d c4bf 2037 e63f 20b8 e140 e6dd c23f
000000a0: 4078 0e7b 7bff 90bf f022 a347 0b52 d2bf
000000b0: 1c9d 2ac1 68e4 debf 5cfb d9ab 91a6 e13f
000000c0: 40d5 6a3c a42b b9bf 3e31 bd22 52ff efbf
000000d0: e46a 941a 20de e53f 32a2 dbfd 59ff e93f
000000e0: b070 e921 9e48 dabf c259 cb8b 1688 e63f
000000f0: f6c1 044e b064 ebbf 6812 d18e 527f c43f
00000100: e80a c4de cf01 c3bf 78d2 a095 a08b d53f
00000110: 5858 3c6b 5cea c6bf 8ae0 06ce 51cf e3bf
00000120: 88cc 49c9 2323 cd3f 04c2 639a add2 e73f
00000130: 342e 82da 3d90 ed3f e0aa 7691 f4cd a8bf
00000140: 32cc 6ee5 4518 e83f 7a39 d240 c6c6 eb3f
00000150: 90ec 2720 382e e7bf 9673 e207 14bc e13f
00000160: 70ba cdab 0963 d13f 5032 6ef5 e52f dabf
00000170: 0040 8392 3f6e 763f fe58 cfb2 189b e5bf
00000180: 1cbf e938 d548 d9bf a8cc 6e83 b03c d03f
00000190: ac3b 0638 280b e7bf 68ae 6587 0beb d5bf
000001a0: e09a 94fd c70b a93f 3c03 8cf7 d981 e73f
000001b0: 98c6 d053 ecba e63f 7eaa 8bbf d29a e6bf
000001c0: b018 185f 61d1 e0bf 881a 7460 28cf eebf
000001d0: 281c c45f a66b ed3f 521b c3c3 7194 e5bf
000001e0: 5c40 0f8c 00b5 e9bf 205a ac2b ba67 b1bf
000001f0: 6cc0 b023 77e1 efbf 680f 4845 62e5 ee3f
00000200: 4401 69df 5a6a d9bf f809 25d3 bce7 d1bf
00000210: fe1d 26ae 63f3 ec3f ccf1 b9d4 ed71 d53f
00000220: ac88 46b6 ee73 ddbf 1887 4ca4 2eab c73f
00000230: 9052 ec67 20f3 dbbf dcad 35c1 5ea8 df3f
00000240: 863c c2e5 ea14 e1bf 9ad0 b3d0 f538 ee3f
00000250: 9417 3f36 b90b d8bf 2009 f1ef 7076 adbf
00000260: 8860 0405 1ac5 da3f 827c 75a5 e1d8 eabf
00000270: c2b8 6461 e1d1 ebbf 76a4 e084 874e ec3f
00000280: 50ca e2f0 9b7c edbf aa18 e73c 6b02 e43f
00000290: 40a9 e626 b419 cf3f 0051 2cb9 cc38 aa3f
000002a0: 142f 294a e344 df3f 1805 8c73 f3c7 c2bf
000002b0: 0c36 791a bf40 e5bf 746c a634 0740 e73f
000002c0: 04d1 3930 0391 e03f 9072 0207 9d9f c23f
000002d0: fe90 587e a0c8 e5bf f8da 397b 445f e7bf
000002e0: 16a2 1dcb 2fc7 e33f d054 0c5f 5c9f cfbf
000002f0: 40b9 6119 f825 9fbf b46a a841 24a0 eebf
00000300: 10d0 7e53 dbce e9bf 6cda e17c 405b eebf
00000310: 224a cb5c d7da eabf 6e59 2043 5b5d ee3f
00000320: d2da 6d81 5b5c ed3f 7c35 217f 1830 d23f
00000330: e01f 0b05 f4cf b13f 181a fb60 03ae e7bf
00000340: 30b4 5d13 7170 dfbf 4080 47ef ade7 d23f
00000350: 00fc a628 a758 c5bf bce8 03f0 adae d3bf
00000360: 083f 1885 f031 e13f a09f ab2a f319 a33f
00000370: 784e 6ee8 1cf5 c2bf fce0 a100 6d0a d53f
00000380: 8c4a 12e3 e6cb de3f 6414 cb61 a66e d83f
00000390: 1005 aaac 45e2 c3bf 40b0 2f0c ed09 c9bf
000003a0: f843 0726 b754 c43f 0639 3f78 225d e7bf
000003b0: b4bb c0ed 2bcb d8bf d0e1 f914 343f ca3f
000003c0: 6a33 6e3c b6e8 e7bf 40af 43d8 da8c ea3f
000003d0: a27a 1324 ac23 efbf 5e47 7389 8d14 e9bf
000003e0: 0266 00ea da4b ea3f 9068 5a4e eb56 dabf
000003f0: b681 52a6 3e5a e93f 3034 12ec f696 d73f
00000400: 9868 6191 dc80 d53f e64d d72e 7bdd e83f
00000410: a4ee e1f0 72f9 ddbf e2e2 b804 621d e5bf
00000420: e035 e5f9 b2e2 ba3f d2a3 6c56 915e ea3f
00000430: a857 860b 2997 eb3f d62f 86e8 9627 ef3f
00000440: 021c c58d 08a0 ee3f b8bf 3fde 67ff ed3f
00000450: 4a22 0688 5f7b e83f fc65 e443 bab8 d6bf
00000460: 6cc1 cb5d ea3d d6bf 604f b65a 0ec5 ca3f
00000470: 046a 94b4 d9f5 da3f b039 08e5 c7fb d53f
00000480: b8a3 9e4a 9473 c23f a0a9 f7a4 776a eebf
00000490: e031 681a b92b ab3f aa1f 08c7 6276 ecbf
000004a0: bc2f cf6f 07dc e33f 60b4 bf01 7d0e da3f
000004b0: 388c e860 2490 e3bf 4005 d1b3 e43d cb3f
000004c0: a6f3 0be9 ba42 e23f aa05 f2e1 6dbb ec3f
000004d0: a4ad c18f e972 eb3f d819 8291 3b7d e53f
000004e0: c400 658d c62d dabf b000 243d 54a2 d43f
000004f0: 38a1 eab2 2590 cabf 80db b4c0 4012 ddbf
00000500: 20b4 7341 a306 e8bf 9e90 49db 9f30 e13f
00000510: a027 77db 4df1 e73f b201 0461 e744 ea3f
00000520: 5c23 7b28 32cc e73f a6e9 4b16 268d e1bf
00000530: c015 0429 75ed afbf 18de 367c b428 e53f
00000540: a0e4 a49e 7ff4 c23f c0d8 3c59 cd74 cebf
00000550: 083a ca5f 2466 eebf 440e d427 32bb e9bf
00000560: f858 6b40 6dba c7bf c2e1 2b91 1fde ea3f
00000570: e8c7 ff72 0a5d e23f 6c72 cc93 1d01 d2bf
00000580: 1801 1324 1565 dfbf f031 286f ad33 e1bf
00000590: 84b9 e952 e9b2 d5bf 5246 b066 45bd e93f
000005a0: 08b8 d703 578f c23f 80ae 1f27 fe95 85bf
000005b0: 60e1 e131 4381 d2bf ec66 0425 9d6e d83f
000005c0: 309a 30b9 33b4 d73f c46d 19ab 5db1 eebf
000005d0: 5884 a373 46a4 dd3f 8c8d 2b07 51c4 dcbf
000005e0: 548b 1216 15ab db3f 84b4 5074 d7ea ebbf
000005f0: 2efa a13c 397f e4bf c003 4dce 7c12 c43f
00000600: a4ea f14f e187 da3f 50b2 d6ee efe3 cabf
00000610: e278 2f72 655a ee3f 7059 28df 09ae ebbf
00000620: a2de 1556 3137 e13f 20e2 7120 d969 e4bf
00000630: f61f 43b2 e85d ea3f 0091 2b98 6953 ec3f
00000640: 881c fa31 3d03 dd3f 4038 27b3 f8fd db3f
00000650: a05a 6d82 b9c2 c7bf a488 a91f 32cf de3f
00000660: e08c cc07 6bcb c2bf 44c9 048e ddb3 d73f
00000670: c8ef 347f 277c c4bf 2c29 d548 02eb d0bf
00000680: fcf2 1450 38f0 e3bf da9d 59d3 405b e23f
00000690: 2425 70d1 0c6f e6bf 586a 90c1 d0c2 dcbf
000006a0: 30c3 5f57 2e50 e63f 28b1 6a3a 3d4a d53f
000006b0: 9c4f 1d3d 0424 d5bf 80d8 6aaa bd78 e7bf
000006c0: 0430 7169 64e6 dabf 1839 a675 07fd dbbf
000006d0: e45d 73eb 06fd d53f c234 93e5 0359 e63f
000006e0: 7059 364c 6be0 c7bf 3e84 4426 c64e edbf
000006f0: e0d3 ce97 4199 d7bf 3463 e8fb 824d eb3f
00000700: 0816 f872 b722 d83f fa04 ec15 72a4 ebbf
00000710: a28a c8f7 53fb e53f a010 a2dd 346a b23f
00000720: 12a4 ac29 ccde e3bf d25b cf85 291a e03f
00000730: 1a5f 8288 8012 ed3f 2096 b1c2 8047 cc3f
00000740: fef5 a02f b5f8 ed3f 98ad 8a0c 3b48 c13f
00000750: 9296 c1e3 13ca e83f 38ef ae92 2ccf e53f
00000760: ee71 2e61 c78f e8bf e8f6 3309 9b56 c93f
00000770: 705b adce c418 e03f f232 cea0 d81e e03f
00000780: 08dc 60f5 ef66 edbf 96ac 3277 2cf5 e8bf
00000790: 0861 ec28 8a34 ee3f 56e3 6c77 080e ecbf
000007a0: b42c 67e0 e61e dd3f 3851 1809 3b82 c6bf
000007b0: 4aa7 c370 e5fe e3bf 20f4 6855 aed9 e73f
000007c0: 224d fbfe ac35 ebbf 0c77 3fd5 0a2f d53f
000007d0: 2c15 82c9 fb53 eebf 7078 d6db 0237 c63f
000007e0: 183b 6775 1738 d03f da26 a95d e912 e43f
000007f0: 500f 2966 653a eabf 8270 a548 fadd e73f
