Snake Genetic/plot/best_snakes_each_generation/snake11/W2.npy (npy, 16512 bytes, 1 tensors)

array f8 [32, 64]
0.11950048841366005 0.5352181312157124 0.3578470961855711 -0.22262081433572242 -0.11780278249682531 -0.804581707746052 -0.6264549510988389 0.22374281070510801
0.7747391773854518 -0.6842937271649655 1.0 -0.5898007991469872 0.2940081972389165 -0.4483252883050741 -0.5078327562688545 1.0
0.46355939320305356 0.4790481324372635 -0.43041847545737066 0.38010301527356266 -0.45694233384332034 0.2674886830661948 -0.6328431302070257 0.7409965642762736
-0.4623477933617362 -0.7470810261635699 -0.6514953337799395 0.7343356059603426 -0.5241742611671489 -0.7384844922961498 0.46577146721059703 -0.03859923046727171
0.9377322884143666 0.6768004315852206 0.1044865772532436 -0.5289446289473377 0.27479856262131563 -0.20112129767731451 -0.045086017799400975 -1.0
-0.1956783872221926 -0.8657045811160974 0.11961021063033311 0.27589039970132423 0.3665716551707329 0.42010526089153405 0.7201491904120643 -0.3417228248596883
-0.36681435370878784 -0.3029181861514538 0.3267662736577606 0.6656338439509432 0.09083858162996848 0.9057891745067573 -0.35711377484083995 -0.3521774074937412
-0.40430133472292884 0.26881668127021424 0.9996979073167089 -0.6051278892857431 -0.6849057458612181 -0.11506078641760577 -0.042599728526350765 0.022378808259304106
-0.9484316526668093 -0.6995405173294645 -0.7089193067508371 0.03607060666973638 -0.782188635329 -0.35582394514360965 -0.011775727963947626 0.07382465820126084
0.18419030000584102 0.8993982192094467 -0.11313614783343925 -0.21753203707985713 -0.9554372218446556 -0.31079402241713033 0.5538560699141298 0.3685506761498152
0.3405883842800125 -0.49693110635041815 0.8463475514870159 -0.33065189957876273 -0.2774691909701827 -0.16279489288924873 0.618465654763251 0.2701212277038625
0.22332105252336898 0.7810635206679312 0.22646759846710857 0.8342060303450086 0.10545832029111674 -0.5578765523651933 0.4902399879256185 -0.13006460957429783
0.7633420100231648 -0.498611429601031 0.11841621569172357 -0.09258405393946606 -0.3447778843797489 0.7278125739138284 -0.23404419050185624 0.01981275836216148
-0.31543251556926793 0.3941026545801181 -0.47658200789882604 -0.3564558530011105 0.4947046997453269 -0.8398022127590832 -0.3505771509210789 1.0
0.4873640596284829 -0.3117565874554909 0.7493662868235705 0.04208089978668865 -0.27526598773599165 -0.636311814464433 0.5912631912774053 -0.21568557557373874
0.5591627173867203 0.8356377245742085 0.5099196876620269 -0.01747414244481229 -0.1046755408549578 -0.22353289091025513 -0.3740320571250343 -0.5227776183830893
0.8204138826345578 0.05253899601279854 0.22925224433780433 -0.6958174313538917 0.17503608738045082 0.00777373832661049 -0.1443775452436851 0.8097572606625465
0.38201787837899037 -0.37638764912302114 0.8606648348046139 -0.4863333355279168 0.10098923133393727 -0.6098406238223917 0.6538385188018687 -0.4024174695261537
-0.41914620249108353 -0.061463598798602324 -0.6195708689539239 0.9979450979568688 -0.7107376047297084 0.7638211991572587 0.4312885385682057 0.8155120689985631
0.4825769132220921 -0.7506456778759418 -0.24084298396897272 0.6496377545849116 0.6511862554002623 0.23355105123354372 0.572764444052986 -0.3816970305475892
0.4746044171315899 0.5149580586726643 -0.25458156019594524 0.23163136393412223 -0.7233177639455798 0.9670148703165726 0.31047116640919165 0.49123341861954833
-0.470040347334329 0.717011813280329 -0.7772900649828398 -0.6761654640462291 -0.3619590816459801 0.7211274689603675 0.5745425992130302 -0.9300422199342246
0.759133204198326 -0.3543964916779088 -0.10000549041930562 0.21332830255418087 0.9090959296002692 -0.8253271647233957 -0.8278456256306926 -0.21996693671636605
0.34803673790609796 -0.3087032216205476 0.25037626867960144 -0.08109450385168736 -0.10074438805408867 -0.9361601695315439 0.6835921717309651 -0.9683431827754363
-0.3232495076823579 0.2181618668963974 -0.7110894021395989 0.8546564595831884 0.13175664858303152 -0.43589980201294376 0.21867215012404675 -0.33624895238080904
0.09318647725746726 -0.02894448218254195 0.14950577214193553 -0.26801654765141475 -0.3230697445209772 -0.5536037485938164 -0.1468236961188807 0.9214819150906909
0.5077830873399666 -0.4757899986841127 0.33782153266523596 0.21348420082375053 -0.2190711390910221 0.11508970632588736 -0.48952166303890887 -0.032134554819774216
-0.908107766766132 -0.9590836925050263 -0.9628779881570452 0.7042289076181137 0.5299432558242587 0.7163426779826378 -0.8679360834871157 0.5472313929193111
0.3546480151789638 0.39361225569514685 0.7509512208728502 -0.6384583760231312 -0.2013692069891808 -0.40983814329694546 0.9953762583846809 0.8259898758121208
0.4788752328973737 -0.6573519268635211 -0.3143364051293258 0.4725407635901823 -0.46737184931350445 -0.05329198065328368 0.38734557631911054 0.09328577597742556
0.5559461651699892 0.15247821982161633 -0.9595273205807429 0.053958987312005685 -0.9757753456088281 -0.939638335153312 -0.6953817061937245 0.5126411077018793
-0.8301173781913465 -0.8246205578935626 -0.9078219340204472 0.5619325098401811 -0.9000323135965255 0.7868535003844745 0.23778059261572543 -0.755105937435685
00000000: fbba 9781 9597 be3f ef86 39c6 8120 e13f
00000010: 607a c581 f7e6 d63f 5f8b 7dbe d67e ccbf
00000020: 61a0 33ba 5228 bebf fa54 3723 22bf e9bf
00000030: 9a60 ec40 eb0b e4bf 7fc6 58bb 9aa3 cc3f
00000040: 5b9d b9d0 a9ca e83f d501 61f5 bbe5 e5bf
00000050: 0000 0000 0000 f03f 11b6 efec a5df e2bf
00000060: 7f69 f9c1 07d1 d23f 385d cf8c 5cb1 dcbf
00000070: 8264 007b 2a40 e0bf 0000 0000 0000 f03f
00000080: d5e2 6304 f5aa dd3f 80c9 817f b9a8 de3f
00000090: debf ebee f98b dbbf 0b80 ed98 9b53 d83f
000000a0: 59f5 000f 8b3e ddbf 4e71 74da 881e d13f
000000b0: 2699 773c 4040 e4bf 877a 406d 3eb6 e73f
000000c0: 7973 f732 1b97 ddbf 7ab5 da77 16e8 e7bf
000000d0: 319b 02be 0cd9 e4bf 9d6a 7c62 ad7f e73f
000000e0: 92c5 a319 09c6 e0bf ec7b e03a aaa1 e7bf
000000f0: b815 c520 33cf dd3f 19f1 0341 47c3 a3bf
00000100: 0093 e424 e701 ee3f 7d78 f260 59a8 e53f
00000110: e774 2ce0 a1bf ba3f 4f28 5749 1ded e0bf
00000120: 2491 dcb5 4c96 d13f 82cd 06ba 57be c9bf
00000130: 391d e9b7 8315 a7bf 0000 0000 0000 f0bf
00000140: b2a0 d348 fd0b c9bf 3783 fc17 dab3 ebbf
00000150: acc9 ec56 c69e be3f f4d7 ff34 30a8 d13f
00000160: 2b54 a6f5 e875 d73f 2707 1a2d 01e3 da3f
00000170: 32f1 a150 760b e73f 166c 4469 c9de d5bf
00000180: d97c 38e9 e279 d7bf a895 b8f5 0263 d3bf
00000190: 81ef b216 bde9 d43f 8529 dc58 df4c e53f
000001a0: 67d4 5081 3241 b73f bb79 3294 39fc ec3f
000001b0: f81e f9bb f3da d6bf 01d8 e41b 138a d6bf
000001c0: e24d 97b4 12e0 d9bf 5930 abe1 4a34 d13f
000001d0: c6c1 3977 86fd ef3f 1f27 cc29 355d e3bf
000001e0: 1b20 6a74 bfea e5bf 5935 b7aa 9f74 bdbf
000001f0: b3a5 adb1 a1cf a5bf 707f 6366 78ea 963f
00000200: e43e 5656 8d59 eebf e905 85cb a262 e6bf
00000210: 49ee bf8a 77af e6bf 909e fcb7 d877 a23f
00000220: 424f 0176 b007 e9bf d1a1 e1cb d1c5 d6bf
00000230: 6e19 ef73 df1d 88bf 09e0 9c3c 2ce6 b23f
00000240: 6cfc 6139 8c93 c73f 10ba 32c6 dec7 ec3f
00000250: a6a6 f096 7df6 bcbf 2c8d 8bfc 16d8 cbbf
00000260: 4a86 a614 f192 eebf 37ba 849c 0ce4 d3bf
00000270: e51c 5f5d 30b9 e13f 70db 3e93 5596 d73f
00000280: 1e54 f838 33cc d53f 1ef8 8820 b8cd dfbf
00000290: 11f7 d575 4715 eb3f 9a44 c395 6629 d5bf
000002a0: 2f54 3723 0ec2 d1bf 8323 758a 76d6 c4bf
000002b0: 5609 1d7c 78ca e33f a061 bc8b aa49 d13f
000002c0: 3c4f 8cc4 c895 cc3f 9dc1 abec 78fe e83f
000002d0: ca8b 82e8 e3fc cc3f 43a6 4ed8 d0b1 ea3f
000002e0: fcce bd04 51ff ba3f bba3 73ed 1fda e1bf
000002f0: f03e d58a 1760 df3f 068b 3e06 f5a5 c0bf
00000300: f5cb 1639 4c6d e83f 4616 e3e9 3fe9 dfbf
00000310: e947 b66d 8650 be3f 5415 cdab 96b3 b7bf
00000320: c4e2 7242 d710 d6bf ae7a 5298 3d4a e73f
00000330: 291b 03f8 28f5 cdbf 080d d6b4 cb49 943f
00000340: d5c2 9ddc 0b30 d4bf 9d0e 2c57 fa38 d93f
00000350: ef65 72d2 5180 debf 26e2 c635 2cd0 d6bf
00000360: fd5a a5e6 3da9 df3f 0a14 dde3 a8df eabf
00000370: b493 7b25 db6f d6bf 0000 0000 0000 f03f
00000380: 7f68 5606 f930 df3f f9c4 dbe6 d1f3 d3bf
00000390: e93a d401 cffa e73f 467b bdb0 a08b a53f
000003a0: febd c13b f59d d1bf 71dc 2598 aa5c e4bf
000003b0: 7aae bbc8 a0eb e23f 4671 a7be 959b cbbf
000003c0: c730 0a36 a9e4 e13f dd33 4b53 8bbd ea3f
000003d0: c009 c317 4351 e03f e6f0 4dd9 bde4 91bf
000003e0: 91c4 a928 04cc babf d61a 05cc b99c ccbf
000003f0: f27c 4027 24f0 d7bf 0928 c120 98ba e0bf
00000400: a131 639d d440 ea3f 6f7f 472b 64e6 aa3f
00000410: 8c94 fb35 2358 cd3f a5da f4ea 2244 e6bf
00000420: 5f9c 751f 9567 c63f bf56 16fe 5ad7 7f3f
00000430: f997 8ca1 f67a c2bf 5cd0 070f 88e9 e93f
00000440: 2201 881d fb72 d83f 3c82 e638 bc16 d8bf
00000450: a9b2 c9fa 908a eb3f 0202 c3da 1520 dfbf
00000460: 0bd3 d325 6eda b93f 74dc e27b d083 e3bf
00000470: bacf e3c1 3eec e43f cf0c bd33 35c1 d9bf
00000480: 6946 fc97 4ad3 dabf 630b 7825 2878 afbf
00000490: d4c3 7649 86d3 e3bf 5fb4 dd8e 2aef ef3f
000004a0: 433f 0bca 5cbe e6bf d7e6 cb27 3971 e83f
000004b0: a490 123e 3b9a db3f aef2 3ac4 ac18 ea3f
000004c0: 29fc 0547 8ae2 de3f aa8c ab15 4a05 e8bf
000004d0: bf13 cf61 f1d3 cebf db0c c61d d5c9 e43f
000004e0: 0490 d18e 84d6 e43f 794b 7f37 00e5 cd3f
000004f0: 429d 7019 1654 e23f 4ea9 cb61 b96d d8bf
00000500: 2f82 8734 eb5f de3f 9af1 9952 897a e03f
00000510: 0a33 cd74 104b d0bf 4597 69b6 18a6 cd3f
00000520: 3b63 984b 6b25 e7bf ea2b 582b c9f1 ee3f
00000530: 5b05 8574 c2de d33f 5316 eb4a 5e70 df3f
00000540: ba7d e61b 2415 debf 3b4f 1cc2 c2f1 e63f
00000550: a46c 136a 8fdf e8bf 486c 58c1 25a3 e5bf
00000560: 2c38 8a6c 562a d7bf 38d3 ede9 7913 e73f
00000570: eeeb 3829 a762 e23f 1689 d0e6 e7c2 edbf
00000580: 2fdd aab7 d14a e83f 65b8 649f 6eae d6bf
00000590: c877 c5b6 f599 b9bf eb04 6481 574e cb3f
000005a0: 7eea d158 5017 ed3f b298 9f83 1469 eabf
000005b0: 350e 071c b67d eabf bdf4 b267 e027 ccbf
000005c0: e73e c7e1 3b46 d63f 07ed 4128 cbc1 d3bf
000005d0: f118 6b2f 2a06 d03f e7a7 ed01 9cc2 b4bf
000005e0: e6a5 f25b 62ca b9bf e395 fe2b 06f5 edbf
000005f0: 055b acb0 fcdf e53f ce66 aad7 aafc eebf
00000600: ad67 fcb3 1eb0 d4bf 59f4 c661 baec cb3f
00000610: bd18 d78f 3ec1 e6bf b532 e780 5859 eb3f
00000620: 71eb 58e0 66dd c03f 3a9f 7e48 c8e5 dbbf
00000630: 9115 aaf2 72fd cb3f ad8c 7253 1a85 d5bf
00000640: ac11 40a8 11db b73f f9a3 7e51 9fa3 9dbf
00000650: f9d7 f450 0123 c33f 19c7 bce0 2e27 d1bf
00000660: e9db c2b8 2cad d4bf 0be9 6435 1fb7 e1bf
00000670: 30e1 8d6e 1ecb c2bf 5d70 25a4 c77c ed3f
00000680: 43c9 3251 c23f e03f 6b2d 07e5 5773 debf
00000690: 5aa2 ab34 de9e d53f 1817 6046 7353 cb3f
000006a0: 2a5b f2e8 850a ccbf 62a3 c6dc 8476 bd3f
000006b0: 9ee1 5bab 5254 dfbf 7e7e 0bbc f073 a0bf
000006c0: db21 f004 380f edbf c8f3 ad48 d0b0 eebf
000006d0: 7387 a57f e5cf eebf 69c3 e30f 0b89 e63f
000006e0: ce07 108f 4bf5 e03f 7e43 d57a 47ec e63f
000006f0: 3c0e b3e4 21c6 ebbf deda fd68 eb82 e13f
00000700: ce3c b296 8db2 d63f 0ffd 6075 f130 d93f
00000710: 0649 d1da ca07 e83f 430d 9c42 406e e4bf
00000720: 7751 3857 77c6 c9bf 8e47 87c3 c93a dabf
00000730: ff43 9f4f 1fda ef3f cb15 ee51 826e ea3f
00000740: 8f26 0a4e e4a5 de3f ceec 7ae8 0609 e5bf
00000750: 1440 fe70 161e d4bf 8b63 699d 1b3e de3f
00000760: b9d7 f79d 6be9 ddbf 82ff 1624 1649 abbf
00000770: 519d a219 45ca d83f 5549 019d 93e1 b73f
00000780: 27bc b79c 4fca e13f df39 be03 6884 c33f
00000790: d868 b0a3 72b4 eebf c422 a92b 83a0 ab3f
000007a0: a641 b437 8d39 efbf c2a4 f169 8411 eebf
000007b0: dbd6 ca22 9140 e6bf ec45 0553 8e67 e03f
000007c0: 028a e551 5290 eabf 5663 f8a6 4a63 eabf
000007d0: 82b2 a695 e00c edbf 2e54 0ae3 59fb e13f
000007e0: 7bb0 0791 10cd ecbf 449f 5c64 e72d e93f
000007f0: a63a 742e 986f ce3f 70a7 49ed d329 e8bf
