best_snakes/snake52201-33/W2.npy (npy, 16512 bytes, 1 tensors)

array f8 [32, 64]
000000 a2 cd 9f 48 cc f6 ed bf 9b 58 b9 84 ab 05 e4 bf
       -0.9363767069284459 -0.6256921379342829
000010 e9 79 3d d3 e8 18 ef 3f 89 a1 d6 df 6a f4 cd 3f
       0.9717907071861279 0.23402152948007096
000020 92 96 6e db 88 4a e8 bf bb 7c 1d 02 b4 78 ee 3f
       -0.7590984617024381 0.9522342721283147
000030 43 b3 1a 72 6a e7 d3 bf 3b 92 ad 5f 27 67 e9 3f
       -0.3109994997310432 0.7938420170508559
000040 96 02 99 d4 be 4d e7 bf 8d 7a 36 1e 90 51 d5 3f
       -0.7282404091166252 0.33310320806951027
000050 a3 e4 7a bd c5 f2 d6 bf 37 ef 12 cb 56 9f b2 3f
       -0.35856765273963215 0.07274382074222961
000060 67 3f 15 6c 38 68 d0 3f b3 48 85 a1 97 8d ec bf
       0.2563611083505663 -0.8922842173290263
000070 28 48 ae 91 49 c4 e5 3f c7 1a c0 cf 7b 9d eb bf
       0.6802108617141629 -0.8629740769982498
000080 13 25 69 fc 38 b6 e5 bf c9 5c c2 5f 3e 34 a6 3f
       -0.6784939699074662 0.043367337407454416
000090 e4 b6 dc 38 b5 cd ed 3f 59 fc 57 4b 82 75 c7 3f
       0.9313608275021719 0.18327358893290827
0000a0 69 fc 76 2f 4f 4b de 3f 46 6e c6 c1 fd bf 80 3f
       0.4733465159915285 0.008178694225356452
0000b0 40 7b d6 be f2 fc e2 bf 4e b0 c6 fe b1 7b de 3f
       -0.5933774688054214 0.4762997615860102
0000c0 1c 5c b2 0f d1 2d e6 3f a7 c1 ea 1e 8d 2b d9 3f
       0.69309285226598 0.39328315753211956
0000d0 4e 22 4c af 06 fb cf bf 55 1e 15 f6 d3 7d e0 3f
       -0.24984820899432453 0.5153598600672448
0000e0 53 f7 70 20 6e 85 c1 bf 03 65 a1 08 45 82 d6 3f
       -0.13688446601912094 0.35170102923218866
0000f0 7b 74 7b 24 e3 d3 e3 bf 84 18 87 dc fc 65 ee bf
       -0.6196151459258908 -0.9499496752912511
000100 75 0a 2b 0a a0 4f e5 bf 7d 84 9e 08 28 af d9 3f
       -0.6659698675724274 0.4013156971141781
000110 07 97 0d dc 50 d0 cb bf 10 cc 2d c2 51 06 87 3f
       -0.21729479546336725 0.011242521990174864
000120 e7 9a 42 8f 58 eb e2 3f ac 75 7c 74 ad 64 db bf
       0.591228751950294 -0.4280198705253848
000130 1d fd 25 e7 fc 1d e3 bf 8d ba 5a 66 65 68 e1 bf
       -0.597410632573801 -0.543993663702922
000140 6d 13 6d 0d c8 a1 e8 3f e5 b5 b2 0f ec 33 d4 bf
       0.7697487127521591 -0.3156690743734017
000150 a0 04 8c 4c 24 1f e3 3f 3e bc 4a df 0e 90 cf bf
       0.5975514884049922 -0.24658380415846354
000160 bc 3c 2a d5 28 ea e5 3f 3a 2b 29 db 74 ee d3 3f
       0.6848339236620613 0.31142922785209104
000170 75 0a fd 8a 8d b5 ed bf da 86 37 c4 72 06 e7 bf
       -0.9284122194879517 -0.7195371467934948
000180 a2 a4 a1 12 15 22 c9 3f 92 46 17 00 f2 9d de 3f
       0.19635260972726082 0.47839021691206896
000190 94 3e cd 44 28 d4 e9 bf a5 ac ee 83 2d a3 b5 bf
       -0.8071481078895482 -0.0845211455440898
0001a0 b0 03 e2 46 ac 93 e2 bf c8 59 5d 34 77 da d6 3f
       -0.5805264839583426 0.35708408464179486
0001b0 cc c9 0e 4b 0f 50 ea bf d9 45 a3 2e 46 a1 e1 bf
       -0.8222729173633581 -0.5509367857832174
0001c0 c6 c4 9d 7b 51 3d dc 3f 57 27 85 8c 73 f5 ef 3f
       0.4412425715627929 0.9987123245748347
0001d0 ab 33 f1 2a 4e 9b e7 3f b7 1d 03 a7 b7 dc e0 3f
       0.7377081717219104 0.5269430410343635
0001e0 1e 94 cf cd 78 47 b7 bf 1a 82 6d 97 cd 19 d1 bf
       -0.09093432449988412 -0.26719989574306313
0001f0 83 b2 90 25 14 32 ec 3f 80 63 3b fb 33 ce ef bf
       0.8811131223388461 -0.9939212710261103
000200 88 fb ac 0c 9b f4 ef bf c4 be 05 8f c5 aa d6 3f
       -0.9986090896198769 0.354173078222612
000210 71 dd e5 09 6e ec d8 bf 5a ed 79 55 d7 8f ea 3f
       -0.38943053213684836 0.8300587338884882
000220 12 49 22 55 6f 31 dc bf 7f bc 54 d4 0a fc ef bf
       -0.4405172664056788 -0.9995168826188915
000230 11 63 00 8d 97 ed cc 3f 99 52 d3 e8 b5 24 d3 3f
       0.2260007322772926 0.299115636223442
000240 ad 75 e1 49 6a 21 e3 bf 00 00 00 00 00 00 f0 3f
       -0.5978290026648004 1.0
000250 17 8f 80 88 4c e3 b3 bf 00 00 00 00 00 00 f0 3f
       -0.07768705685208165 1.0
000260 ee 29 ec 8e cb 44 e7 bf 18 34 02 e2 da 7f e7 bf
       -0.7271478454070441 -0.7343573011618245
000270 9c bb ad c7 55 ee e5 3f 64 f9 7b ad a4 f4 e0 bf
       0.6853436374639048 -0.529863680683587
000280 f4 29 7b de 17 5f cd 3f bb a4 4d 4a 0b f2 ec 3f
       0.22946451533637424 0.9045463992344119
000290 80 09 99 ad c2 9d e0 3f fd 95 8c fd 1e 0e e9 3f
       0.5192578688222937 0.7829737617618658
0002a0 e9 06 93 73 60 85 e8 bf e1 11 51 37 fd 34 da 3f
       -0.7662813432036418 0.40948419954318466
0002b0 7b fd 31 76 0f 94 e1 bf f4 b5 d0 00 42 54 c6 bf
       -0.5493237789632269 -0.174446344755253
0002c0 15 84 63 6d c6 d6 bd bf 9c 8f b1 54 0a 03 e0 3f
       -0.11655845804808991 0.5003711370632007
0002d0 89 1c fa ce f7 bd e8 bf c5 67 14 6b f3 49 e3 bf
       -0.7731894533652773 -0.6027772036934428
0002e0 07 4c 01 17 d5 46 e2 bf ce 38 38 15 50 e4 e1 bf
       -0.5711465310399725 -0.5591202177472725
0002f0 e0 60 16 c1 b7 87 d3 bf 91 84 46 53 f7 6f ec bf
       -0.3051585565203947 -0.8886677385782084
000300 b7 a4 dd 8d 6d 01 e2 3f 76 3b 38 a2 db 3e e3 3f
       0.5626743098083783 0.6014230888703043
000310 bc 09 01 3c 71 88 e1 bf c1 0d 71 a2 0d 02 e7 3f
       -0.5479055568651385 0.7190006420791449
000320 a5 90 1b 48 06 0d e6 bf bc a8 5c 48 95 0c ee 3f
       -0.6890899093964619 0.9390360272712068
000330 7c 92 21 67 ca 6d c7 bf c5 4e e3 0a 5d 65 b7 bf
       -0.18303804431629433 -0.09139043346231819
000340 fd c3 cf 5f 44 5b ed bf f7 36 4f c7 48 ff e5 3f
       -0.9173910018272405 0.6874126332056382
000350 29 19 be 44 cd 74 e5 bf f0 b0 ed 53 21 f5 91 3f
       -0.6705080359104488 0.01753665995367809
000360 96 27 cc 78 79 e7 ed bf 9a b4 f6 44 86 01 c7 bf
       -0.9345061644864809 -0.179734023736647
000370 29 db 12 7d e2 4e e0 bf 1d a2 3f eb 32 f4 e7 3f
       -0.5096294825405937 0.7485594362925131
000380 8d 91 b7 8e 67 29 d4 3f ab f5 0f 48 ab 3e d1 bf
       0.3150271314355216 -0.2694500163778126
000390 5a 90 80 85 75 fa ef bf c9 de 5a 63 25 20 df bf
       -0.9993236167397399 -0.4863370390189457
0003a0 3b 53 a1 51 ab 6c e1 3f 36 61 37 41 cb e7 d1 bf
       0.5445152849521046 -0.27977258080274525
0003b0 84 f9 ad 32 78 09 cd 3f 43 d5 bc 47 88 f5 d6 3f
       0.22685148691739354 0.35873610501888126
0003c0 19 47 8b 1b c9 20 be 3f 09 b8 e7 3d 25 42 e4 bf
       0.11768776819669959 -0.6330743989071844
0003d0 91 30 2b 54 40 47 ef 3f 3e bf 85 73 67 4a ef 3f
       0.977447666542064 0.9778325325296249
0003e0 fa b9 4e 78 07 b3 e7 bf ed b9 cc a6 0a 58 d9 3f
       -0.7406041478878358 0.39599863328012824
0003f0 aa ef 6f c6 c6 4f e6 3f a3 2e 8c f2 0f 33 e1 bf
       0.6972383380630067 -0.5374831902749587
000400 75 33 51 ba 76 ad ea bf a9 9c 6c 72 66 0a d7 3f
       -0.8336747778899808 0.36000977682346985
000410 52 99 da 05 a6 4c e0 bf a2 7f 68 4d 35 52 d4 3f
       -0.5093565096220039 0.3175175910891942
000420 0a 86 84 8a 3f b2 eb bf 95 7e c5 63 32 11 e9 3f
       -0.8655088143752334 0.7833492230092413
000430 90 55 ed f4 dc e6 eb 3f e9 44 c6 7e 39 6b c1 bf
       0.8719315322620549 -0.13608473482285113
000440 43 28 9d 57 5d 1a e0 3f 20 4a 03 ae 7a 1a d1 bf
       0.5032183371743105 -0.2672411631912457
000450 bc ce 17 3a e2 fe d7 bf 28 66 a1 c6 d2 68 e0 3f
       -0.37493186638969767 0.5127958182812948
000460 9c 1e 26 cd 6c d7 ea bf f3 8a c5 2d 4b 44 e4 bf
       -0.8387969977201979 -0.6333366292932098
000470 5b 8f 91 81 e9 71 9f bf 64 41 cd 51 17 ea ee 3f
       -0.030707977803458558 0.9660755727473256
000480 a3 98 c1 3d bb 58 e2 3f de ac fb fc 05 a7 ec bf
       0.5733314710785361 -0.8953885975910472
000490 1d d9 d4 ed 58 10 e1 bf f3 6d d2 d1 92 75 d6 bf
       -0.533245529665496 -0.35092611780575494
0004a0 f5 b3 fa e4 29 ac e0 3f eb cc 15 59 d7 1f e7 bf
       0.5210160705806844 -0.7226368656105512
0004b0 1f 9f 88 1b c7 67 d1 3f 00 f6 54 40 26 ea d3 bf
       0.2719590920337271 -0.3111663463822367
0004c0 72 f1 8c c6 78 05 dc 3f 38 23 10 fc 48 fe d0 bf
       0.43783397092536014 -0.26552033057719227
0004d0 08 87 3d a0 63 ed ef 3f f4 87 e6 af f8 72 e9 bf
       0.9977281694120572 -0.7952845988804698
0004e0 d9 d8 68 5f e6 8e df 3f b9 5d 8c c6 b1 b2 e6 3f
       0.49309691731776933 0.7093132856270393
0004f0 06 0b e7 17 63 89 de 3f ef 68 81 23 72 37 d9 3f
       0.47713544210653 0.39400914637884815
000500 b3 25 d5 c8 0d 30 ea 3f f2 bf 20 c2 e8 82 ed 3f
       0.8183659479629369 0.9222301284371481
000510 0d 4c ab 05 e6 43 e9 bf 88 d0 a3 c1 3d 6c e5 bf
       -0.7895383940434627 -0.6694630414990721
000520 52 8f 91 99 0b 83 d8 bf 0a d1 6c e7 7f 85 d6 bf
       -0.38299837109501766 -0.35189817047218297
000530 78 bb 3c a4 10 1b a1 3f a9 fe 52 c0 26 f2 e0 3f
       0.033409614609232585 0.5295594936687468
000540 a9 ca e5 fa ff ff ef 3f 40 7d e5 78 43 2a e0 bf
       0.9999999904960833 -0.5051591264017716
000550 e1 53 3d 61 1f 7f cc bf 39 30 1f 52 3e 13 e9 bf
       -0.2226294731905503 -0.7835990528051361
000560 de b3 9f 23 67 2c ea 3f 7d 54 1c d0 ad d7 e4 bf
       0.8179202743318645 -0.6513279976521883
000570 e0 08 ed 81 a8 75 bb 3f 12 d5 de 7b 6d d8 be bf
       0.10726407215136957 -0.12048992418461449
000580 82 68 ad c8 c0 a6 d8 3f 4e 91 5b d0 0b 5b e3 3f
       0.3851777992000579 0.6048640317426732
000590 9c ca 0e ea 66 a2 e3 bf 4c f7 68 3d b5 bc e8 bf
       -0.6135744639817236 -0.7730356406607171
0005a0 5c 47 fc 02 22 5b e6 3f 0d 09 d7 bb 5b e2 ed bf
       0.6986246164617387 -0.9338816326856275
0005b0 fd 47 31 28 e9 dc ed 3f aa b4 41 50 40 96 e3 3f
       0.9332166466722353 0.612091213942809
0005c0 7d 9c 16 d1 74 44 b1 bf d4 12 fa 9b 2f c9 e7 bf
       -0.06745081047721331 -0.7433088346884582
0005d0 54 e1 70 0f ce 3f eb bf 13 66 c1 ef 9b 03 e9 bf
       -0.8515386869030785 -0.7816905672763731
0005e0 03 17 36 1d 30 bc d5 3f 87 c0 09 43 a1 91 e8 3f
       0.3396110806719294 0.7677770909631513
0005f0 3b 59 c2 d9 89 51 ed 3f c8 0e b5 a8 dd 08 e7 bf
       0.9162034276112431 -0.7198322577537164
000600 4b 43 f2 f8 38 7b e5 3f a0 2a d2 13 a0 46 ac 3f
       0.6712918150170507 0.05522632829623331
000610 44 15 b7 a2 0a 54 d2 bf d5 32 dc 3c ac 38 da 3f
       -0.2863794888511004 0.40970903342603765
000620 cb 50 af af 48 1c e5 bf 3c 95 61 d7 ae e2 e2 bf
       -0.6597026282638806 -0.5901712614692438
000630 77 f0 cd fa 33 b1 d2 bf 8c 3a 80 d4 ae 62 e3 3f
       -0.2920656155836307 0.6057962561042856
000640 20 8e f3 e8 f5 2c ef 3f c4 3b 2e 50 86 ff ef bf
       0.9742383527595315 -0.9999419752147038
000650 0d b7 8b b4 64 2b ef 3f c3 c2 5a 1b 4c b5 c9 3f
       0.9740470434460079 0.20084525428457853
000660 fe ff ff ff ff ff ef 3f 70 c7 b0 81 3f 59 e2 bf
       0.9999999999999998 -0.5733945401209279
000670 9a 8a 69 6a 91 23 e1 bf a5 f1 61 74 f6 ce d3 bf
       -0.5355918005337401 -0.30950700154769556
000680 9c 0d c8 45 9e fd 91 bf a5 a9 de ef 08 26 b8 3f
       -0.01756903935348718 0.09433036667056756
000690 17 00 9b d5 4a ac e3 3f 60 ba ea e1 fa ea 9a bf
       0.6147817775708998 -0.026287002600549392
0006a0 db 55 d1 a6 d2 47 dd 3f e5 71 3c 07 6e f5 b9 bf
       0.45750871935646636 -0.10140121151602662
0006b0 f8 b0 27 d9 ae e9 9a 3f a5 38 23 15 3c 14 d8 3f
       0.026282054905025526 0.3762350279256544
0006c0 f2 80 6c 18 75 ea e3 bf 00 00 00 00 00 00 f0 bf
       -0.6223702885654616 -1.0
0006d0 fb a4 47 ce c3 90 e2 3f 00 00 00 00 00 00 f0 3f
       0.5801714924720324 1.0
0006e0 cd 23 3f 97 48 74 d3 3f 4f 09 82 dd 47 3d 91 3f
       0.3039723851221055 0.016835329909107796
0006f0 fa 81 13 99 d1 33 eb bf c2 a9 40 76 9d ca ab 3f
       -0.8500755300302096 0.054280205426340725
000700 d2 67 b6 8e 96 9c da bf 5f 50 f4 b7 28 25 82 3f
       -0.41580738007325835 0.008859937776414193
000710 00 00 00 00 00 00 f0 3f 2c 74 3a 49 51 d0 e8 3f
       1.0 0.7754293852082177
000720 a1 37 91 25 5b ab dd 3f a7 2e 14 59 f8 4c ca 3f
       0.46358374279668096 0.20547394132187444
000730 17 44 04 c7 64 6f ea 3f 52 30 eb 36 8b aa a8 bf
       0.8260978591007441 -0.04817614598650323
000740 fe ff ff ff ff ff ef 3f 82 83 43 dd 08 01 dc 3f
       0.9999999999999998 0.4375631485727852
000750 6f 04 f4 ee 6c c4 d7 3f 28 e9 a8 b3 4c 35 bc bf
       0.37136386237404556 -0.11018828760362409
000760 77 a5 55 36 be 52 e7 bf 5c 63 12 22 35 4f a6 3f
       -0.7288504658910558 0.04357305565753819
000770 e7 42 7a 2f 28 8e e7 bf 7c 24 31 12 3d 21 ec 3f
       -0.7361031462952184 0.879057441264322
000780 09 ca d2 c0 97 7f e3 bf 54 04 a9 db d7 fb d9 bf
       -0.6093252912599506 -0.4059962887877806
000790 8d 62 c0 0f 88 7f e6 bf fc e6 1c e1 9c d5 ef bf
       -0.7030678088804777 -0.99482578246463
0007a0 99 10 76 62 a3 53 e7 3f f2 c4 5e f0 d4 25 d5 bf
       0.7289597437925465 -0.3304340693822062
0007b0 04 0e 9c 88 8b 87 e9 3f aa 4d fd 5a 9c d2 9f bf
       0.7977960270076783 -0.031076853803211492
0007c0 06 81 74 48 3e 5d e3 bf 2a dc cf 9e 30 61 b8 bf
       -0.6051322379244375 -0.095233000538301
0007d0 13 eb 0c 2a b6 dc d5 bf d7 2c 35 f8 bb 1a e3 bf
       -0.34159616571894097 -0.5970134589964812
0007e0 09 dc 50 51 5a f5 ce 3f 00 00 00 00 00 00 f0 3f
       0.24186257334233144 1.0
0007f0 0c 5a 5a 7e a6 67 e5 3f 00 00 00 00 00 00 f0 bf
       0.668902632506446 -1.0
