Pong Genetic V2/plot/best_paddle_each_generation/paddle12/W4.npy (npy, 512 bytes, 1 tensors)

array f8 [3, 16]
000000 25 22 ff bd c4 8b 95 3f a6 18 03 f3 9e 77 e3 bf
       0.021040987106774395 -0.6083521601037958
000010 e8 15 b2 38 0c f5 ef bf eb 96 c0 a4 b7 2d e6 bf
       -0.9986630542122699 -0.6930807321375289
000020 f6 69 36 a4 b6 78 ee bf 24 be 01 62 a0 35 e1 bf
       -0.9522355277325107 -0.5377962030597172
000030 07 5f f5 40 61 4b db bf 3b d6 f9 70 f8 8a 9a bf
       -0.42647582381822285 -0.025920755286696667
000040 b9 db 66 30 98 1c e0 3f 5f 22 2d 4b 30 e8 d7 bf
       0.5034905381534066 -0.37354667035518746
000050 0f b7 aa e7 21 e9 ef bf 18 c3 1e 52 95 60 c7 3f
       -0.9972085499518658 0.18263498792432453
000060 ff a1 43 e6 a7 05 d8 bf 0b 89 80 c5 cc db df bf
       -0.3753452061341988 -0.4977905205470427
000070 91 fa dd 89 af 2a ee 3f 42 74 94 9b 41 b1 e8 bf
       0.9427106564251791 -0.7716377295179273
000080 cf 39 ce 47 83 25 e7 bf 1b 6c 9d bd 31 46 df bf
       -0.7233292009785205 -0.4886593200405415
000090 66 fb bb 2e b6 d5 b9 bf 6d 11 1c 1e 8f 07 ca bf
       -0.10091723099683989 -0.2033556839961749
0000a0 dc 39 b5 34 74 2c e2 bf 4d 30 9d c8 ff fc d0 3f
       -0.5679265050364921 0.2654418429490349
0000b0 0b 3f 83 d5 b0 c6 ab 3f 83 2a 60 76 00 ee e5 3f
       0.05425026518207517 0.6853029548668278
0000c0 6a 9c b0 fd 49 3c c4 bf c9 d1 70 53 74 89 eb bf
       -0.15808987509919642 -0.8605291013432687
0000d0 0c 8b 6e fc ad ce d7 bf ec 10 c5 e3 de 14 d2 bf
       -0.371989723697127 -0.2825238441767073
0000e0 ad 26 cc 82 e9 45 e6 3f b4 55 be 58 b4 5e e1 3f
       0.6960341982496253 0.5428106053611175
0000f0 de c2 80 a4 ae 4d e4 3f 60 8f 19 63 a2 c0 c4 bf
       0.6344826901386929 -0.16212873305186815
000100 3a da 86 9b 4b 2e e0 3f 8e a8 79 f8 9a 0e ef 3f
       0.5056512868530441 0.9705328801185418
000110 af ac 6e 67 1a ea e7 3f 6d 1e 68 b6 15 82 9b 3f
       0.747327043548827 0.026863421686384493
000120 62 60 6a 4e a4 ff e8 bf 63 03 40 47 b1 0e df bf
       -0.7812062770417578 -0.48527175863278255
000130 05 f0 1b 22 32 65 de 3f 73 7c 1d ad 94 54 ed 3f
       0.4749265034768089 0.9165748006015647
000140 bb f4 d1 7a 76 e7 ef bf 7a e7 71 f4 19 c9 e3 3f
       -0.997004737742507 0.6182985090556337
000150 12 fe 37 5e b3 aa a5 bf 01 12 0f fe 9b fc ef 3f
       -0.04231796765452257 0.9995861017310405
000160 4c 6e ce 46 bb 2a d7 bf 97 53 6a 66 2c 35 ec bf
       -0.36198312678036326 -0.8814908981608934
000170 12 2e ca cc 8d 6b e3 bf 51 c9 bf 04 3c d1 bb bf
       -0.6068791389274699 -0.1086614142985003
