Pong Genetic V2/plot/best_paddle_each_generation/paddle29/W1.npy (npy, 3200 bytes, 1 tensors)

array f8 [64, 6]
0	0xbfe510a8120c73ec	-0.658283267260797
1	0xbfe99aabe6038442	-0.8001307957130239
2	0x3fe75673abf8cbc7	0.7293032034707431
3	0x3fea17c288e52c2a	0.8154003785833812
4	0x3fdc85caabe1bcf4	0.4456659964116192
5	0x3fe30fc12726f25a	0.5956731571855685
6	0x3ff0000000000000	1.0
7	0xbff0000000000000	-1.0
8	0xbfcbe21c55e0393c	-0.21783785050542714
9	0x3fe4a5bd4ab94d9f	0.6452318629693997
10	0xbfda43c89a576873	-0.41038718292623527
11	0x3ff0000000000000	1.0
12	0xbfebdd841813e178	-0.8707905264155178
13	0xbfd1870fc0915939	-0.2738685017151457
14	0x3fb7465828f072b4	0.09091711997502722
15	0x3fe2f06901c499e0	0.5918469461947176
16	0xbfc891205d3bb59c	-0.19192890694050113
17	0x3fe55a1152114493	0.667244587219232
18	0xbf724a6bdb6ba533	-0.00446550494846436
19	0xbfd1320b6815e43a	-0.2686794773540587
20	0xbfef29eae07b8168	-0.9738668808386537
21	0xbfd3903835d7287b	-0.30567746408326685
22	0xbfca7e80beb8ec40	-0.2069855624448298
23	0xbfeade16a6789227	-0.839610409868844
24	0xbfe1ba1c8e139111	-0.5539686942034071
25	0x3fd4386fd76fa83d	0.3159446338528403
26	0x3fdd3dd118f03915	0.4568979972399501
27	0x3fe0b4fa80d5b35e	0.5220921055130068
28	0x3fefc49be54ec800	0.9927501181284697
29	0x3fe1d3bd8e7d7745	0.5570972235688961
30	0xbfe2a24ed24517ca	-0.5823129755815384
31	0xbfc39e37e948f151	-0.15326594248643713
32	0xbfdbe622b07ca0c8	-0.4359213565353568
33	0xbfe61c9dfdf0a2d1	-0.690993305183918
34	0x3fced2e10a9231d6	0.24081051841893836
35	0x3fea645fafd53376	0.824752658294172
36	0x3fe7534e006e30fa	0.7289190300375872
37	0xbfda963f33b31dcc	-0.41542034195705635
38	0x3fb4f5de1c97865a	0.08187664220852167
39	0xbfedb5ace58abf94	-0.9284271701089772
40	0xbfe86000fcd70dbc	-0.7617192209512988
41	0x3feca1efb1947fbd	0.8947676151619742
42	0xbf85d505a4f97c01	-0.010660213563083333
43	0xbfcfc808fba0af2f	-0.24829208647258258
44	0x3fdc687a4a97e0b5	0.443876812787049
45	0xbff0000000000000	-1.0
46	0x3fea1993acfef05b	0.8156221751046461
47	0x3fe0f366144ed4b6	0.52971176115411
48	0xbfe7dfbc8c7c0658	-0.7460615867459621
49	0xbff0000000000000	-1.0
50	0x3fcae248f3d7ceaa	0.21003066927334163
51	0x3fe172270c6cf3d4	0.5451846354186451
52	0x3fdbf719f07c176c	0.43695686802708766
53	0x3fd50b86c233a35b	0.3288285156727874
54	0xbfeff5471d0ce539	-0.9986911361112681
55	0x3fe983c92033c78a	0.7973371151876887
56	0x3fa893ce9e26eb7c	0.04800267868582517
57	0x3fbd3a21a89e82f9	0.11416826597861619
58	0xbfefc80717d5e671	-0.9931674447572744
59	0x3fdf31738ce2ec7f	0.48739327200355115
60	0xbfee3a6d07f1f299	-0.944632068174161
61	0xbfd3608603a3dd74	-0.3027663264797049
62	0x3fd93767c82e0515	0.39400667713933163
63	0x3fd53553c3a1aa2a	0.33137983421935024
64	0x3fd7452d8aa07add	0.36359728372364747
65	0x3fdef99519fb9f0f	0.48398330247299354
66	0xbfdf1f715f44319a	-0.4862941198669205
67	0x3fe749f1ac247984	0.7277763712079808
68	0xbfd9e3849cc33b76	-0.4045115977177639
69	0x3fece177dcf6a52a	0.9025229755108388
70	0x3ff0000000000000	1.0
71	0x3feb1b502665241b	0.8470841169265698
72	0xbf86dd4482a54dc1	-0.01116422198962297
73	0xbfdd3dc3a6bc7f95	-0.45689479143947526
74	0xbff0000000000000	-1.0
75	0x3fe7140bd859e63e	0.7211970544441966
76	0x3fc0b602f3c8a7e8	0.13055455115801284
77	0xbfe6d42809d52b40	-0.7133979980511427
78	0xbfc2ad77008e180d	-0.14591872717954893
79	0x3fe09a77d86ceeae	0.5188559748707655
80	0xbfb9b23dc0565038	-0.10037599511844142
81	0x3fcb1a6d3ec07677	0.21174398006489856
82	0x3fe64f7870d241a8	0.6972009852925583
83	0x3fdea396b701854f	0.4787346636931788
84	0xbfe9a043599d52f7	-0.8008133650097012
85	0x3fc652fecffbaf65	0.17440781741549496
86	0xbfcd83aac4316d66	-0.23058065967311875
87	0xbfe0a1e508461aa8	-0.5197625314329644
88	0xbfec4f0d6c9fc744	-0.8846499558987735
89	0xbfeac7f26f9b848b	-0.8369075946649372
90	0xbfdb445ca020f502	-0.4260474742657864
91	0x3fc73faee59c9e86	0.18163095675958035
92	0xbfedb4f9c49fa575	-0.9283417549424217
93	0x3fea28366d386421	0.8174087651451637
94	0x3fcf3033457eab3f	0.24365845578480536
95	0xbfda6363f68f3d04	-0.41231631353453246
96	0x3fcb55df672df0c1	0.2135581258588726
97	0xbfdae62a524e70ed	-0.4202981761716405
98	0xbfe28f4265d56e9d	-0.5799877156200243
99	0xbfdcc1e3de177e61	-0.4493341130127871
100	0xbf8bbd4cf1459308	-0.013544655907659756
101	0x3fe156e28271e52a	0.5418560550453198
102	0x3fb526184b0f8818	0.0826125319722738
103	0x3fe1b18fb2e3f020	0.5529249662354268
104	0x3feff7379fba37ae	0.9989278907466905
105	0xbfbfd78b0bd909d0	-0.12438267745259357
106	0x3fccb892d249eaf4	0.22438273685460042
107	0x3fde9263b46f4334	0.47768490429466515
108	0x3fecf2354a2f8cc0	0.9045664261760962
109	0xbfe5d47900777aa3	-0.6821866044154671
110	0x3fee88ee61c48697	0.9542152318501448
111	0x3fe7684ce7403817	0.7314819828623084
112	0x3fe6c49ac9861410	0.7114995895395868
113	0x3fe987c92424cba2	0.7978254037792463
114	0x3fd29149192dd1d2	0.29011752566227955
115	0x3fde027bc17a79d4	0.4689015759885511
116	0x3fe44be8ee12a911	0.634266343103521
117	0x3fe9d69712f90982	0.807445084625485
118	0xbfd0284a67163c31	-0.2524591452319696
119	0x3fe296809fa969e5	0.5808718794244753
120	0x3fec12a2fd55a74b	0.8772749851170628
121	0xbff0000000000000	-1.0
122	0xbfdab1f6451b5b55	-0.41711193798748997
123	0x3fd5a8faad50e1d6	0.3384386723078284
124	0xbfdb2de73743aa28	-0.4246767081919267
125	0x3fd8622efebc0caa	0.3809926498071926
126	0xbfe02d9533a44771	-0.5055643089892624
127	0x3fd8b1c560ac9446	0.3858502811511396
128	0xbfcc4a7f7b3f9486	-0.22102349775301294
129	0xbfeffae6a85de6f9	-0.9993775642790005
130	0xbf9211719af49090	-0.017644667704317885
131	0xbfe22768d294f732	-0.5673107254913019
132	0x3fc573fffdeacf22	0.16760253809263143
133	0x3fdcd85f555efbb0	0.4507063230229802
134	0xbfef566e731cd40e	-0.9793007133763483
135	0x3fe39e0f16c33412	0.613044304330858
136	0xbfd3386ddd156602	-0.30031916227525823
137	0x3fe84ff2dd2c182b	0.7597593612451922
138	0xbfd5d27c09bdef64	-0.3409719557891917
139	0xbfbac0cc05dafcb7	-0.10450434821085507
140	0xbfe52f86a8f1d19e	-0.6620515155505478
141	0xbfb701ac95c44659	-0.08986929565824066
142	0xbff0000000000000	-1.0
143	0xbfef382d75e94f27	-0.9756076147991494
144	0xbfdb11ec32dc95a8	-0.4229689118095288
145	0x3ff0000000000000	1.0
146	0xbff0000000000000	-1.0
147	0x3fe00c3e431374e0	0.5014945325925986
148	0x3fdacd24b0cdc268	0.4187709547614191
149	0xbfca1b9d5cfce375	-0.20396773376867441
150	0xbfe7b3c92955575a	-0.740696507195689
151	0x3f8a563223742720	0.012859718043290835
152	0xbfd0557f79d8742a	-0.25521838091828164
153	0xbfe59098fd6cc2ad	-0.6739010762886061
154	0xbfe81b1975738319	-0.7533080381363987
155	0x3fc6fbf262d9c35a	0.1795638067883612
156	0x3fe44e29e49ab5ff	0.6345414605072505
157	0xbfc5f26a52e2d727	-0.1714604286877883
158	0xbfee9f8c6ca346fe	-0.9569761392433234
159	0x3fb5689c9b1b5b2c	0.08362749850071499
160	0x3fdacbe8023618d7	0.41869545188855056
161	0x3fe55f58c14cfc94	0.6678890014080872
162	0xbfda45bd4c2583fe	-0.4105065578096968
163	0xbfeef3e67a1847ed	-0.9672729859032622
164	0xbfe7215ecaaf0bd5	-0.7228235205333201
165	0xbfe1bc274f1b2455	-0.5542179627456202
166	0x3fdda48a36bfad35	0.4631677183776504
167	0xbfe2d1290b874ec1	-0.5880322671095756
168	0x3fee6185b3166caf	0.9494045732311828
169	0xbfed2037b604c493	-0.9101828150798091
170	0x3fb737b89c275062	0.09069398701041245
171	0x3fef12a73b44ee07	0.971027007828014
172	0x3fd142b3ba5b8804	0.26969617079714703
173	0xbfda2de32cf09fd3	-0.4090507449022855
174	0xbfeb4a68a0962a0d	-0.8528330933052658
175	0x3fd9abeeaf90c3e0	0.40111891884867923
176	0xbff0000000000000	-1.0
177	0xbfedaf61f8f4bb18	-0.9276590216084939
178	0xbfe0c2ae4b4b5b6c	-0.5237647505372087
179	0xbfe32b169f308dab	-0.5990098103688316
180	0x3f9c88b57e8333be	0.02786525330229827
181	0x3fbb7961a803e10c	0.10732088424618186
182	0xbfe8bc930970c3db	-0.773019331396536
183	0x3fd68f9e4e21d88d	0.35251577024553954
184	0x3fb0509038302ee0	0.06372929927618598
185	0x3feda0869f74f21c	0.9258454431906702
186	0x3faeefe2e97d5368	0.06042393779958993
187	0x3fe12e0b63eef400	0.5368706657242228
188	0x3fdb5cdd5ef4c9c1	0.4275430133158374
189	0xbfe91988b4df7930	-0.7843669445681254
190	0xbfe218c869c02875	-0.565525251907515
191	0xbfe02c8c0c3b7b34	-0.5054378737366734
192	0xbf95efd6177d59e3	-0.021422715362257604
193	0x3fdae2fdf39c2b90	0.4201044920925421
194	0x3fe18232854d7082	0.5471432307781614
195	0x3fd15f0a314baf30	0.27142576993968515
196	0xbfd212ff2668dd06	-0.28240946532191946
197	0xbfd96a0da090ad2a	-0.39709797554197
198	0xbf9b5a9a48170ac9	-0.026712809228920862
199	0xbfe27edd535e74f2	-0.5779863956737741
200	0x3feff8fc17530139	0.9991436439086449
201	0xbff0000000000000	-1.0
202	0x3fdf3730ed79da0b	0.48774359885229107
203	0xbfe897ba81ba3bf4	-0.7685215505351821
204	0x3fea60e504906167	0.8243279542103154
205	0x3feb739cf7788ffc	0.8578629334847387
206	0xbfd2e85764934458	-0.2954309923343934
207	0xbfe788b03e864e8f	-0.7354356023010541
208	0x3fe383847d93c768	0.6098043873482597
209	0xbfe22d5c5bf7fc5f	-0.5680372043860976
210	0xbfbd10862e02357f	-0.11353338835961856
211	0x3fe3b94af297d0c2	0.616368745626936
212	0x3fd1a1b8fa4b9ba9	0.2754957622805088
213	0x3fe4ac49e8fa28e1	0.6460313368163747
214	0xbfe536c0619bcb3b	-0.6629335314195041
215	0x3feff43ed7969abf	0.9985651217183075
216	0xbf787133a00cd942	-0.005967332516595926
217	0xbfe4b49cc9541d5c	-0.6470474178503696
218	0x3fdaff29f48ff8c3	0.42182396777196746
219	0x3fcd1fe99e2f4573	0.2275363943468097
220	0x3fe8cf9e298f97c6	0.7753439723717228
221	0x3f90ecd13fc929cb	0.01652838661019888
222	0xbfd5fe1f114d264b	-0.34363533677660446
223	0xbfe30149eb43015d	-0.5939073176341868
224	0xbfe8d5964feaa8d4	-0.7760726509925697
225	0xbfde4302160cef1a	-0.47283985284205843
226	0x3fe1f1bf4e124137	0.5607601666288592
227	0xbfee3d3ea7ddbafd	-0.9449761656413497
228	0xbfe2459b2ad56577	-0.5709968411057805
229	0x3fcf3874a7138dcc	0.2439103904535912
230	0x3fbfb3728fd490a2	0.12383190165980065
231	0x3feaaa31d993f912	0.8332757234163941
232	0xbfd9fb1c7480c426	-0.4059516084408322
233	0xbfda6c054f3b66f9	-0.412843062758483
234	0xbfd5b059d5670e32	-0.338888605500162
235	0xbfd3b8b4e049e128	-0.3081485929792671
236	0x3fbe1aa15cdde3b7	0.11759384648566039
237	0xbfe5e0be0e8da187	-0.6836843761675916
238	0x3fc3dfd36dbada76	0.15526812417893482
239	0x3feac17b55ba67f8	0.8361183809640798
240	0x3fb0144f02e43ef1	0.06280988522143695
241	0xbfeb91f4bddc0ac0	-0.861566897220051
242	0xbf8bd0381dc6b784	-0.013580740364741002
243	0x3fd4e61cb024b7ab	0.3265449257040653
244	0x3fea498259755aba	0.8214732882723503
245	0x3fd2ade291d6cb36	0.29186310045331554
246	0xbfeec38ca6981aeb	-0.9613707784454538
247	0xbfc074f240187ba6	-0.128568917557428
248	0xbfd9d6abbebde47d	-0.40372747065664055
249	0x3fea49371231365b	0.8214373927418807
250	0xbff0000000000000	-1.0
251	0x3fc63a020363a3e9	0.17364525952805757
252	0xbfe9a210a85c4e74	-0.8010333336155342
253	0x3fe63b781a409886	0.6947594177952545
254	0x3fe7301a5399ac8a	0.724621928483786
255	0xbfe66d33fdb12964	-0.700830455295812
