Snake Genetic/plot/best_snakes_each_generation/snake27/W3.npy (npy, 4224 bytes, 1 tensors)

array f8 [16, 32]
000000 00 00 00 00 00 00 f0 3f 9d 40 05 a7 ad 0c e7 bf
       1.0 -0.7202976476783253
000010 5b 36 23 73 a4 db e0 bf bd 23 5d 85 7c 77 d1 3f
       -0.5268118141918409 0.2729178717023009
000020 32 8d e0 f9 c2 87 ee 3f fb 47 3a 10 f0 20 dc 3f
       0.9540724640286611 0.43951036057217124
000030 8c f3 7b 59 b8 32 e1 3f e5 a3 98 ee 2d 4b c4 bf
       0.5374414203393925 -0.1585442938824421
000040 1d 28 a8 64 40 c7 d8 3f 30 b7 12 32 b2 9e ea 3f
       0.38716134862682045 0.8318720796575914
000050 f0 fa a4 d4 c8 fa c5 3f 03 0a c4 e8 12 5e b3 bf
       0.17171583540945035 -0.07565420325048682
000060 00 00 00 00 00 00 f0 bf dd 54 e2 32 6b 0f b1 bf
       -1.0 -0.06664152138030795
000070 c3 dc 03 37 d7 f5 c8 3f 82 83 ca e0 85 ba ed 3f
       0.1950024622562748 0.9290189161730356
000080 3d 9a 79 b2 b3 97 c3 3f 80 4a fc c8 13 0f ef 3f
       0.15306707586860738 0.9705904889581944
000090 72 58 04 7b f7 45 e3 3f b9 2e 7d 1b a9 37 ed bf
       0.6022908594775471 -0.913044503869478
0000a0 25 11 ee da ee 4a e5 3f 2d 13 53 63 31 93 a0 3f
       0.6653970981574601 0.0323729928727857
0000b0 be 40 cd d3 20 51 e2 3f 6f ee a0 f4 ea 95 d6 3f
       0.5724033486131004 0.3529002560569329
0000c0 da 5c 12 b9 a2 a7 da bf 68 fe 22 3f ca 01 ea bf
       -0.4164816672650439 -0.8127185090197147
0000d0 91 67 04 0d f5 37 e5 bf 93 ad da 59 ee d4 e3 3f
       -0.6630807165376941 0.6197425608601627
0000e0 00 00 00 00 00 00 f0 bf f6 a5 1c 40 5d f8 d1 bf
       -1.0 -0.2807839513867231
0000f0 ac 56 3d fd 68 56 d2 3f 49 b0 2f 2f 4d 91 e8 3f
       0.28652405481748633 0.767736999664984
000100 03 2e ad 31 15 0f d8 bf 23 41 58 64 67 87 d6 3f
       -0.3759205803987415 0.3520143966607227
000110 6c 85 2f 34 74 8d e7 bf 9d 2c ac 53 f3 35 d3 bf
       -0.7360173243761614 -0.3001678769221117
000120 82 b7 c7 7b 43 14 70 3f 54 b1 6f d2 0c b5 e1 3f
       0.003925574882016282 0.553350840576551
000130 c5 eb 45 48 e5 15 dd 3f 28 19 a5 f7 c7 12 eb 3f
       0.45446140344546065 0.8460426174940823
000140 c9 59 17 26 6c 49 bc bf 9d 35 93 71 41 97 e3 bf
       -0.11049533777200006 -0.6122138231527746
000150 dd ad 48 e8 12 51 bd 3f fb 4c 63 71 f6 51 ea bf
       0.11451833888047909 -0.8225052084548276
000160 db b3 14 ba 86 1e e4 3f 00 00 00 00 00 00 f0 bf
       0.6287263521568279 -1.0
000170 de 7e 5a 9e 73 57 e1 bf e7 0f 28 bc 08 ee b2 3f
       -0.5419252484170689 0.0739446124426305
000180 51 83 d7 08 ce d9 ec 3f 4e 44 b5 db ba 5a d1 3f
       0.9015875027363142 0.27116271453730156
000190 1c 5d 65 86 e4 0b c5 bf 58 c4 5e 6b 3c 93 e9 bf
       -0.1644254356603846 -0.7992231461595436
0001a0 88 c2 f8 f6 f1 0e d2 3f 13 f0 93 bc 82 e6 d0 bf
       0.28216218107540003 -0.2640692559796218
0001b0 93 1f 47 86 bf c4 e9 bf 10 e6 9b e0 0a 6c e8 bf
       -0.8052671072591572 -0.7631887804884077
0001c0 05 72 fe 2d 12 7a ea 3f 16 c4 44 eb 29 7b eb 3f
       0.8274012468642132 0.8587846369829346
0001d0 80 72 2a f7 d3 e9 d0 bf 2c 61 a4 84 14 ae ef 3f
       -0.2642717279175386 0.9900000181833426
0001e0 1a df 3e 56 25 f2 ef 3f d8 d7 d8 48 dd fb e6 3f
       0.9983088192447866 0.7182451651376551
0001f0 2d a3 77 53 40 29 cb 3f e0 cb b9 7f f4 5e ca 3f
       0.21219638896516227 0.20602279888734554
000200 2f 54 6f a2 ef ff ef 3f 15 be 6a 08 75 e0 e8 bf
       0.9999921963268487 -0.7773995556253249
000210 b4 08 5c 30 c5 ff ef bf 65 ce e6 ff 5c b8 e0 bf
       -0.9999719566842686 -0.5225052831724041
000220 5f f1 db c6 d4 c6 c6 3f 2c 29 c0 e8 33 5c d0 bf
       0.17794284543914338 -0.2556276104884485
000230 1a 07 97 1c 66 f0 e2 3f 30 49 f5 83 4d b1 ad 3f
       0.5918455656430723 0.05799333797280537
000240 4b c0 78 66 a1 c9 ef bf fa 22 72 86 31 87 e0 3f
       -0.9933630944633561 0.5165031076331552
000250 13 36 3b ac db 85 ee 3f aa 52 8a 90 3e fc d9 3f
       0.9538400997059305 0.40602077594057084
000260 04 3f e7 e6 24 83 cd bf ed 2c 84 57 c6 96 d6 3f
       -0.23056470179152921 0.35295256182207774
000270 f8 fe 63 c3 e5 f1 d8 bf 36 69 96 ca 19 5e d8 3f
       -0.38976425248254953 0.38074345382632957
000280 b0 1d 73 a7 0c 89 ef bf 43 d2 a3 8b 63 59 c5 3f
       -0.9854796667577173 0.16679043119769874
000290 4d 59 13 af d5 9d ed bf 6c 60 83 6e 68 0b e9 bf
       -0.9255169314808797 -0.7826425703488105
0002a0 b8 81 f8 42 8c 28 eb bf e3 d0 e0 22 87 dd d7 3f
       -0.8486996944448526 0.37289598852227196
0002b0 e6 0e 20 31 4a 13 cb bf 43 35 69 4a d2 17 e1 bf
       -0.21152617834751836 -0.534157891591953
0002c0 7c a9 c5 45 d1 95 e2 3f 00 00 00 00 00 00 f0 3f
       0.5807882654892604 1.0
0002d0 58 11 3b 9a 41 15 e3 3f 99 82 15 ab 7a 48 ec 3f
       0.5963447582549106 0.8838475553021282
0002e0 00 00 00 00 00 00 f0 bf b9 22 f0 4f 5c d9 ac bf
       -1.0 -0.056345829732952386
0002f0 d0 df 48 5f 05 75 d9 3f 97 c5 1b be ef 4c c4 3f
       0.39776739411490514 0.1585979154838639
000300 84 21 5d a4 e4 22 e4 3f 06 60 0c 2c 9b d1 e4 3f
       0.6292594156484914 0.6505866871184487
000310 6a 49 e9 1a dd a1 a5 bf a5 b3 d9 83 a1 43 e7 3f
       -0.04225054696566384 0.7270057273104739
000320 82 9d 67 78 e5 72 de bf 3a 04 74 fd fc 65 eb 3f
       -0.47576271780277335 0.8561997366197212
000330 89 fc 9c 03 c8 30 c4 bf 5e 8e c3 67 0b bf d4 3f
       -0.15773868729045074 0.32416043408577433
000340 e1 18 a8 6b e4 78 e3 3f 40 47 b7 5a a3 d9 e3 bf
       0.6085073568981693 -0.6203171512408758
000350 ef 16 88 98 b6 57 e2 bf 41 4f e6 af 2f 1e c6 3f
       -0.5732071856625377 0.17279621209001486
000360 ee 89 1a 36 db d7 b8 bf 38 43 93 e9 49 ca e2 3f
       -0.09704370566263495 0.5871934473053448
000370 e1 9b 2c 26 44 49 e3 3f 08 46 72 26 e9 da d4 3f
       0.602693628844346 0.3258612513974133
000380 6a ca ee 15 30 bd c9 bf 88 31 8c 45 e0 14 a0 3f
       -0.2010860545247682 0.031409271707249664
000390 fd bf 82 f7 b3 11 d5 3f b4 f5 cb 5d 27 0e eb 3f
       0.32920550509425067 0.8454777557341715
0003a0 34 89 81 35 f4 05 bb 3f 99 18 9a 0a fa 0a de bf
       0.10555959993647407 -0.4694199660810994
0003b0 61 cf b0 ba 11 88 e9 bf 51 c6 48 73 db 3e 82 3f
       -0.7978600164701498 0.008908953147599126
0003c0 ef 23 b3 f3 d9 31 d7 bf ba 2c 15 f7 63 5a de 3f
       -0.3624176864510095 0.47426699761554014
0003d0 63 27 22 cb 07 cf 93 bf 00 00 00 00 00 00 f0 bf
       -0.019344445966033585 -1.0
0003e0 7f c9 c0 05 21 80 e5 3f 44 1f ca a0 1c 64 c6 3f
       0.6718907463421572 0.1749301705460714
0003f0 5a 42 6f f1 a0 20 d1 bf 57 4a 99 25 d3 7a e8 bf
       -0.2676164968261553 -0.7649932607985858
000400 a4 d3 89 f0 be 63 c6 bf 05 40 bf a9 ce be d6 bf
       -0.17491900200880395 -0.35539595200407376
000410 69 1d 8a 95 ae c9 e4 bf b2 04 f1 42 e4 6d e4 3f
       -0.6496193810170726 0.6384145076227894
000420 71 fe 03 0b 17 9c ed 3f fb 74 51 1c 21 8b e9 3f
       0.9253039565227948 0.7982335618104622
000430 05 a4 3f e4 8e 93 d9 bf f3 3f 65 f8 8c 85 ec bf
       -0.39963123598005296 -0.8913025714373347
000440 31 b2 03 a4 18 75 d4 bf 6c dc d0 1b a5 04 e5 bf
       -0.31964698807749686 -0.6568170111921865
000450 4b 17 07 d5 54 ec df bf 2b c6 15 a8 fb d4 d8 3f
       -0.4987995224331498 0.3879994527297607
000460 94 7b d3 c8 0b 84 c9 3f e7 91 ff f8 d4 12 ef bf
       0.19934222513162736 -0.9710488188980521
000470 3c 00 16 e1 29 c2 d0 bf 5e 6a f0 fa 0a d4 ec 3f
       -0.2618508051018613 0.9008841420321223
000480 1d 09 54 81 1a bb ea 3f a5 55 31 65 a4 2c d6 3f
       0.835339787096277 0.34647474176503074
000490 a1 ee 68 ce a7 3d ec 3f a5 ff 3f 32 e3 0a c0 bf
       0.8825263053363025 -0.1253322596894552
0004a0 6d c4 05 cb 79 a3 d3 bf d0 a3 c1 d9 8e 21 d4 3f
       -0.3068527681962852 0.31454821839593894
0004b0 d7 6b 1a c5 33 62 74 bf 6d a6 03 6c a8 b1 d8 3f
       -0.004976465441042208 0.3858433775736561
0004c0 dc 1a 67 cb 68 d1 e2 bf b8 31 af b7 25 3b e9 bf
       -0.5880626652441054 -0.7884701335511215
0004d0 33 10 e2 84 5f f5 ef bf 13 55 ec 9a 0d 99 bc bf
       -0.9987027736065158 -0.1117104056578067
0004e0 23 f7 62 8f a1 a4 e1 bf 41 65 43 0f 4c 03 dc bf
       -0.5513465691107949 -0.4377012394957838
0004f0 6e 0a 35 08 b7 c0 e7 3f f2 8c a9 4c 8f 89 cd 3f
       0.7422747764870345 0.23076049083019928
000500 88 37 a6 7b ce 5e e4 bf 57 9e a8 00 5d c9 e2 bf
       -0.6365730681443305 -0.5870804798950741
000510 d8 29 42 43 ed 99 d4 3f 1b 9a b3 ee de f5 df bf
       0.3218949467488108 -0.4993817645139715
000520 6c 77 12 0e a3 3b e1 bf 33 ec c7 c0 00 b8 ec 3f
       -0.5385298991056806 0.8974612965824974
000530 e2 98 6d 1c 3e 37 e6 bf 9f a9 de 8f 07 c1 b7 3f
       -0.6942434840427973 0.09278914701886841
000540 1f 79 29 28 66 cd cc bf a5 16 98 41 08 df de 3f
       -0.22501828156504985 0.48236280828164474
000550 0d 0f a8 fe 9d b9 d1 bf 37 77 57 74 dc bb e1 3f
       -0.2769541727904972 0.5541822693155386
000560 14 b0 8c ca cc fa ef bf 46 f0 b7 ba 3d d2 89 bf
       -0.9993652301832321 -0.012608034382530896
000570 cd da 2d 7a 5c 81 e7 3f 97 31 fd bb 07 20 e7 bf
       0.7345411669073997 -0.722659938016977
000580 43 2f 15 02 0f 4a d1 bf 82 06 0b 3f 0e 45 c3 3f
       -0.27014517978090086 0.15054491117739494
000590 02 3e 9e 06 71 32 d8 3f 34 58 e5 4f 6f 61 95 bf
       0.37807870527555576 -0.020879496814210266
0005a0 d6 36 77 b7 f1 1c dd bf 12 9e 21 f6 9c 71 cf bf
       -0.4548916141182934 -0.2456546975911214
0005b0 34 c3 46 62 9e 41 eb bf 00 00 00 00 00 00 f0 bf
       -0.8517600936375858 -1.0
0005c0 ac fe 64 f9 52 48 a4 3f 0c 3e 18 45 93 d1 e4 3f
       0.03961428923002805 0.6505829190736576
0005d0 f0 13 a5 96 50 1b a2 bf e4 07 84 67 7e f1 d4 3f
       -0.03536464537550177 0.3272396098037673
0005e0 39 18 1c 6b a7 cf e5 3f 03 ad b4 a4 aa 49 d8 bf
       0.6815983860003662 -0.37949625095889433
0005f0 84 5f 53 7d b5 b4 d4 bf ac 84 2c 74 44 c3 e1 bf
       -0.3235295986064488 -0.555086352255008
000600 75 26 13 58 81 e0 e5 3f 00 00 00 00 00 00 f0 3f
       0.6836554260455175 1.0
000610 77 24 48 ea 55 36 da bf 69 ab 4c 30 30 ac e2 3f
       -0.40956638220865876 0.5835190718984055
000620 ef 84 56 5e d6 62 ed 3f 7e 7f 9e 4f 21 f6 dd bf
       0.91831510949501 -0.46814759040170617
000630 00 00 00 00 00 00 f0 3f ee 8d cf dc 16 f8 e3 3f
       1.0 0.6240343392095704
000640 a4 9c 0d cb 8c d5 a5 3f 49 aa fa 8f 34 18 d4 3f
       0.04264488199879082 0.31397737560715605
000650 b4 90 dd 62 f6 9d dc bf d3 80 7e d8 a6 16 ec bf
       -0.44714126257737097 -0.877765105095046
000660 8d 5b 0e 3d 7f d4 d8 3f 8b b3 7f 84 15 97 e9 bf
       0.38796978914745567 -0.7996928775661315
000670 e8 a7 e5 65 18 56 ce 3f f6 e6 33 7e 0f 1f a1 3f
       0.23700242019123086 0.0334400979572375
000680 f8 27 27 f5 26 94 d4 3f 5b 27 65 33 46 d6 ec 3f
       0.3215424913474858 0.9011565212069671
000690 00 00 00 00 00 00 f0 bf 24 c4 70 ee 21 e1 80 bf
       -1.0 -0.00824190625107419
0006a0 e2 69 93 a9 0e 9a ca 3f 79 71 53 80 eb e2 c1 bf
       0.20782645492620505 -0.1397375465957216
0006b0 32 24 b8 e6 c0 7c bf 3f 90 ab a9 63 ad 69 eb 3f
       0.12299733765407053 0.8566500612772519
0006c0 c9 0c ba f3 4d 8a ed bf e1 cd 41 04 6e 26 ef bf
       -0.9231328735626444 -0.9734411318917716
0006d0 dc 3f 9c a8 bf bb b7 3f c2 f8 8d 3e 0f 1c d4 bf
       0.09270856729949578 -0.3142126189121762
0006e0 34 54 50 3e c0 85 de bf 48 1b 74 96 88 71 ca 3f
       -0.47691351018267203 0.20658976885189362
0006f0 ca d2 c7 9d 8f 95 db bf 1b dc 94 ee 3b 1d e5 bf
       -0.431003479082659 -0.659818616847477
000700 63 3e 0c 2b ec ad ec 3f 92 63 22 7c 47 51 d0 3f
       0.896230777814662 0.2549608909844717
000710 f8 3e bf 31 34 c0 dd 3f f7 a6 dd 66 81 1e c8 bf
       0.46485619409666823 -0.18843095324273637
000720 a6 cd f0 e7 a4 2a e5 bf 74 06 a9 b5 53 38 dc bf
       -0.6614555864420495 -0.44093792667636156
000730 6a 32 db 9e 12 3d ea bf 9c fc 26 2b 6f b1 e4 bf
       -0.8199551680241488 -0.6466594546144679
000740 3b 4d 7e 79 8a 86 d6 bf 8f 78 7c b1 64 1c 8e bf
       -0.3519617258509304 -0.01470259348530714
000750 43 5d 72 87 da d1 ec bf ac 5f a9 1a cb f1 b0 bf
       -0.9006168981021933 -0.06618947411459314
000760 6c cc c1 a3 2d fe d5 3f 40 a3 9c 39 ec 73 da 3f
       0.34363881103417415 0.41332536340864934
000770 78 d7 e6 31 f5 d5 e4 3f 7c b6 6c 59 31 99 d8 bf
       0.6511178946154663 -0.3843501446998301
000780 2c 81 4f f2 b3 b8 e8 bf ac 1e 16 f9 b9 92 e8 3f
       -0.7725467426899164 0.7679109444588526
000790 9b f4 3d e5 09 cb e2 3f bc ae a6 31 ca 14 e0 bf
       0.5872849919684485 -0.5025378198383446
0007a0 a5 3b a1 45 7d d1 d7 3f 94 ca 9f 62 4b c8 ee bf
       0.37216121482645753 -0.9619500089887247
0007b0 00 00 00 00 00 00 f0 bf 00 c5 f7 26 89 c5 e5 bf
       -1.0 -0.6803632508364501
0007c0 62 e3 24 d8 f9 c4 e4 3f af 36 0b 09 2c 4f c8 bf
       0.6490449163021419 -0.18991613809196425
0007d0 ee df b6 fd f8 1f cb 3f 7a 29 4a f2 09 ea eb 3f
       0.21191322697063647 0.8723191959591496
0007e0 3e 19 f2 f2 d2 db e2 3f f1 a8 70 87 05 dc e5 bf
       0.5893339867623479 -0.683108105212595
0007f0 bf 79 01 76 bc be c3 3f 7a 33 8c dd 2a a2 e3 bf
       0.1542583061409015 -0.6135458304503196
