Pong Genetic V2/plot/best_paddle_each_generation/paddle47/b1.npy (npy, 640 bytes, 1 tensors)

array f8 [64, 1]
0	0xbfefd5e1ee442204	-0.9948587087283731
1	0x3fd72d3dd2846c15	0.362136321624065
2	0x3fcf379a7fa153fb	0.24388438445990332
3	0xbfd9aad7450b01aa	-0.4010523008583059
4	0xbfa303ded08f4228	-0.03713890357869715
5	0x3fde9dba54d73064	0.4783769444009123
6	0x3fedccbb8abc6fef	0.931241770714676
7	0x3fe3fc435e4d972f	0.6245438424927893
8	0x3ff0000000000000	1.0
9	0x3f7fcc6900d377e0	0.0077633001030487925
10	0x3feb6cf0e2cad878	0.8570484571016683
11	0x3fe1fd7b46df2a23	0.5621925720418556
12	0xbfc1df9a5de707ac	-0.1396363218792066
13	0xbfd14e8f9afd39d4	-0.27041998038921844
14	0x3fefffe8b057eecf	0.999988884373545
15	0x3fb8b16f09246faf	0.09645742390824695
16	0xbff0000000000000	-1.0
17	0xbf658d5b6c610673	-0.002630880891076265
18	0xbfe266244ee4a393	-0.5749684849625843
19	0xbfeb66835ab52c84	-0.8562638064990016
20	0x3fb51542d74b19dd	0.08235566860376005
21	0xbfe953d070b93cd1	-0.7914812280304436
22	0xbfea8d8447525b4b	-0.8297749894144116
23	0x3fd8fc76fa6996ef	0.3904092259821103
24	0x3fcd8f8d7ed514f7	0.23094338124261757
25	0x3fc980a91bc3f3c4	0.19923890929922383
26	0x3fe5f2a3e94615f5	0.685869174588048
27	0xbfd2a0dc8aad482c	-0.2910682062403136
28	0x3fecfcd283410e69	0.905862099033084
29	0x3fc9747ff42294a8	0.19886779232652896
30	0xbfb8a1e4edc45b74	-0.0962203102575197
31	0x3febf06bdbde9842	0.8730983061148054
32	0x3fdca34ac50cedb9	0.4474665569611847
33	0xbfe83dd9c8ba0da0	-0.7575501366085753
34	0xbfb3bd24e1c49adf	-0.07710485946573041
35	0xbfe444a432a1a323	-0.6333790768522686
36	0xbfebf2e6ad499219	-0.8734010109442948
37	0x3fe38348831c271f	0.6097757874242439
38	0x3fe51c6d345fa333	0.6597200415536463
39	0x3fb0153585cb3036	0.0628236247677599
40	0x3fd8bed334546b3c	0.3866470347435784
41	0xbfe465f92ef1d426	-0.6374479214561048
42	0x3fda8a700716a69f	0.41469956104502076
43	0xbfe11a13de3c8139	-0.5344333019784592
44	0xbfec0dc8937c26bf	-0.8766825562062975
45	0xbfcf674490fd47e9	-0.2453389842945051
46	0x3fe28e3077aff83b	0.5798570954937142
47	0xbfe9f9a321c9b8a7	-0.8117232952042926
48	0x3fe260e6e346863a	0.5743288458799676
49	0x3fd4e305f9e1477f	0.32635640528052784
50	0xbfcdb5fe6fdaa7bf	-0.2321165128863054
51	0x3fd81835ca233ccf	0.37647766819004586
52	0xbfd9cac20e8e0380	-0.4030003683220045
53	0x3fdd11320435ef3a	0.45417452250670787
54	0xbfd5bf5b26261106	-0.3398044464631912
55	0xbfedc16792390916	-0.9298589569009745
56	0xbfefe3337eb8bee0	-0.9964845156700584
57	0xbfd808c7a2847109	-0.3755358779033178
58	0x3ff0000000000000	1.0
59	0xbfe0ffa6cb790682	-0.5312074636533028
60	0x3fe4903b382659b0	0.6426063629794978
61	0xbfc924568d7291a1	-0.19642145067804243
62	0x3fe6e8eba0a531e3	0.7159326684573525
63	0x3fea1d100349c644	0.8160476745817467
