Pong Genetic V2/plot/best_paddle_each_generation/paddle27/W3.npy (npy, 4224 bytes, 1 tensors)

array f8 [16, 32]
00000000: 46c2 9eea d97e dc3f 5cb7 a6a7 df64 b13f
00000010: a7db d7b9 b51e afbf 7e60 0f0d 9b7c d13f
00000020: 4360 765d 980e d33f 34ce bc0b 478f e73f
00000030: 83f4 3ff0 0283 e03f 1989 f393 b7a7 eabf
00000040: 570c 2382 eb65 cdbf 2c8b bdc6 340d d4bf
00000050: a6f3 af0e babe d13f 42c6 f373 d1df e03f
00000060: a519 f907 eac7 e93f 60a0 99aa e97e ee3f
00000070: 0000 0000 0000 f0bf 9f0f b115 ec95 d5bf
00000080: 4e5d 2ae3 5086 e3bf 3ccc a90c 0d64 ee3f
00000090: 7544 5bd5 d0c7 c13f 7d79 21d5 802d d53f
000000a0: 7451 cb93 b5cb ed3f c48d 6141 ca75 cebf
000000b0: bee6 d42a 5126 ec3f f817 ae00 aaa1 d03f
000000c0: 5090 609e f7dd cc3f a13e 7b79 4501 e3bf
000000d0: 4b15 1102 d2fe ef3f 837a 0d5d a52b e33f
000000e0: 2a07 4af4 42f9 d63f 52c6 3022 b83d c93f
000000f0: 6026 eb35 0b37 963f b21c 71b8 8b0a dcbf
00000100: 64f6 506e 0188 e53f f076 bfdc fcde ea3f
00000110: 89e1 09af defc ea3f e3a6 2b9f f322 e9bf
00000120: e177 c3cc 16f6 e33f a300 572e ab86 c03f
00000130: 20ab 2838 e3ad e83f 95ae c54e 36ff eb3f
00000140: 63e8 4fc1 d78b d63f 1964 788e d4c0 efbf
00000150: 11ec 3753 2c31 e63f 3f41 0a14 d7c4 e43f
00000160: bd30 9901 5bb8 db3f bb2c 992b 7bc7 e33f
00000170: 332d 2417 01a7 c03f f85b ebb5 98c2 eebf
00000180: b4ac ba3f 8d97 933f f094 ac6a 1860 d73f
00000190: e9a9 4769 e0b0 b1bf 6828 a7d0 40c1 ea3f
000001a0: 92bb e4d3 69fb ac3f 2693 0568 fedb cdbf
000001b0: 6355 d6f0 df62 d33f 494b c679 0a47 cabf
000001c0: e1eb 7ff2 ca34 ea3f 3cba 35fa a240 bdbf
000001d0: f9cb e2f2 7f50 c5bf 2989 de52 9117 d03f
000001e0: 8749 d74a 67d9 e0bf 7dc8 19ef 58d3 c7bf
000001f0: cdc6 f8e4 5b5c debf ea51 6714 d033 bfbf
00000200: bcd1 c700 3631 713f 9c9a 4c83 e475 b2bf
00000210: 0000 0000 0000 f0bf 376a 990c 7a45 e4bf
00000220: 7a24 c537 e2be de3f de6e 5487 6c85 e0bf
00000230: e44f 9d2b 4c9b e3bf af86 e044 fe5f e5bf
00000240: c7a7 e439 e0bd d93f cd0a 2bcc e712 d13f
00000250: fc04 8153 d92e dabf f853 140e b31a e1bf
00000260: 1a10 1ef6 25b0 963f 295c 9c8a 6e35 ebbf
00000270: db15 0e83 9350 e63f a6e4 a953 1c40 b43f
00000280: 2ac8 acc4 1252 e8bf 5cda 0cef 3a4e d63f
00000290: 625a a52b 8b19 e83f fac8 d1a1 9fd6 eabf
000002a0: 1e12 d633 79d6 cc3f 440a 941f f133 dcbf
000002b0: b652 928b d7b4 aebf a2b1 e676 382e aebf
000002c0: 480c 5551 c46a e9bf 0bcf 09a1 dfaa e63f
000002d0: b535 a7d3 4036 eabf 1494 cb44 94c3 e7bf
000002e0: 8720 fea0 c65b 943f ea3f 14a5 aadd e53f
000002f0: f6a7 9c6f aa0f d23f d4b9 06e1 c284 e4bf
00000300: b2af 4012 9e54 d43f 190c 9904 0439 d23f
00000310: a29b 8d44 f10f e0bf 877d e399 22ca bf3f
00000320: 0be3 6578 e06a e63f 9dbf 7c7d 8db3 df3f
00000330: c8e1 8b0e 9a9a ec3f 47f5 47b5 f115 e1bf
00000340: a254 d905 b36e d3bf 16a6 4046 a332 e03f
00000350: e5ff e7b7 9a2b ecbf 0d0f 03a8 bc93 b9bf
00000360: 4a0e a8d8 9e99 c33f e802 7a06 43b2 e6bf
00000370: 0626 badc 8038 cbbf 0cca 8d06 16f9 ecbf
00000380: fb4f 1766 1480 d63f 0761 76b8 eb12 cfbf
00000390: fa85 e2e0 f996 aabf e67c 90df 7cde ef3f
000003a0: 3c8b 0e1e 220d d73f 46be 47fd 8cff e1bf
000003b0: 3658 ccf2 c34b d9bf 7af8 4e94 ab45 eb3f
000003c0: 2ef4 d4ad dda1 ed3f 8cc6 4c2a 7a3c e4bf
000003d0: dbd0 0c57 49cc d2bf 4cc1 8af9 5296 ebbf
000003e0: 3e37 aa2d c39a cf3f 9ae1 7bca 496c bd3f
000003f0: f3d9 8532 0fd5 e5bf 47a5 18e9 dc6b e6bf
00000400: 2073 443f fe0a e93f ba3a 9cfc b8d4 babf
00000410: 612b fa2c 2dba e33f 7078 edc0 428b de3f
00000420: 539d 213b 1b2a eabf ced5 faad e351 c53f
00000430: 52f7 973d c87c e6bf 7eda db6b c18f e73f
00000440: 0c40 d62f b870 a13f dc70 5f4e 0dfb ee3f
00000450: 7042 e964 d525 ecbf 2567 1771 d1eb d33f
00000460: b4a5 6f84 e3b1 e0bf a8d7 3e53 ab9e d13f
00000470: ac4c bbaf 46dc e2bf 4e92 ce8b 323d be3f
00000480: 39d6 f9cf 3d76 dfbf 50f4 bfad 0498 d7bf
00000490: f0ef 99ac ef07 e43f 1a7e de79 2b91 d9bf
000004a0: b8bb 55ed ecdd cdbf 1654 9d09 40b4 efbf
000004b0: 1758 c13f 7c1b eb3f 6104 d1c1 f40d d63f
000004c0: 20ba 860f d1ba adbf df0b 7e98 350b eabf
000004d0: 1c84 a449 a9f1 e5bf ecf4 fd5d 1712 d93f
000004e0: 1207 2896 d70a c2bf 3fed 2dd5 f416 ecbf
000004f0: d47e cadd f45a e2bf f7ec 698c 4825 e03f
00000500: d874 0748 a21e db3f ffc2 f303 1c2c debf
00000510: a60a 98d0 69f9 c8bf 8da3 b50c 8de8 eabf
00000520: 463b 5186 7791 e2bf 4c76 c213 bf1f e63f
00000530: 7b13 75ca 483f c2bf daef 3216 3bd8 e93f
00000540: 57e2 5772 d028 ef3f c82f 212f 4630 e63f
00000550: 9f91 eaf8 7681 eb3f 8c22 6821 b54e ef3f
00000560: 68f3 4b77 f8c3 efbf f2ea 28ed 85cc ef3f
00000570: 0636 f593 c8ee c5bf c580 8298 a271 ebbf
00000580: 1b23 4bc7 6738 973f 8e94 eabb fe52 efbf
00000590: 9720 47e3 da64 d63f 9152 0eea c462 edbf
000005a0: 40a3 7090 c918 d53f c2f7 bcdb 8709 d7bf
000005b0: beb2 5895 c9ff c0bf eb91 7179 7ea9 ed3f
000005c0: 0000 0000 0000 f0bf ed91 6717 ca3d d03f
000005d0: e771 3904 25d3 dabf 0e19 e656 15da a03f
000005e0: c560 51e0 a3e6 d23f 95b6 f732 b2fc c33f
000005f0: a697 d8e6 2cf8 eabf 6646 83e4 e2e7 e73f
00000600: fa55 2fd2 2450 e3bf 7cdd 2644 f784 d5bf
00000610: ba55 36ff f618 e3bf 2414 185c b9b2 9ebf
00000620: ae65 f8e5 e923 e9bf a9c5 b935 0eb4 c93f
00000630: 78cb fb6b 7698 ec3f 53c3 2508 fcda df3f
00000640: b0e9 a48c 5d4d ea3f 59de 4761 c024 c73f
00000650: 8fe6 9413 2e2f c0bf c503 d181 9457 e1bf
00000660: 519b df5f 6ddf ec3f cafe 09de 0c4e d6bf
00000670: 67cd 159e 7343 dabf 99e9 f412 3503 d9bf
00000680: 4ebe 8f1b 39bd e1bf 9429 cb86 be64 e13f
00000690: cccf 4ffb b45b e43f 4d72 b2ad 1956 b93f
000006a0: ca4b 2b8c 504b d63f 2a04 3b45 7bd8 ea3f
000006b0: eef9 8b92 66e9 ebbf 617a 2267 ec92 c7bf
000006c0: b514 509b 8550 e83f ae52 89ad cb6e c33f
000006d0: 1a46 6cb3 e364 e33f 86d2 259f cd1e e93f
000006e0: 62c4 b0c4 45cf e9bf 6a94 055e 563c d0bf
000006f0: e309 df1f 17ce e43f 7c16 bf0d c311 e8bf
00000700: 8e9e ccdf 4b3a ed3f 449b 8e58 e229 e23f
00000710: af01 d704 86d4 ed3f f345 3f72 3e64 e13f
00000720: a5c4 3c82 cd30 c83f 9c8f c62c 87b0 e03f
00000730: 8d7e 09fe 6dbe debf a9b1 272c 2dde dd3f
00000740: 6d11 af07 1657 e53f 9acc b437 6913 e3bf
00000750: 0026 624c de90 ea3f dcba 4110 ff23 a73f
00000760: ce3a 750d 1fbc c2bf d4a4 7f62 3400 d8bf
00000770: 254c 1531 1bcc dd3f 131f 792e 2dd6 eabf
00000780: fdba fe57 53db ee3f 34fb d9dc 8c31 ccbf
00000790: 4036 54f0 f3a7 e2bf 64d9 c8e3 085a c83f
000007a0: 0000 0000 0000 f0bf 3924 595c 1b72 eb3f
000007b0: fca9 1d62 4a69 e43f bba9 b00d 1855 e43f
000007c0: 4b53 1ef4 1cb8 e83f 6f79 b1fb 13a3 ddbf
000007d0: f346 ae5b 76e7 dd3f b98c 3fb9 ae94 e8bf
000007e0: 559c dbbb 35ac efbf 38a0 8c65 3ff8 b5bf
000007f0: 50b4 8f61 82d8 c53f 1f37 ab21 fc1e c1bf
0.44524238502620894 0.06794545977637995 -0.06078117269128507 0.27323032641789513 0.29776581885517234 0.7362399319885697 0.515992612111987 -0.8329732789682424
-0.2296728501733891 -0.3133060398887888 0.2772660392218377 0.5273215546314491 0.8056535869334779 0.9529922802003163 -1.0 -0.3372755252678363
-0.6101459919763472 0.94971325372024 0.1389103929309702 0.33090229810286315 0.9311168562513061 -0.2379696673625472 0.8796773754649718 0.2598671919480462
0.22552390321027582 -0.5939051983532019 0.9998559990278094 0.5990778748926718 0.35896371704449115 0.19719602269610675 0.021694350400855433 -0.43814366351984824
0.6728522448172041 0.8397201835138883 0.8433679026339159 -0.7855165585326315 0.6237901686943098 0.129109761835939 0.7712265107014424 0.8749038256186902
0.3522853267492165 -0.9922888548491101 0.6935025811538954 0.6490283385665306 0.4331271663293242 0.6181007243661932 0.13009656553217894 -0.9612544587242828
0.01913281156036524 0.36524019639394023 -0.06910517282782504 0.8360904765370494 0.05660563193884295 -0.23327617720783528 0.30290983695279844 -0.2052929968454811
0.8189444290468338 -0.11426752670897938 -0.1665191589323454 0.2514384564657513 -0.5265385114419566 -0.18613731074180243 -0.4743871437122891 -0.12188435075888263
0.004197321843538434 -0.07211139874980649 -1.0 -0.6334810491637829 0.48040061422631875 -0.5162871020470126 -0.6127072192998608 -0.6679679246191962
0.40221410421019893 0.26677889765066426 -0.40910943178830883 -0.5345092082012561 0.02215632738763427 -0.8502724368326017 0.697335964171255 0.07910325090951406
-0.7600187150294506 0.34852479309794204 0.7531181194743335 -0.8386991653954106 0.22529521018090376 -0.44067028125588004 -0.059973464763208126 -0.058946384920406616
-0.7942830647010704 0.7083585877685165 -0.8191227086878629 -0.7426244109780122 0.019881347252095807 0.6833089088631799 0.2822061624489146 -0.6412062068027873
0.3176646402596318 0.2847299618626394 -0.5019461001328305 0.1241780877785371 0.7005464889071801 0.4953340268575575 0.8938722881421706 -0.5339287319799632
-0.30363154956041616 0.5061813709373293 -0.8803227989119448 -0.09991053678373536 0.15312562540940383 -0.7092604757782199 -0.2126618459481479 -0.9054060104375039
0.35156736345129475 -0.24276491648630147 -0.05193310613800502 0.9959091536037732 0.36017659125552703 -0.5624451586608721 -0.3952493544651391 0.8522546669626216
0.9260090251115167 -0.6323824716730129 -0.29371865750296217 -0.8621001123301908 0.24691047410709105 0.11493359750227797 -0.6822582232260274 -0.7006668617879449
0.7825919376078652 -0.10480838935130068 0.616476619573728 0.4772498020228175 -0.8176399378689133 0.16656156535252226 -0.7027322009086936 0.7362982851617088
0.034063106383769165 0.9681459933013019 -0.8796183558388986 0.31126819652637244 -0.5217149340289127 0.2753094017929194 -0.5893891746767586 0.11812129891638642
-0.49159188566349915 -0.36865345924144766 0.6259687777633172 -0.3994854631546062 -0.233335128675632 -0.9907531917366466 0.8471051449985251 0.3446018116702075
-0.058065922875688125 -0.8138683298460555 -0.685749667962344 0.39172920397670796 -0.14095587570050633 -0.8778022922191794 -0.5736030895095277 0.504551195378922
0.4237447455796661 -0.4714422262759825 -0.19511149106263764 -0.8408875702126452 -0.5802571891198134 0.6913752923898726 -0.14255628476726287 0.8076453622411421
0.9737322076098945 0.6933928413868609 0.8595538007398779 0.9783578541256062 -0.992672188760122 0.9937162048366572 -0.17134959434990565 -0.8576214770037259
0.022676106966886694 -0.9788812322846228 0.3499057025442282 -0.9183067866711828 0.3296379004046237 -0.3599567075615334 -0.13280601303394762 0.9269401905008271
-1.0 0.2537713268814333 -0.4191372433904505 0.032913843972936715 0.29532715707820173 0.1561491726746921 -0.8427948483192622 0.7470564330234992
-0.6035331826375903 -0.33624059348536384 -0.5967974648107692 -0.029978653188681773 -0.7856339923484279 0.20080735801051944 0.8936111554197472 0.49774075313239513
0.8219440218884326 0.18080906629596674 -0.12643981891760744 -0.5419409308889206 0.9022738335159862 -0.34851381000042336 -0.41036692083362997 -0.3908207593082352
-0.5543485201178073 0.5435478813827097 0.6361946972306156 0.09897003641749187 0.3483468407477487 0.8389259674223741 -0.87224129316729 -0.18417124782441177
0.7598293336347043 0.15181871388872054 0.6060656074861897 0.7850101574282042 -0.8065518228160153 -0.25368270093742373 0.6501575109944578 -0.7521682041630835
0.9133662577705353 0.5676128129606259 0.9321928114441586 0.543486807955729 0.18898934230086187 0.5215488314174652 -0.4803729039030962 0.46668557464615873
0.6668806219172844 -0.596119507600082 0.8301841251242763 0.04519650529333827 -0.1463660064423124 -0.37501248950009125 0.46558265488892153 -0.8386445911100701
0.9642731398251666 -0.22026215347065092 -0.5830020612645015 0.19024764177602116 -1.0 0.857679062240215 0.6378528515172657 0.6353874461540764
0.7724747436464922 -0.4630784948293671 0.46725233987045484 -0.7681497209672649 -0.9897717160319056 -0.08581920842391433 0.17066983951318315 -0.13375808376297812
