Snake Genetic/plot/best_snakes_each_generation/snake64/b1.npy (npy, 640 bytes, 1 tensors)

array f8 [64, 1]
0	0xbfdf7b6066fbdce9	-0.49190530831351836
1	0x3fd7de8f35f9f817	0.37295894881379027
2	0x3fee3c35ac8d53b3	0.9448498125226393
3	0x3fa451a08349b79b	0.039685264612543146
4	0xbfe5d2f079129651	-0.6819994320582713
5	0x3fe820f89cfd8b1e	0.7540247980326489
6	0xbfb09c4b657aeaa6	-0.06488486506979516
7	0xbfe659f6e7ac20cf	-0.6984819912768446
8	0x3fb438ae5841087a	0.07898988394393483
9	0x3fef9eabf120ff21	0.9881190976666155
10	0x3fdb6df0fc2d89ef	0.4285852873491924
11	0x3fe4b7106ce6328d	0.6473466994226144
12	0xbfb869bc4d6eea57	-0.0953633965536168
13	0xbfdaf2dc6141fbe6	-0.4210730504782404
14	0xbfef55dc1caafd57	-0.979230934135482
15	0x3f9e4c199b7158f0	0.029587173569177005
16	0x3fb9eb0f2840f4ee	0.1012429688716627
17	0x3fe56e59db84db06	0.6697205817680192
18	0x3fe37ccdf0c5d388	0.6089849188416432
19	0xbfcc2a7058761fdb	-0.22004513091474007
20	0x3fe095b939575905	0.5182767982430795
21	0xbfd7b707de05a049	-0.37054630929788296
22	0xbfc637ba3ed3edd3	-0.17357566898122787
23	0xbfef953c73da420c	-0.9869673025842203
24	0xbfd675efdcd3206e	-0.35094830098069607
25	0x3fcdfdc8603877b0	0.23430733392973258
26	0xbfeffff1a3f38c1b	-0.999993152825826
27	0xbfe6cf1712423db2	-0.712779555951718
28	0xbfd4b3ff2415b5d2	-0.32348612331301496
29	0xbfa486cd65a7d946	-0.040090960177553245
30	0xbfc37d8cbfb09d98	-0.1522689758287299
31	0x3fd98bb725e6a479	0.39915255261673327
32	0xbff0000000000000	-1.0
33	0xbfd02f6ff3b5bc64	-0.25289534377856726
34	0xbfc6ffbbddbc74cc	-0.1796793778129654
35	0xbfde7ccfcff7ec6d	-0.47636790570658755
36	0x3fb74a0aa462333f	0.09097353471061086
37	0x3fdbc9e1eadfe138	0.43419692933050014
38	0xbfdcdc00258748e0	-0.450927769326098
39	0xbfd4785d81d75048	-0.3198465126017749
40	0xbfe46ce2011e25fd	-0.6382913610297575
41	0xbfd6bd31caaa1b08	-0.3552975157876266
42	0xbfd46b37bb0cdab0	-0.3190440489446855
43	0x3fe132064a322563	0.5373565148485507
44	0xbfefd9d2b338c6ab	-0.9953397274423045
45	0xbfeaf6607a71aedb	-0.8425753013120486
46	0xbfb2a39e23e31dcb	-0.07280910850669568
47	0xbfef34819ac01bbe	-0.9751594564885335
48	0x3fe825649b2d98a5	0.754564574320075
49	0x3fc3d5f6547ffebe	0.15496710897422433
50	0xbfeb68ed88c41c78	-0.8565585776531313
51	0xbfeff2ba11f12233	-0.9983797407558711
52	0x3fd6dd3461326a02	0.3572512578190584
53	0xbfeed827471889de	-0.9638859165755169
54	0xbfd1c2bd87d3a769	-0.27751100792249034
55	0xbfe6aefad85df364	-0.7088598466794847
56	0x3fe01eff7f8bc91a	0.5037839404233495
57	0x3ff0000000000000	1.0
58	0x3fe584717ac953d5	0.6724173925564353
59	0x3fdfd3edbfbdb57c	0.49731010174476586
60	0xbfe8255215cfcd72	-0.7545557428369831
61	0x3fc706425fec64ae	0.17987851794967952
62	0xbfe296e9a876436c	-0.5809219637177256
63	0xbfefe25f6ccb7ce0	-0.996383392801274
