Snake Genetic/plot/best_snakes_each_generation/snake74/W4.npy (npy, 640 bytes, 1 tensors)

array f8 [4, 16]
0	0x3fbf671c241c008c	0.12266708261086218
1	0xbff0000000000000	-1.0
2	0x3fe64c4cb759d37c	0.6968139248916567
3	0xbfd89123d26302e2	-0.3838586382444601
4	0xbfbe41ad0a56a3eb	-0.11818963529971398
5	0xbfe451097b737e9d	-0.6348922167926109
6	0xbf99f47baff32a5b	-0.025346691717269425
7	0xbfec889d7d269283	-0.891676659045132
8	0x3fe13cb77434473d	0.538661696397163
9	0xbff0000000000000	-1.0
10	0x3fefffffffffffff	0.9999999999999999
11	0xbf9eee3a786b3e94	-0.030205644225871867
12	0xbfeffffffffffffe	-0.9999999999999998
13	0x3fae5239e3d6f3f8	0.05922108560796596
14	0x3ff0000000000000	1.0
15	0x3feb22fe8331dd87	0.8480217516325163
16	0x3fd9980addaa52ab	0.3999049343777112
17	0xbfbf3cb34a3ca56e	-0.12201996385978983
18	0x3ff0000000000000	1.0
19	0xbfc614d946d18e1d	-0.1725112529558012
20	0x3fe6d5fdd9036aa6	0.7136220205823818
21	0xbfec03999d7a8055	-0.8754394603493078
22	0xbfb7b402d44190ff	-0.09259050066026829
23	0xbfb290ba6bb5a738	-0.07252087716701971
24	0x3fe1c3cb98148016	0.5551507921518375
25	0xbfd3cfcd10236a75	-0.3095581681824691
26	0xbfeffffffffffffe	-0.9999999999999998
27	0x3fd1f23d1534a68c	0.28041007109514093
28	0xbfded7eaa8a0236f	-0.48192850558603245
29	0x3fbdf7966ae4cdfd	0.11705913648329865
30	0x3fd1a39741e854e7	0.2756097930553793
31	0x3fe6de96b2b9564b	0.7146714678480718
32	0x3fe42d95bd0b0b46	0.6305645649193614
33	0xbff0000000000000	-1.0
34	0xbfd1195a41eb4b70	-0.26717239797033354
35	0x3fe4332e46e99a00	0.6312476525316129
36	0x3fdd8f30d74f0afc	0.46186467195745684
37	0x3feffffffffffffd	0.9999999999999997
38	0x3fbc4efd28d5415b	0.11058027502918348
39	0xbfefffffffffffff	-0.9999999999999999
40	0x3fe26f888fc61ae6	0.5761149223406761
41	0x3fee8489f61ec67a	0.9536790663753003
42	0xbf8b22258c6f9056	-0.013248723362217312
43	0x3fe6774f6a7d8482	0.7020642356766447
44	0x3fabfd502e037ac5	0.054667001358884394
45	0x3fd3d1e826f11f8d	0.30968669703406065
46	0x3fdfe16f8061e1c2	0.498134494183912
47	0xbfeb481afa8a1017	-0.85255192693194
48	0x3fd77a1542823aea	0.3668263577937255
49	0x3feaef7885d539de	0.8417322744297129
50	0x3fb268024be1b6a3	0.07189955093937299
51	0xbfe2d89782920ec0	-0.5889394331174671
52	0x3fdaf975e2627e2e	0.4214758597172218
53	0xbfd6c9800f9c11be	-0.35604859852199044
54	0xbfefffffdb908ac7	-0.9999999321338117
55	0xbfeffffdfb90d08f	-0.9999990380661233
56	0x3faa87400fc39a8b	0.05181312744553165
57	0x3feb891e4320a1b4	0.8604880629618976
58	0x3feb662f38313e5d	0.8562236878878583
59	0xbfe17a1f58cd2acc	-0.5461575254824651
60	0xbfeaa307df58d2a2	-0.8324012148137465
61	0xbfea5999b0525033	-0.8234375423221593
62	0xbfcd0d833c90e8d1	-0.22697487313582212
63	0xbfe0035a778efdaa	-0.5004093489769066
