Pong Genetic V2/plot/best_paddle_each_generation/paddle6/W2.npy (npy, 16512 bytes, 1 tensors)

array f8 [32, 64]
0.03596188699688934 -0.8890099682881148 0.7782330974612846 -0.921167629019076 -0.2807330136427553 0.2687601853210915 0.4126508940215901 -0.29279465675963817
-0.4045892398388958 0.1419968951742569 0.8333993074118112 0.2615123753325781 0.04908113754214009 0.21835496908097005 0.11202000233766653 0.29887741642220217
-0.5861155586946227 -0.4288525660084571 0.8862233311990458 0.716999413921967 0.9999999395980325 -0.009200647684204765 -0.8769432974421506 -0.796980920285013
0.971410733551932 -0.6648462475767357 -0.32453589202404004 -0.02772228020438107 0.2532700545921779 0.9237689374178387 -0.7559259835638031 0.08321576431548433
0.1446666965478613 -0.19662074853923633 -0.4983726513520319 0.3118033261337274 -0.6914219788723315 0.28630314110302674 -0.8514105902030334 0.6617917497254827
-0.9613288056006021 0.2825651610214144 -0.12530640575287977 -0.41197118201282185 -1.0 0.6665559631262201 0.3131028974927293 0.3341252607109147
-0.0799670397405263 0.9999954186205221 0.2535064743957197 0.22438667944784133 0.37238567982188225 0.6489317330146226 -0.9581835782865635 0.3249988696089635
0.7239594360835309 -0.26997717654066183 0.2574245174659551 -0.07766647181107114 -0.8358427778990651 -0.1459433254152609 -0.17366704788140883 0.22560813096260882
-0.2070773320125231 0.8057283045360604 0.04968557648146618 -0.38556301411210936 0.06827474783122764 0.4175230436945486 -0.6810684347545195 -0.2082629475510095
-0.25287453026563944 -0.771816144436406 0.9978386054429045 0.17224578450673866 -0.5718691830614495 -0.8100479449958216 0.10795572568260615 0.4265670331693196
-0.7541299339024997 0.4529708574616782 0.35403183078920325 0.8569620673830357 0.44676530472483456 -0.48002080292783955 -0.32726478054807934 0.023528498178319635
0.23917480268728214 -0.6382689715477905 -0.6732382258962092 0.931466695231989 -0.9676257276952798 0.7708985127288237 0.46075846393636577 0.46540174558792263
0.07513490674920158 -0.9645969740590639 -0.8292810213652249 -0.1994882333220851 -0.9745704165953933 -0.36968055438450087 0.43133703308577964 0.8248757204218004
-0.414501487306248 0.5737733568931207 -0.7293405146026675 -0.27741660827329995 -0.6611232452624458 0.9319186111060572 0.43085829859277036 0.25313497189559625
0.4415765404702502 0.7679601026767048 0.20153688849286147 -0.20376991144174575 -0.5499703403065732 -0.591984375852471 -0.1383324506065553 0.21461550231004195
0.8770480698223153 0.8314441305141331 0.6051692143071518 0.10024078214462785 -0.43647190924184054 0.9292285671741556 0.11969708664707004 -0.7300390565293564
0.440210052127174 -0.937373938698106 -0.6575974231635849 0.01817954640417728 -0.5519280376564942 0.5258775738706445 0.017968538179656938 0.7345115051792527
-0.7728555245156935 -0.7010210000341917 0.8499412339250302 -0.8202748081814488 -0.24225658078639026 -0.8363815550024409 0.7000271861314706 -0.8095104230203045
0.3505951647583018 -0.5621357682989714 -0.3058585088957084 0.08590206351484281 -0.4367824024802324 -0.7692193167392829 -0.19180755167258265 0.9799662940458175
0.5134376909952798 -0.06390483200900707 0.36365046412575075 -1.0 -0.5765825236338382 0.9433821859517787 -0.3922098868399002 -0.12151641450837594
-0.8498301755922776 -0.8927755432829919 0.223192508778371 0.4025399003317697 0.046020033877461654 -0.4515119102440519 0.5557047095257789 0.973261549843946
0.4197411030470032 0.73741730715661 0.9573302240106145 -0.5973342537634411 0.9890547079935023 0.5154103471976459 -0.7508536702356798 -0.33590753904765247
-0.491255203260442 0.41532231542312154 -0.32150520478159617 -0.14019142094503653 -0.8122665922810456 0.6492037276170632 1.0 0.7997558038304354
-0.49129092706921174 0.4048468139221936 0.3776800627948325 0.6737929576421521 0.5707923248928608 0.837486785890629 0.07025508409022287 0.884205033006139
-0.3408183054646208 -0.27084783324213857 -0.606582570273831 -0.9212941995172628 0.03362514661814326 -0.4531006234054167 -0.7728684903569385 -0.6322445575935697
-0.681792443115534 -0.7019828372377057 0.3788558553015328 0.29250149818622934 0.1472567583633511 0.620154261143709 0.8095933623591961 -0.07231819941990814
0.6239768687981054 0.1775622887697145 0.17172666698120617 -0.7714370932042309 0.2187162629896921 -0.6361413375836527 0.4592409967170146 0.1935067941815885
-0.28562226019910886 0.971360509477078 -0.5352602458632518 0.75661568990224 0.8677411469439943 -0.6314131183774504 -0.10214169888498688 0.8873746475108388
0.5093463408827233 0.32463860173414266 0.5285577989295653 0.22692137511735505 -0.5429578295685954 0.2819741509994139 -0.9335750096595856 0.7062423059524325
0.3219129491791409 0.8712362440029857 0.989925536553213 0.17579881444855008 0.023466007803397942 0.2732037399499437 0.6635459844973206 0.6047593536727881
0.33649763306301983 0.1337494662093962 -0.8866917721916021 0.09278039323001865 -0.704753242173541 -0.011505394670911821 0.8784795967358725 -0.9703453536996135
0.2939111654136404 -0.9064237030833566 -0.7877965698701489 0.30731020688578 0.9408465644919239 -0.7582595454256921 0.5434994456079345 0.35608635016212037
00000000: 57b1 1bb1 9869 a23f c5b1 7308 c572 ecbf
00000010: 185a c818 49e7 e83f 54aa 1889 347a edbf
00000020: b533 209a 87f7 d1bf 75f1 9aeb 5d33 d13f
00000030: 9d39 9f4b df68 da3f eb79 cecc 25bd d2bf
00000040: cdfa 5a44 cae4 d9bf b617 744a f42c c23f
00000050: 0df8 3a06 35ab ea3f 705f e366 9ebc d03f
00000060: c51c 30b1 2921 a93f 0799 8f3d 0ef3 cb3f
00000070: 51c2 89c6 57ad bc3f 19f7 42be ce20 d33f
00000080: 42a5 886a 75c1 e2bf e2f7 7308 5272 dbbf
00000090: 6d77 0e08 f15b ec3f f578 41c1 a8f1 e63f
000000a0: b36a 92df ffff ef3f e6d3 3e07 cad7 82bf
000000b0: e7bb de63 eb0f ecbf a71f 8521 de80 e9bf
000000c0: 6ad8 72f6 cb15 ef3f 97bb 46a3 6b46 e5bf
000000d0: a9c5 a730 32c5 d4bf c4b9 64bb 3a63 9cbf
000000e0: f6e3 619a 9335 d03f 33a6 e8df 838f ed3f
000000f0: 274d 33b0 8b30 e8bf 6424 3fda a04d b53f
00000100: 6628 3f35 7084 c23f a674 5862 de2a c9bf
00000110: 44c7 b167 56e5 dfbf 00d1 21f0 95f4 d33f
00000120: a6c0 5ffc 2020 e6bf 87e4 f168 ca52 d23f
00000130: 977b 0c6c c13e ebbf 91ac 3ae4 652d e53f
00000140: 073c 98a0 34c3 eebf 58dc 642f 8c15 d23f
00000150: ec0d 5851 0a0a c0bf 1dee 6860 bc5d dabf
00000160: 0000 0000 0000 f0bf b696 d22b 6d54 e53f
00000170: 39e7 40bc e009 d43f a555 e1ea 4e62 d53f
00000180: be88 714c b878 b4bf c5ff 6364 f6ff ef3f
00000190: eea5 3638 7339 d03f 4979 f1e4 b3b8 cc3f
000001a0: 875b 15bf 2ad5 d73f 114d 547b 0cc4 e43f
000001b0: f0c2 899b 70a9 eebf 2247 0d0f c8cc d43f
000001c0: f07f b3fa ac2a e73f dd25 fa59 4e47 d1bf
000001d0: 651c edae a479 d03f 129c 6c2c f3e1 b3bf
000001e0: ac93 755a 39bf eabf 2030 dd58 45ae c2bf
000001f0: f791 85c9 b83a c6bf 7919 192c bae0 cc3f
00000200: dc4c 5e90 8281 cabf 7e34 aeb9 86c8 e93f
00000210: 6c40 244c 6370 a93f 1428 0a7e 10ad d8bf
00000220: b6e8 1331 747a b13f 52a5 7f92 b2b8 da3f
00000230: 6a79 b307 50cb e5bf 7c9e 593a 5ca8 cabf
00000240: bcdd 5ea7 182f d0bf 3622 5cc5 b7b2 e8bf
00000250: 6008 223a 4bee ef3f 7847 aa5d 260c c63f
00000260: 6cda da99 c04c e2bf b45e feaa e9eb e9bf
00000270: 8905 3987 fca2 bb3f f7e4 40d0 df4c db3f
00000280: d577 6119 d521 e8bf f0b1 b57a 79fd dc3f
00000290: 79e3 be1f 75a8 d63f 7353 aab6 3b6c eb3f
000002a0: fcf5 3181 cd97 dc3f 0262 7e2c a9b8 debf
000002b0: 258b 65fa e7f1 d4bf edac ccc8 da17 983f
000002c0: 3ed9 c8a9 479d ce3f 962d db0c b36c e4bf
000002d0: 5b85 54e4 2a8b e5bf fab4 2a3e 93ce ed3f
000002e0: 8e05 e73a caf6 eebf 2092 965b 33ab e83f
000002f0: 8c8f 7d11 117d dd3f cb4a 3367 24c9 dd3f
00000300: d39c 468f 0a3c b33f 88ef 2c79 fadd eebf
00000310: b6a0 3e5a 7889 eabf e80f 0797 d488 c9bf
00000320: 55a4 5d4c ae2f efbf f21b c3a0 d8a8 d7bf
00000330: d20d aaa4 069b db3f fb3b 4fc4 6165 ea3f
00000340: 9bea 073f 3187 dabf c281 65f1 595c e23f
00000350: 76b8 3beb c156 e7bf 12ab f996 31c1 d1bf
00000360: 08e2 a0ef eb27 e5bf 0b7f a7fa 46d2 ed3f
00000370: 3aa2 6aaf 2e93 db3f 61fd 7006 5d33 d03f
00000380: ee08 0040 ca42 dc3f cf22 b410 2193 e83f
00000390: 21d9 81f4 f5cb c93f e98a c6e8 2115 cabf
000003a0: 0860 2c66 5b99 e1bf 50f0 c037 89f1 e2bf
000003b0: 1054 aab3 e0b4 c1bf 6670 d151 8578 cb3f
000003c0: 4004 1d1d c710 ec3f a84c a0b8 309b ea3f
000003d0: f1d8 ffd3 8b5d e33f 1161 0941 61a9 b93f
000003e0: a83f f4df 27ef dbbf b6b3 508c 3dbc ed3f
000003f0: 6a5d 93e0 77a4 be3f bc14 13de 7a5c e7bf
00000400: 3e6d 50c8 662c dc3f 2998 5aa1 f7fe edbf
00000410: af7c 4dc0 090b e5bf 5c58 0cb5 a89d 923f
00000420: f95c effc 64a9 e1bf fe2c af34 fdd3 e03f
00000430: e1ad 5a2f 5866 923f e1fa a845 1e81 e73f
00000440: 957d 4a82 3bbb e8bf 1c98 9e97 c36e e6bf
00000450: 435b 67f5 b732 eb3f 64e7 5bf4 b03f eabf
00000460: 2df2 db7d 4302 cfbf cad1 3640 a3c3 eabf
00000470: b8db d769 9f66 e63f 3096 1467 82e7 e9bf
00000480: e772 b1b3 2670 d63f 7630 9826 04fd e1bf
00000490: e043 3a91 2f93 d3bf ac85 7479 adfd b53f
000004a0: f3bc 872d 3ef4 dbbf 0c18 1bd4 719d e8bf
000004b0: 13a0 c75c 268d c8bf cb7d 0346 e25b ef3f
000004c0: ac78 6be1 146e e03f a6f9 882b 115c b0bf
000004d0: bc19 a698 0c46 d73f 0000 0000 0000 f0bf
000004e0: bc7a 4e31 5d73 e2bf 1557 89d6 2f30 ee3f
000004f0: 7c4b 497f f719 d9bf 8a9b 3d22 b31b bfbf
00000500: 2154 6a0d cf31 ebbf ed35 2204 9e91 ecbf
00000510: 6e28 f576 9291 cc3f aaa4 d0b6 36c3 d93f
00000520: 3dd4 ed18 f08f a73f 142c 1036 92e5 dcbf
00000530: 4faf 343e 55c8 e13f b516 e167 f524 ef3f
00000540: 12ed 97c9 09dd da3f afbe 372e ec98 e73f
00000550: 5a22 73fe 72a2 ee3f b539 96b9 5c1d e3bf
00000560: 772e 190f 56a6 ef3f 107c 27d7 3d7e e03f
00000570: 52cd b746 fe06 e8bf f020 ac55 827f d5bf
00000580: 5f94 ffa9 b970 dfbf b7a4 820c a494 da3f
00000590: 9ef7 0191 8a93 d4bf f7c0 11e0 caf1 c1bf
000005a0: e75f 2f82 16fe e9bf 7ecf 51e5 46c6 e43f
000005b0: 0000 0000 0000 f03f f99c c77b 9997 e93f
000005c0: be5c 2580 4f71 dfbf 2fe1 6b9c 02e9 d93f
000005d0: a585 83ff e82b d83f 1924 ab3f b68f e53f
000005e0: e61f 0744 ee43 e23f de6f 8716 b1cc ea3f
000005f0: a994 8bb8 3cfc b13f f909 775a 684b ec3f
00000600: d850 f694 f7cf d5bf a6ea 7d26 9255 d1bf
00000610: 8eca b4d9 1f69 e3bf 007a 1df9 3d7b edbf
00000620: 89a4 18b2 5037 a13f d8b3 d4c1 99ff dcbf
00000630: 6424 46b3 56bb e8bf 2107 3ef0 583b e4bf
00000640: c6ea ba62 3ed1 e5bf 6e41 09b6 a476 e6bf
00000650: a7c3 1aa1 2c3f d83f 396a 2f34 58b8 d23f
00000660: 798d a438 4fd9 c23f f2ca c2bf 4dd8 e33f
00000670: 8d86 cc56 30e8 e93f 3803 6a0d 7283 b2bf
00000680: d958 9e56 9ef7 e33f 1569 a26f 5cba c63f
00000690: cb86 44b1 23fb c53f a278 c7d7 9caf e8bf
000006a0: a670 52fe e4fe cb3f 86c6 1114 455b e4bf
000006b0: 0973 7859 3464 dd3f 2a28 48a4 d4c4 c83f
000006c0: 4625 a496 a247 d2bf ef8e 9aa2 6215 ef3f
000006d0: 5a9c 5a18 da20 e1bf bea8 781b 3236 e83f
000006e0: 5793 f014 89c4 eb3f f149 b648 8934 e4bf
000006f0: 85d6 4458 f525 babf 7e79 4b84 5f65 ec3f
00000700: cdb6 8db2 904c e03f 6fe8 5dfc e0c6 d43f
00000710: e057 8e0b f2e9 e03f c639 7276 c20b cd3f
00000720: 1756 2319 e95f e1bf c207 374f dd0b d23f
00000730: ca39 dbb2 d8df edbf 1ec1 e376 8999 e63f
00000740: 5188 38c5 389a d43f 7aa5 e2d4 2ae1 eb3f
00000750: e914 9f51 78ad ef3f 49b5 5d57 9380 c63f
00000760: 0846 5520 7907 983f a1b6 0e8a 2b7c d13f
00000770: 14dc d9c9 c43b e53f ed30 bf49 305a e33f
00000780: 18f9 4b5e 2d89 d53f 3c08 9dd7 b31e c13f
00000790: 303f 666c c75f ecbf 0109 a2b2 74c0 b73f
000007a0: 9854 dcab 568d e6bf 7c8e b6ee 2390 87bf
000007b0: 06e2 453e 811c ec3f 7fe4 feb2 110d efbf
000007c0: 8c5f d8c6 70cf d23f ccfd 2148 6c01 edbf
000007d0: dbc8 ef26 a135 e9bf 734a 136e f8aa d33f
000007e0: 207f 2141 6a1b ee3f 2976 af85 a943 e8bf
000007f0: 7af7 08f3 5864 e13f 55e4 1f67 1eca d63f
