Snake Genetic/plot/best_snakes_each_generation/snake46/W2.npy (npy, 16512 bytes, 1 tensors)

array f8 [32, 64]
00000000: 90f5 2de9 915c cd3f c599 20b5 4bae e63f
00000010: 52e7 19dd d833 e03f 7fbb 4eca 7906 cdbf
00000020: d4b7 326c 8324 bdbf 9ec8 c1ac 1624 ebbf
00000030: a19e 8440 b250 e2bf 2115 39e8 5bc0 cc3f
00000040: 0000 0000 0000 f03f 2dcf 8517 897f e1bf
00000050: da45 f341 174b ee3f 6a39 e4df b1c3 e3bf
00000060: 8b84 86d3 7b1a cd3f a870 04a5 2224 e2bf
00000070: a50e 2898 da44 eabf 7767 e02d 5ff9 ef3f
00000080: 3445 0dc0 dcc7 e13f 9e59 5e43 5a98 dc3f
00000090: 2277 fe24 8bbd b3bf e733 6345 a554 e53f
000000a0: 2a1a b31e c018 e5bf 3cc7 f435 23c5 c83f
000000b0: 1a58 3cbb 6767 e5bf 4fa2 d25f d4ee ea3f
000000c0: 1eb6 9c9f 0535 e2bf e4dd 6081 5370 93bf
000000d0: bb31 e1be e480 e5bf 64db 6a4b 1bbf df3f
000000e0: fff4 e15d c2dd e5bf 9aca 8a73 b0a4 e7bf
000000f0: 1063 9fbb f82a e63f 7c86 f134 e0ad d4bf
00000100: a1fa 1a4c 0a11 eb3f 9990 b93a 3648 e53f
00000110: 1351 501c 7e42 e23f 3031 1f1e 580f e3bf
00000120: e729 31b3 2951 d23f cfa3 2393 ec41 d2bf
00000130: 037a 23c3 ebc7 bd3f 4521 087b 5725 efbf
00000140: 0dde cf03 850d d3bf 0000 0000 0000 f0bf
00000150: 3275 1c92 21ee ca3f 638b 217e 47cd d73f
00000160: 16d9 4b67 af88 d73f 8bc7 89a5 4a4c e43f
00000170: ccbb fd0d 0de0 e63f c1aa 7686 2fe1 babf
00000180: c5a0 3d42 52ce cabf 9f37 3918 2c55 9bbf
00000190: 0d63 512d aa86 bfbf 171a 6833 5f36 de3f
000001a0: 7a7c eba3 fcf1 b73f 0000 0000 0000 f03f
000001b0: 2631 123f ed4d e1bf dcf5 5a52 2cc5 d3bf
000001c0: c890 6b4e f43b dabf e414 adf4 7276 d53f
000001d0: a6b3 3531 29e8 d33f 2e23 e590 dd96 e1bf
000001e0: 603e 91c4 be0c e1bf 2201 fc22 f11c bfbf
000001f0: eeed ed7a 6b7f c2bf 93e6 f31e f0a4 b2bf
00000200: a026 1c6e e9fd efbf e4ba 319e 7e0e e8bf
00000210: d898 4409 e4d3 e6bf 37b9 04f0 9dfb 973f
00000220: f3a6 adb0 a7ff efbf 9116 925b ad11 d8bf
00000230: 5daf 700b 5983 adbf 47eb 13d3 c5b4 d63f
00000240: 8783 c2c5 bdb7 bebf ba43 5992 e1a0 ec3f
00000250: 0ab8 c4b1 606b c03f 889b d44f eb13 ccbf
00000260: afa2 b3bb 5a03 efbf f1c3 89fe e763 c7bf
00000270: d8d8 35ba a752 e43f 4f13 57dc 7ce9 b63f
00000280: 69aa 89dc 8a49 d63f 5347 78ba bbeb d4bf
00000290: e47c c20a a71f e73f f68b b1ce c48c eabf
000002a0: da02 a672 13ae debf 4f0a 39d1 c500 9e3f
000002b0: 4abc d38e 2558 debf 0ca1 44dd 1eb6 d63f
000002c0: 5f2c 685a f221 cc3f 05db c9e4 598c ec3f
000002d0: 91d6 516e 9ec7 c8bf c57e a9be d490 ea3f
000002e0: 036e 1b43 c967 b1bf 18a2 c6f7 bb01 e7bf
000002f0: 7b81 c73c 1688 d13f 3b18 9923 d45a dc3f
00000300: 9d8d 6a99 a5a4 de3f 50e6 8c44 cdb6 d5bf
00000310: 4279 60dd 08db d6bf b6cb abfc 28a8 b9bf
00000320: dbc9 d15d 6014 e7bf 0000 0000 0000 f03f
00000330: a0c1 7aa3 85d2 d3bf 0448 8150 5316 b03f
00000340: d7a7 8e95 5968 bcbf 9977 e036 e914 e53f
00000350: 33a1 990f e599 d1bf 9b0c ce90 5c93 bf3f
00000360: 01aa 529b 105b a23f f768 c209 8bf7 eabf
00000370: 6be0 fbfe 6a39 d6bf fbff ffff ffff ef3f
00000380: dff4 0401 39d3 df3f 7c42 cc68 c850 d4bf
00000390: aeb6 8937 0418 ee3f 3f06 4024 0308 c9bf
000003a0: 769d 7fb5 3b03 b2bf dafd 7741 9051 e4bf
000003b0: 52f0 28f3 fa43 d33f 54df d075 6947 cdbf
000003c0: 7510 59a7 4828 d93f 8e66 234a 1499 ea3f
000003d0: 5481 897d df8b d9bf 7648 5b89 dd67 b63f
000003e0: b375 3f13 d24d cabf fe8e 44b3 9d86 6c3f
000003f0: c5c5 bb2f e4f3 dfbf 58b8 2455 c99f e0bf
00000400: 01d6 0ba3 cf04 ea3f 4489 3afe 1f99 b23f
00000410: e9cb ea76 5167 d63f ea08 83b9 3b98 eabf
00000420: df09 184c 7828 c73f 8b99 a298 dd2a 973f
00000430: 85e5 78e0 e836 c2bf 2421 1acf 6a0e ee3f
00000440: 30c2 7970 cd96 77bf c82b 616e eac6 e2bf
00000450: 2159 5882 4e5a e73f b518 7b92 9b72 dfbf
00000460: ec95 f06b 1522 bd3f 15ae 5415 60e7 e4bf
00000470: f298 03b9 3ff9 d83f 3f05 b11c 084d ddbf
00000480: e037 1715 c3c2 dfbf df23 f91d 1f9a b0bf
00000490: 730d 0de4 48a4 debf 0000 0000 0000 f03f
000004a0: 4150 b16a f1ad e1bf d022 c767 9858 ec3f
000004b0: 2b76 14dd ba42 d23f 1ca0 1b88 6670 e93f
000004c0: 7ea2 874c bbd2 de3f d794 f234 07ea e7bf
000004d0: 8708 081a ff88 cfbf 9d59 cb3c 77c6 e43f
000004e0: 08c0 e0ef 7fe7 e43f a920 91f6 c35e e23f
000004f0: d4e7 8a39 a50f e23f a004 43ce 7f2e dbbf
00000500: 8110 98f8 081a e33f 2d12 862f db61 e03f
00000510: c67e b538 94b1 adbf 3730 e078 1625 d03f
00000520: 2854 e33a 3976 e8bf 6c7b 9e02 b387 e63f
00000530: f378 1b30 b196 e83f 127c ec63 80fa e13f
00000540: e631 6ad9 3a3d edbf 3f1a 44cf 8693 dd3f
00000550: 65b0 745f 3b36 edbf e31f 8de5 f47d eabf
00000560: 6520 a6e0 021f d4bf 5e0b c0d7 5f7d d93f
00000570: cd39 5886 fa20 e63f 6f79 727b ef1e edbf
00000580: 2815 0331 c00b e43f 6037 32ce 28b5 d6bf
00000590: 2de5 8bda 3edc b9bf f4ba 5289 a639 cc3f
000005a0: 0000 0000 0000 f03f 40d5 bc35 e1c2 eebf
000005b0: 11b4 6fe5 d885 e9bf ae06 9739 199d cbbf
000005c0: 2eae e09a 2113 e33f 564b e090 94d6 d3bf
000005d0: 8e4e d468 3c72 d03f 2ded 6fd1 d169 e1bf
000005e0: cd77 e4ef a90c c53f faff ffff ffff efbf
000005f0: 9d06 e735 95bd e73f ac0d ecf1 7988 ecbf
00000600: 2218 2af6 5297 d1bf 25e9 cbd3 ee62 c83f
00000610: 280f 3920 61ff eabf 0000 0000 0000 f03f
00000620: db41 0240 94ea ad3f c1cc 4011 aa98 e1bf
00000630: 284b 2a1f 3eab cb3f 7f50 4e35 d007 a93f
00000640: 97ce 35fa b4c0 b73f b3a0 3409 7ae9 a0bf
00000650: e3e0 e410 33c4 d43f 381e 4efe 358b e9bf
00000660: 8a70 4dcc 306f b7bf 8c31 1e6a 0de2 d0bf
00000670: 175b a6a0 099a c2bf 5816 ce59 ee49 ef3f
00000680: 6002 6948 8112 e83f 559d 14f3 ae48 ddbf
00000690: accd 4361 d977 d53f cc8b 58fe 2384 a13f
000006a0: 0a3f ebbd 0d66 ccbf 6eda ff16 cb5f be3f
000006b0: 3ceb 5156 9082 e0bf 7e98 e884 ef85 b4bf
000006c0: 4393 6db2 0f4c 933f b64e bcf1 32b5 ddbf
000006d0: 4176 0161 5f84 edbf 5e69 6f05 8efc e53f
000006e0: 3e6f 2a28 bb05 e13f 21f3 1a0f e8b2 e53f
000006f0: 8536 0d9d 1e11 ecbf 9915 3891 4882 e93f
00000700: ad70 35f9 bbe9 d63f 5bb4 8b25 6fe5 c23f
00000710: dcd2 b7c3 0fe4 ec3f 6ecc d48e f29e d1bf
00000720: 25ef 0cba 3382 dabf 72e6 b39c 283e e0bf
00000730: 85dd 4519 d4e6 ef3f 6546 aa58 81af ea3f
00000740: 0fcf 1997 1c0c e03f 1def e483 8916 e5bf
00000750: 0d4b bf94 5834 d4bf ff7c 3530 2672 e33f
00000760: 63e4 6c8a ce4c eebf a905 9c0b c09d a6bf
00000770: 0e71 cc8a 7932 ec3f 7f0b f776 e8fa a1bf
00000780: 6b1f 22fe f917 d63f 700e 43eb 1e99 c0bf
00000790: 5ccd 2d16 a481 efbf f10a cff0 1e9b c53f
000007a0: 9ab4 b627 2529 efbf c6d1 d3b2 e495 efbf
000007b0: c0ac 70fb 93a8 eebf 7d2c 3e65 76a8 e23f
000007c0: 0552 1932 45c5 eabf 1b7c 0a12 2d24 eabf
000007d0: e7d6 4d0b ecfe edbf 49e2 f086 8623 e93f
000007e0: ffff ffff ffff efbf da3f 7195 112a e53f
000007f0: 162b fa38 5902 e03f ad50 75f9 2645 dcbf
0.22938751111716416 0.7087763345378383 0.5063289945967233 -0.2267601239995791 -0.11383839980655291 -0.8481553434524078 -0.5723506221883846 0.2246203311826003
1.0 -0.5468183001926029 0.9466663635341164 -0.6176385281449204 0.22737071827308272 -0.5669110510821342 -0.8209050151640055 0.9991908927943162
0.5556472540867277 0.4467988641639752 -0.07711095479177435 0.6665827136254138 -0.6592712974168695 0.19351616034105656 -0.6688727051684993 0.8416540023363924
-0.5689724080490952 -0.0189831779209423 -0.6719840744131526 0.4960392223833223 -0.683320220341244 -0.7388536698038763 0.6927455582145701 -0.32311253710040666
0.8458301054414116 0.6650649210901235 0.5706167748453786 -0.595623072463729 0.28620378970359045 -0.28527368897499356 0.11633180154920102 -0.9733083155597703
-0.2977001702524554 -1.0 0.21039218553861755 0.3719042522190447 0.36771760070350135 0.6343129380386342 0.7148499749435984 -0.10499856026460021
-0.20942142710123882 -0.026692093828664217 -0.12314857107538675 0.4720685960786865 0.0935361767001143 1.0 -0.5407625419480027 -0.30890949289809355
-0.4099093213865328 0.335354556027893 0.31104497724191515 -0.5496661977750585 -0.5328058089452945 -0.12153536895857944 -0.14451354505932507 -0.07282925372774178
-0.9997450972161523 -0.7517693605167008 -0.7133655720724859 0.023420779966891927 -0.9999578905819518 -0.37607892935225445 -0.057642729422098006 0.35478349316661134
-0.1199911697208461 0.8946388109562726 0.12827690773104933 -0.219357885341392 -0.9691594759034013 -0.182736396108822 0.6350897442742065 0.08950024012945089
0.3482386735619572 -0.3268880196566119 0.7226138315344568 -0.829683688829731 -0.47937475391522144 0.029299822707125774 -0.47413004825552163 0.3548657570668332
0.21978597082520232 0.8921327084088665 -0.19359188448622835 0.8301795696133573 -0.06798990143163768 -0.7189617003796824 0.2739310830638925 0.44304374195451474
0.4787992475705439 -0.33928233808874086 -0.35711881274064095 -0.10022216957786054 -0.7212373573695986 1.0 -0.30972424473568516 0.06284065928892352
-0.11096725369739545 0.6588026115239131 -0.2750179912896044 0.12334230933452021 0.03585101982146811 -0.8427176657308156 -0.34725451374789057 0.9999999999999994
0.4972670087771131 -0.31743059381646055 0.9404316982961143 -0.1955570151331347 -0.07036183529964099 -0.6349564818082698 0.30102418657384533 -0.22874181988458508
0.39308372824257926 0.8311864326489784 -0.39916217097745244 0.08752235988075249 -0.20549989642942776 0.0034821586688326125 -0.4992609468600587 -0.5195051825483104
0.8130872902390253 0.07264900166277238 0.3500560437489058 -0.8310831664350904 0.1809225436737298 0.022624456826315458 -0.1423007103019637 0.9392599148714322
-0.0057590508437078 -0.5867817073679982 0.7297737642100267 -0.49137009911317914 0.11380132565735551 -0.6532440582863638 0.3902129465844971 -0.4578266411009117
-0.4962623315776664 -0.06485170823829332 -0.4787771441517272 1.0 -0.5524832805481382 0.8858148600494022 0.2853228720649407 0.7949707659108785
0.48161203836074395 -0.7473178896076672 -0.24636830111564142 0.6492267787351015 0.6532592473140548 0.5740680518874984 0.5644098400000481 -0.4247130884433066
0.5969281058646773 0.5119453361699634 -0.05799544517753712 0.2522636585642916 -0.7644315862804705 0.7040648509172178 0.7683950366588576 0.5618287994037721
-0.9137243505843429 0.4621293090898781 -0.9128701080676477 -0.827875564901657 -0.31439277590152975 0.39827724522927166 0.6915257095259278 -0.9100263033940744
0.6264344174639165 -0.3548070920595503 -0.10101692996604035 0.2205093546412723 1.0 -0.9612890290797296 -0.7975887757471601 -0.215731766815272
0.5960853600458387 -0.3099719443136356 0.2569724105571617 -0.5441674318857729 0.16444896901606257 -0.9999999999999993 0.7418924382001993 -0.8916597104111381
-0.27486108817572774 0.19051919309260615 -0.8436742429116508 1.0 0.05843032151563295 -0.5498857819533428 0.21616341134775863 0.04888773585040073
0.09278422459265766 -0.03303128588078277 0.3244750657063504 -0.7982435194871362 -0.09154038417676894 -0.2637971435840647 -0.1453258547232614 0.9777747873310529
0.752258912492902 -0.4575612424691447 0.33544001101037213 0.03421127776916641 -0.2218644311274079 0.11864919005879823 -0.5159379659593024 -0.08016869540060331
0.018844838395483576 -0.4641845093440041 -0.9224087614672457 0.6870794397503166 0.5319495949256419 0.6780891699814654 -0.8770897929586715 0.7971537433920047
0.35801600777427717 0.1476267751053538 0.9028395483606704 -0.2753263850056048 -0.41419690293308725 -0.5075877247429175 0.9969273084270048 0.8339239818325949
0.5014784766376311 -0.6590011192379027 -0.31569494749162247 0.6076842252331572 -0.946875830041915 -0.04417228833882387 0.8811614714536817 -0.03511740162095744
0.345213411500018 -0.12967287528418892 -0.9845753129178934 0.16879641302337903 -0.9737725997598716 -0.987047528526596 -0.9580783759060054 0.5830642678642018
-0.8365808466429036 -0.8169160225260187 -0.9373684139997892 0.7855866084638105 -0.9999999999999999 0.6613853377148147 0.5002866852604224 -0.44172071801336693
